code/rnn_results/net/rnn_24_.pt (torch, 206535 bytes, 9 tensors)

weight_ih_l0 f4 [128, 7]
00000000: 72bd 063b f609 5e3e af62 18bf a2e2 ccbd
00000010: 990c 04bd f650 c3bd 18fb 24bd 6a98 60bd
00000020: af42 b13d 4fa4 3ebd ff90 6ebd f43d 623d
00000030: 44c6 933d 799d 81be 8c77 423e 4f54 d0bd
00000040: f4bd d8bb 5a06 ccbd 4a2e 75be d53b c1bc
00000050: b8cf 7b3c 83ea 723d 89e0 ef3d 50a4 08be
00000060: 3d06 a03c 80ec 363e 72a3 5bbe 5cd5 0b3e
00000070: a88b 023e fbfb 25be abc1 81bd 6930 573d
00000080: 8d69 f93d 4734 0fbc a75a b0bc fd5a 5fbe
00000090: 54e2 d0bd 2e9d d43d 3f88 af3b 6882 b13c
000000a0: 1c21 213e d10c 43be 2d85 54be 7179 0bbd
000000b0: bdde 263d e0c7 0b3e 1eb0 e6bd 622b 923d
000000c0: 1055 da3d 8282 1abd fb7e 6cbd e6da 2b3e
000000d0: e7c4 af3c a3ae 143e d0b3 82bd 6ab2 2b3e
000000e0: ffdf 21be bfba 11be 74e8 13be e62c 80be
000000f0: 99e1 7c3e d769 dc3d cc9c a0bd ec4b 7f3e
00000100: 7728 25be 2e88 b0bd 49c3 cd3c 614c 3a3e
00000110: aa1c 16bd 0616 443d 8ccc 983b a3a8 9fbe
00000120: e6c6 bc3e a3de 163e a419 debd 1839 b7bd
00000130: 0d16 433e fec0 79bd fca3 56be 04c8 e33e
00000140: 874e 893e 309c 023e d927 283b dbb8 ab3d
00000150: a39f 073e 20d6 6a3e 037f 95be 3ebe a9bd
00000160: 4cec f1bd 8e59 f9bc 83af 693e 8bd1 a9bd
00000170: 9dae a13d dd21 87bd 4157 b23d a176 fd3b
00000180: 8aec 82bd 7e19 093d e8f7 aabc c698 82be
00000190: e020 333e c8fc 553c d6c0 783d 9e0d 6dbe
000001a0: 6450 943d 7df8 de3c 116a 5dbe 3ffa e03e
000001b0: 21ef 303e 528c 06be 6fb1 ea3c eaa9 1dbe
000001c0: e2f5 d2bd 6330 27bd 21b1 893e 9ae5 403e
000001d0: dfd5 a1bd 2987 843d 2352 4fbd 315f 93bc
000001e0: 5f1c 6dbd 7947 ad3e 2b09 f63c 1a80 37be
000001f0: 214e f03d 4391 4bbd a872 073e 6489 4fbc
00000200: abb2 cabe c59a c8bd 918f 9c3d fed2 fa3d
00000210: 8008 a8bc 8069 423d bcaf 773e ccef e13c
00000220: 2f3c d7bd 6149 103e 41f8 6f3e 7ee3 86bc
00000230: fcb1 9dbe 0389 49be f94b 2dbe d3f5 893d
00000240: 403f fe3d d030 0abe 40b8 d8bc 3636 38be
00000250: e119 a9bd 1224 27be 714f a8bc 7f92 5fbd
00000260: 96ab dabd e01f 233d 9efc 8c3c f445 ba3c
00000270: 809d 9d3d 7c6e 883e 3ab8 c6bc 50bf dcbd
00000280: c158 173d 2f6e d43d 49a8 85bd 03d3 1d3e
00000290: c9c7 6ebe faef ef3d a840 c0bd eaa3 97bd
000002a0: f278 83bd 6ce4 713d 64e9 8a3b 52e1 0abe
000002b0: 141d b53d 10a7 033e e25f d7bd aa7c 46bd
000002c0: d062 8abd 8e0c 1fbd 1060 dfbd 09c8 513d
000002d0: fd11 ccbd 6a29 8b3e 25ca 513e 5ab2 c83d
000002e0: 0076 15be 169b 373e f5e6 bcbb 7fbb ba3d
000002f0: eec1 d8bc e2de 343e d0eb 5b3b 6385 ffbc
00000300: 701c 393b 91a7 0bbe e562 c5bd 0d6d 933c
00000310: 99d6 703d 8fbd cc3d f616 8f3d 1366 e8bd
00000320: fdc0 b2bc 6154 1e3e f6ef d7bc d0bf e83b
00000330: d979 57be f183 30bc 1c22 a5bc c04c abbc
00000340: d27b 37be 6a1e 98bd b8ac 1f3e 3a34 a2be
00000350: 95eb 283e f81c 3fbe 0070 11bc 7169 b93d
00000360: b3f7 c1bd 837f bcbd 63c7 c8bd 261b 33bc
00000370: 85fc ae3d 136d 98be cf96 4d3e f530 16be
00000380: c956 98bd 9ffc 813e f9e7 8ebd 946d 50bd
00000390: 1e0b 323d 024b cd3d 36d8 8f3c 4f00 02be
000003a0: 166c fbbd 1fa5 27be 6b1e febc 5b08 20bd
000003b0: 0640 bebd 3296 553d 2b3b e7bc 50ee 63be
000003c0: 283d 053d 66ac 2bbe 6d08 f5bd 9930 de3c
000003d0: 642e 29be 8007 f23d 7043 2c3e 10da 46be
000003e0: f3d1 e8bd 8de4 ac3d eeeb adbd c371 00be
000003f0: 1289 ba3c d551 b53d 1fb7 a33d 4371 a53d
0.0020559696 0.21683487 -0.5952558 -0.10004164 -0.032238577 -0.095369264 -0.040278524 -0.054832853
0.08655297 -0.046543416 -0.058243748 0.055234864 0.072155505 -0.25315455 0.18990916 -0.101723306
-0.006614441 -0.09962149 -0.23943439 -0.0235881 0.015369348 0.05930568 0.117127486 -0.1334393
0.019534225 0.17863655 -0.21449068 0.13655609 0.12748587 -0.16209404 -0.06335767 0.052536402
0.12178335 -0.008740491 -0.021527601 -0.21812053 -0.10199419 0.10381542 0.005356818 0.021668628
0.15735286 -0.19047858 -0.20753928 -0.034051362 0.040739764 0.13650465 -0.112640604 0.07137181
0.10660756 -0.03772212 -0.057738286 0.16782722 0.021456195 0.14519744 -0.06381953 0.16767278
-0.15808104 -0.14231394 -0.14444143 -0.25034255 0.24695434 0.10762375 -0.07842407 0.24931306
-0.16128717 -0.08619724 0.025117533 0.18193199 -0.03664843 0.047872566 0.0046630558 -0.31183347
0.36870497 0.14733367 -0.10844734 -0.08946437 0.1905138 -0.060975067 -0.20960993 0.44488537
0.26817724 0.12754893 0.0025658517 0.08384868 0.1324449 0.22933245 -0.29198465 -0.08288239
-0.11812648 -0.03043821 0.22820859 -0.0829192 0.07894633 -0.06598256 0.087080486 0.007735089
-0.063927725 0.033471577 -0.020870164 -0.25507182 0.1749301 0.013060756 0.060730778 -0.23149726
0.07241896 0.027218098 -0.21622492 0.43940923 0.1727872 -0.13139465 0.02864906 -0.15396848
-0.10300805 -0.04081763 0.2689295 0.18837586 -0.07902121 0.06471092 -0.05061544 -0.017989727
-0.057888385 0.33843592 0.030033669 -0.1791996 0.11733652 -0.04969908 0.13227332 -0.012667034
-0.39589438 -0.09795145 0.076445706 0.12247275 -0.020511866 0.047463894 0.24188131 0.027580164
-0.10509526 0.14090492 0.23434545 -0.016465899 -0.30799854 -0.19681172 -0.16923513 0.067363404
0.12414408 -0.13495183 -0.026455045 -0.1798943 -0.08256889 -0.16322353 -0.020545693 -0.05458307
-0.10677259 0.03982532 0.017210301 0.022738434 0.07696056 0.26646793 -0.024257768 -0.107786775
0.036949877 0.10372578 -0.065262385 0.15412526 -0.233184 0.11715694 -0.09387332 -0.07404311
-0.06419553 0.05905573 0.004239248 -0.13562515 0.08843437 0.12856698 -0.10516335 -0.048458733
-0.06757128 -0.038830332 -0.10906994 0.05121616 -0.099643685 0.27180034 0.20487268 0.09799643
-0.14595795 0.17930254 -0.005764837 0.09117793 -0.02645966 0.17663148 0.0033557303 -0.031191533
0.002824571 -0.1363814 -0.09638003 0.017996335 0.058798406 0.09997093 0.06986801 -0.11347594
-0.02182054 0.15461875 -0.02635954 0.007102944 -0.21042575 -0.010773645 -0.020157866 -0.02091062
-0.17918327 -0.07427676 0.1559323 -0.3168047 0.16496117 -0.18663394 -0.008876801 0.090533145
-0.09471073 -0.092040084 -0.09803655 -0.010931766 0.08544258 -0.29770717 0.2007706 -0.14667113
-0.07438428 0.25388047 -0.06977839 -0.05088575 0.043467633 0.10024072 0.017559152 -0.1269543
-0.12276475 -0.16371582 -0.031020364 -0.03907047 -0.09289555 0.05214519 -0.028226456 -0.22258878
0.032529026 -0.16764984 -0.11964498 0.027122783 -0.16521603 0.11817837 0.168226 -0.19419122
-0.1136817 0.0844203 -0.08492266 -0.12543397 0.022770438 0.08853499 0.07993912 0.080782436

weight_hh_l0 f4 [128, 128]
00000000: a272 cfbd 1d5b e3bd b3c8 fe3d 4cb1 1d3e
00000010: d0d2 34bd 16a5 2abd d7a6 a93d c7bf 013e
00000020: bedf e83b 6f0b 5d3c ff8d 493d 268f eb3c
00000030: 2804 833c 12a5 833d 8a73 003d a99f 4c3c
00000040: 2a0e 5ebc c96c d63c a725 c93c d43c e43d
00000050: 180b 7cbd 983a c2bc a5fe 273e 0040 a83d
00000060: f3f9 ab3d 120b 36be 868e 5dbe a635 2dbe
00000070: f7d4 d03d aff9 10be 6247 413b 777a 15bd
00000080: f40c a83c bf6a 1ebe 7cf7 95bc a5de b4bd
00000090: de11 063d d2ca 343d 09de 383e 55d9 e1bd
000000a0: f95c d33c 51df 83be 8303 aebd d614 5abd
000000b0: 5804 89bd bc4c c23a 3f16 d8bd 388b e0bc
000000c0: d632 cf3b d644 1a3e cee7 ec3b 5b9a 4fbd
000000d0: 697a 72bd b772 203c 9ca4 453e c526 033d
000000e0: fb69 233e c068 863e a9aa 7bbc fb16 803d
000000f0: 7d35 ce3d 58d9 653e 37f4 f13a c678 53bc
00000100: ef91 733d f48c 80bd 5634 ae3d 855b a2bd
00000110: 9781 f9bd 8d6d 01be 2c52 be3d 1081 c8bd
00000120: 6c50 463e 59fe cfbd 7092 143e 919b 423d
00000130: 57a1 333d f01c 8e3d f172 803c dcc4 72bd
00000140: 1250 2d3d e72e bbbb 90f7 69bd 923b 163e
00000150: b8e8 3bbe d183 ad3d 2000 bdbc d850 aebe
00000160: e49a dbbd 764c 80bd 48f7 f9bd e178 8f3d
00000170: c597 29be c559 65be 273e d13c c9c8 9b3d
00000180: c322 72bd 3c85 ef3d e5f9 86be 3806 67bb
00000190: 3e34 06be ba06 e43a a936 c73c 54fe ae3c
000001a0: e633 f3bc 2f27 babd dc7f e8bd 1df4 1bbe
000001b0: b63b 34be 81ca 60bd 4fbe 3dbe 66f5 6f3e
000001c0: 250c 0f3e 2ef2 efbd 4821 6a3d 608c 51ba
000001d0: bdcf 42be 7055 47bc 3cf1 fe3c ebf6 a93d
000001e0: dad4 a93c dcee cbbd 1485 223e a273 b7bd
000001f0: bf36 1cbe 2b4d 873e cee0 973d 7f67 9abd
00000200: 8d3b b73c 1a92 3dbd 1202 063d 6684 22bd
00000210: 5319 b23d 5fef 853d bb8d 373d fcf0 283c
00000220: e34b 393e a5aa 013d 1a49 323d 384b e43b
00000230: 4ac4 e23d 9f6c aabd fa31 0d3c 2bd1 83bd
00000240: 15a5 c63d 7bd0 dfbc 9c79 91bd 11d3 c2bc
00000250: 64d0 12be 02d5 ddbb d6e5 3e3e 8608 7bbe
00000260: 6041 903c e3f2 28be 779c a03e b157 383e
00000270: 64b7 f0bc e66e 07be 7f18 84bd aa4d 453e
00000280: 0d81 b5bd 4eee 183d ed59 5c3c d594 663c
00000290: 68ab ac3d dfbd 163e 820a 113c 9981 2ebe
000002a0: 651d 8bbb 4b3c c63d 2805 ae3d da0a debd
000002b0: c25b 9b3b ca27 8bbd cf46 8dbb 7b21 b73d
000002c0: 9619 3f3d 37f2 67bb 4313 ad3d 1f77 7a3c
000002d0: 8506 773d 6e90 503d 6b57 c7bd 3569 8bbd
000002e0: 63ca ffbc 5d6c 383b effe 703c 2dd7 853d
000002f0: 6bf1 fcbd 4953 a9bd 03a5 143e 7078 bc3d
00000300: 76d1 baba f7bd 9e3c 0d2e b2ba df13 2abd
00000310: 169f 4bbd 11a0 df3d b68c de3d efc3 3e3d
00000320: 46b4 7b3d be2f 0abe d2f1 123e bbb8 c9bc
00000330: 4a6b a1bd 899e 283d e461 b8bb 22bb f5bb
00000340: 1847 72bd 2829 03bd c3ac 773e b008 30be
00000350: 1ebf 21bc d8bf 81bc a9b2 013d 0e4d 7d3d
00000360: f0b6 6dbd 747e 0f3d fae9 723e 85e4 013e
00000370: 7042 59bd 749a 353e 0c31 3d3e b3c9 99bd
00000380: 6021 f8bd 3d1f 10be d404 343b 043f 603d
00000390: 750f 4fbe ae12 b53c 4aa9 a4bd ab57 323e
000003a0: d7e6 f9bc d0fd 173d d3da c9bc deff f3bd
000003b0: 9c8b cdbd c100 41bd 4cec 67bc 4c8c 19be
000003c0: fef6 cb3c e69c be3d ae81 423c 6425 a0bc
000003d0: eb09 b4bd 0032 68bb 5066 913d 243c 27be
000003e0: 4f76 143d 704a 043d a837 ab3b c68b 1d3e
000003f0: 848c 013d d948 933e 3467 84bd 8c1c c93a
-0.10129286 -0.11101363 0.12440624 0.15399665 -0.04414636 -0.041661344 0.08283775 0.12670814
0.0071067503 0.0134914955 0.049207684 0.028754782 0.015993193 0.06427969 0.031360187 0.012489238
-0.013553182 0.02617492 0.024554087 0.111444145 -0.061534017 -0.02370958 0.16405733 0.08215332
0.083972834 -0.1777766 -0.216364 -0.16914997 0.1019687 -0.14157747 0.002949201 -0.036493745
0.020513989 -0.15470408 -0.018306486 -0.088315286 0.032731883 0.044138737 0.1805345 -0.11027781
0.025801169 -0.25756314 -0.084967636 -0.053242527 -0.06690282 0.0014823894 -0.10551118 -0.027410135
0.006323199 0.15065321 0.0072297817 -0.050684314 -0.05919877 0.009792975 0.19301075 0.032019395
0.15958397 0.26251793 -0.015360513 0.06254383 0.10068796 0.22446191 0.0018459623 -0.012907213
0.059465345 -0.06276885 0.08506076 -0.07927612 -0.121829204 -0.12639447 0.09293017 -0.09790242
0.19366616 -0.10155935 0.14508986 0.04751164 0.043855038 0.06939113 0.015679808 -0.05926977
0.04231269 -0.0057123783 -0.05712086 0.14671162 -0.18350494 0.084724076 -0.023071349 -0.34046054
-0.107229024 -0.06264584 -0.12205368 0.07005478 -0.16561802 -0.22397526 0.025542332 0.07606656
-0.059115183 0.11695334 -0.2636253 -0.003525151 -0.13105866 0.0017397024 0.024318056 0.021361507
-0.029687833 -0.09089505 -0.11352512 -0.1522984 -0.17600903 -0.054880623 -0.18529628 0.23433456
0.13969477 -0.11716114 0.057160646 -0.0007993635 -0.19024558 -0.012166366 0.031120889 0.08299049
0.020731378 -0.09957668 0.15871078 -0.08957602 -0.15255259 0.26426062 0.07415925 -0.075392716
0.022367263 -0.04628191 0.03271682 -0.039677046 0.086962365 0.06539797 0.0448129 0.010311361
0.18095355 0.03165688 0.043526746 0.0069669746 0.110725954 -0.08321499 0.008617872 -0.0643638
0.09699456 -0.02732109 -0.07103273 -0.023782285 -0.14337307 -0.0067697773 0.18642363 -0.2451497
0.017609298 -0.16498904 0.31369373 0.18002202 -0.029384322 -0.13225898 -0.06449985 0.19267908
-0.08862505 0.03733664 0.013449174 0.01407357 0.08431131 0.14720868 0.008852603 -0.17041625
-0.0042454475 0.09679469 0.08497077 -0.108419135 0.004741163 -0.067946985 -0.0043114196 0.08941933
0.04665526 -0.0035392174 0.084509395 0.01528719 0.060308952 0.05091899 -0.097334705 -0.06807176
-0.031224435 0.0028140761 0.014709218 0.06535182 -0.12350734 -0.082678385 0.14516072 0.09202659
-0.0014253098 0.019377692 -0.0013594046 -0.041522857 -0.049712263 0.10919202 0.10866682 0.046573576
0.06145122 -0.13494775 0.1435006 -0.02462422 -0.07881792 0.041166816 -0.005626904 -0.0074991146
-0.05914983 -0.03202167 0.24186997 -0.17190814 -0.009872226 -0.015838549 0.031664524 0.061841063
-0.05803579 0.035032704 0.23722067 0.1268483 -0.053041875 0.177347 0.18475741 -0.07509174
-0.12115741 -0.14074416 0.0027468698 0.054747596 -0.2022074 0.022103634 -0.08040102 0.17416255
-0.03050558 0.03710729 -0.024640476 -0.11914037 -0.10036394 -0.04711986 -0.014155459 -0.14994925
0.024898048 0.0930727 0.011871738 -0.01954908 -0.08790954 -0.0035430193 0.07099593 -0.16331536
0.03624564 0.03229755 0.0052251406 0.1538535 0.031628147 0.28766516 -0.06464997 0.0015343591

bias_ih_l0 f4 [128]
00000000: fa4b f43d c392 3ebe 66ad 82bd 1292 163e
00000010: 9370 34bd f4ae 1fbe 0e13 8abd 43d2 983c
00000020: 9d6a c3bc c2ae 3d3d 5b68 7fbd 7562 813d
00000030: 9fe2 84bd 598a 913c b65f 313e 6bfd 323c
00000040: 1cbf de3d fcc2 d53d cf02 96bd 540b ba3d
00000050: e192 29bb 3b46 9b3d 1e8c 46bc 7043 60bd
00000060: a859 79be c1d3 ef3c 44d4 b9b9 d79c 163d
00000070: c1ba 90bd d116 01be c15c 983d c932 3ebd
00000080: fa30 90bd 26a0 98bd 1db2 a0bc b199 cfbd
00000090: 4fb4 e2bd 6761 35bd 8d3e aabd 4b8d eebd
000000a0: fe83 92bd 06b1 9fbc 105f 90bd 0c30 783d
000000b0: ba21 ca3d 1381 c2bd c47c f63d 8819 e1bd
000000c0: 7ca1 a0bd 5d83 0f3d 083e 063e f4e4 26bd
000000d0: 91d9 45bb 93df 74bd 0b9b a5bc a2e7 98bd
000000e0: 1e37 b8bd b5a0 3a3e d14b a63c 98fd ffbc
000000f0: f83e 173e 3e58 8b3a e1dc 39be 4f84 813b
00000100: 5697 da3c bf15 113e a21a 0cbe 111c 61bd
00000110: 3434 a5bd 915c 6e3d 31eb 9abd d1c2 f03c
00000120: ac28 c73c 7614 f6bd 3b43 513d e404 96bd
00000130: b2dd 2cbd 6034 10bd 79b3 443e 9498 b7bd
00000140: ce8e c73d 2a4f ddbc 2b17 c03d 63b7 473d
00000150: 1bc7 0bbd fcfa b3bd ad71 0cbe 4763 8c3c
00000160: 156d df3b 1e1c a6bd 9c8a 623d 7cc2 7c3e
00000170: 8c23 133d 731e 17be d32d 47be 193d 823e
00000180: 1a19 803d ac43 f73c 8cf3 3ebe 2cec c8bd
00000190: 1eae 43be 5166 1bbd 151b a13b f660 de3b
000001a0: 002f 6f3d 94a3 563d e3d9 88bd b93e 81bb
000001b0: 3f86 ed3d 499c 2bbc 321e 05bd aa0a d8bc
000001c0: 9797 35be 735b c9bd 8826 89bd 3db5 14be
000001d0: 1a27 2e3d 7e17 2a3c 533b 91bb 68f8 fe3a
000001e0: a6b0 76bd 48fd 44be 6a10 8cba fbcb 9a3d
000001f0: 340c ab3d 16ba 99bd 30d6 2fbe d951 35bd
0.11928554 -0.18610673 -0.063807294 0.14704159 -0.04405267 -0.15594083 -0.06741916 0.018654948
-0.023854548 0.04630924 -0.06235538 0.06317607 -0.06488537 0.017766165 0.17321667 0.010924677
0.10876295 0.10437581 -0.073247544 0.09084192 -0.00258749 0.07581755 -0.0121183675 -0.054751813
-0.24350607 0.029275777 -0.000354441 0.036770668 -0.070668705 -0.1260636 0.074395664 -0.04643515
-0.070405915 -0.07452421 -0.019616181 -0.10136736 -0.110695474 -0.044282343 -0.08312712 -0.11648043
-0.07154082 -0.019493591 -0.07049382 0.060592696 0.09869714 -0.09497275 0.12035516 -0.10991198
-0.07843301 0.035037387 0.131096 -0.04074569 -0.0030189494 -0.05978353 -0.020215532 -0.074660555
-0.08994888 0.18225367 0.020299824 -0.031248853 0.14770114 0.0010631157 -0.18150665 0.00395254
0.02668349 0.14168452 -0.13682035 -0.054958407 -0.080665976 0.058193747 -0.075643905 0.02938977
0.024311386 -0.12015621 0.051089507 -0.073251516 -0.042203613 -0.0352062 0.19209088 -0.08964649
0.09744035 -0.027015287 0.09379419 0.048758876 -0.03412543 -0.08788106 -0.13715239 0.017137183
0.0068184235 -0.08110832 0.05530797 0.24683565 0.035922572 -0.14757709 -0.19451074 0.2543724
0.06254788 0.030183636 -0.18647593 -0.09810671 -0.19109389 -0.037939373 0.0049165585 0.006786461
0.058394432 0.052402094 -0.066821836 -0.0039442447 0.11597871 -0.010474273 -0.0324995 -0.026372273
-0.17733608 -0.09831896 -0.066968024 -0.14522262 0.04251776 0.010381578 -0.004432121 0.0019452693
-0.06022706 -0.19237244 -0.0010686044 0.075584374 0.08351937 -0.07506196 -0.1717155 -0.04426751

bias_hh_l0 f4 [128]
00000000: f34b f43d c292 3ebe 65ad 82bd 1192 163e
00000010: 8f70 34bd f3ae 1fbe 0f13 8abd 44d2 983c
00000020: 9e6a c3bc beae 3d3d 5868 7fbd 7462 813d
00000030: 9fe2 84bd 558a 913c b35f 313e 6bfd 323c
00000040: 1abf de3d fdc2 d53d cd02 96bd 530b ba3d
00000050: d192 29bb 3a46 9b3d 1f8c 46bc 6c43 60bd
00000060: a759 79be bcd3 ef3c 72d4 b9b9 d59c 163d
00000070: c1ba 90bd d116 01be bf5c 983d cb32 3ebd
00000080: fa30 90bd 2aa0 98bd 19b2 a0bc b099 cfbd
00000090: 51b4 e2bd 6861 35bd 903e aabd 498d eebd
000000a0: ff83 92bd 02b1 9fbc 0f5f 90bd 1130 783d
000000b0: bc21 ca3d 1581 c2bd c47c f63d 8819 e1bd
000000c0: 78a1 a0bd 5d83 0f3d 083e 063e efe4 26bd
000000d0: acd9 45bb 8cdf 74bd 079b a5bc a2e7 98bd
000000e0: 2237 b8bd b6a0 3a3e d84b a63c 9afd ffbc
000000f0: f73e 173e ae58 8b3a e0dc 39be 3184 813b
00000100: 5897 da3c bf15 113e a41a 0cbe 0e1c 61bd
00000110: 3334 a5bd 945c 6e3d 2eeb 9abd d6c2 f03c
00000120: b228 c73c 7814 f6bd 3e43 513d e404 96bd
00000130: b5dd 2cbd 5d34 10bd 7cb3 443e 9098 b7bd
00000140: d08e c73d 224f ddbc 2c17 c03d 69b7 473d
00000150: 1cc7 0bbd fafa b3bd ad71 0cbe 4c63 8c3c
00000160: f26c df3b 1d1c a6bd 9c8a 623d 7ac2 7c3e
00000170: 8923 133d 751e 17be d22d 47be 193d 823e
00000180: 1b19 803d b043 f73c 89f3 3ebe 30ec c8bd
00000190: 1eae 43be 4e66 1bbd 0d1b a13b 0461 de3b
000001a0: 052f 6f3d 93a3 563d e1d9 88bd bc3e 81bb
000001b0: 3e86 ed3d 479c 2bbc 2e1e 05bd af0a d8bc
000001c0: 9797 35be 705b c9bd 8926 89bd 3db5 14be
000001d0: 1e27 2e3d 8117 2a3c 443b 91bb 3cf8 fe3a
000001e0: a3b0 76bd 47fd 44be a110 8cba fdcb 9a3d
000001f0: 350c ab3d 14ba 99bd 32d6 2fbe da51 35bd
0.11928549 -0.18610671 -0.06380729 0.14704157 -0.044052657 -0.15594082 -0.067419164 0.01865495
-0.02385455 0.046309225 -0.06235537 0.063176066 -0.06488537 0.017766157 0.17321663 0.010924677
0.108762935 0.10437582 -0.07324753 0.09084191 -0.0025874863 0.07581754 -0.012118368 -0.0547518
-0.24350606 0.029275768 -0.00035444234 0.03677066 -0.070668705 -0.1260636 0.07439565 -0.04643516
-0.070405915 -0.07452424 -0.019616174 -0.101367354 -0.11069549 -0.044282347 -0.08312714 -0.11648042
-0.071540825 -0.019493584 -0.07049381 0.060592715 0.098697156 -0.09497277 0.12035516 -0.10991198
-0.07843298 0.035037387 0.131096 -0.04074567 -0.0030189557 -0.059783503 -0.020215524 -0.074660555
-0.08994891 0.18225369 0.020299837 -0.031248856 0.14770113 0.0010631287 -0.18150663 0.003952526
0.026683494 0.14168452 -0.13682038 -0.054958396 -0.08066597 0.058193758 -0.07564388 0.02938978
0.024311397 -0.12015623 0.051089518 -0.073251516 -0.042203624 -0.035206188 0.19209093 -0.08964646
0.09744036 -0.027015273 0.0937942 0.048758898 -0.034125432 -0.08788104 -0.13715239 0.017137192
0.006818407 -0.08110831 0.05530797 0.24683562 0.03592256 -0.14757712 -0.19451073 0.2543724
0.062547885 0.030183643 -0.18647589 -0.09810674 -0.19109389 -0.037939362 0.004916555 0.0067864675
0.05839445 0.05240209 -0.06682182 -0.003944246 0.1159787 -0.010474271 -0.032499485 -0.026372282
-0.17733608 -0.098318934 -0.06696803 -0.14522262 0.042517774 0.01038158 -0.004432114 0.0019452642
-0.060227048 -0.19237243 -0.0010686108 0.07558439 0.08351938 -0.07506195 -0.17171553 -0.044267513

weight_ih_l1 f4 [128, 128]
00000000: 1303 473e 4373 a53d ee58 07bd f977 62bd
00000010: fde1 adbc c471 913c d43f d13b 9c7f 70be
00000020: fb68 1c3d cb99 813c b8b3 133d 9719 0ebd
00000030: 7bdc 353e 1127 a9bd 4b6f 2d3d 3197 a1bd
00000040: 3271 d9bd ef43 923d cc06 edbd 0178 8cbd
00000050: 028f 06bd ea42 f8bc a642 0f3c ffe7 8a3d
00000060: 5c3e aa3d a3c2 5c3d 90bf 223e 060c aa3d
00000070: 20c5 d7bd 76df 463e 598e 343e 13c3 103d
00000080: d081 21b8 7d5b 3fbd 8650 a4bd 1879 0c3e
00000090: b91c cc3d 2cd6 bbbd 316d b5bd bd3e 5b3b
000000a0: 200b 39bd 119a 653d 743c 513e b1d4 41bd
000000b0: 956b be3c 95d8 833d b80f f43d 269e 9d3c
000000c0: e710 b6bd fd17 5cbe 57de 45bd 7ad7 59be
000000d0: 1ffa 943d 1d56 36bd e55f 12be 6089 5b3d
000000e0: 1479 54bd af38 c63d 0c87 ef3a 3d55 e5bc
000000f0: 4a61 f8bd 5719 083c 104c fa3a dac7 733d
00000100: 22cf d33d 5b83 f53d 562d e9bc 2a96 663e
00000110: 1a44 1b3e e66a a43d e620 3d3e 84f3 3abe
00000120: bcc3 c63c 26d0 4a3e f649 97bc 93e1 9ebe
00000130: b03f f03d 980d d1bd 3d8a f8bd 1e98 8d3d
00000140: 2783 a1bd 4a0e 393d 8b93 063d 79fa d3bb
00000150: 525e b5bc 63c5 3a3d 2a20 283e f00b dd3c
00000160: 2139 8a3d b26a 4b3c b56c 113e e766 923b
00000170: 835d 57bc bfb8 9abd 3a80 cabc 916d 88bd
00000180: a8f7 10bc a87d afbc cf41 053e b3fe 413d
00000190: 8b3f 39bc 7682 a7bc 4c04 e8bc aeb4 213d
000001a0: 6e49 923b c850 5d3d b140 03bd 8acc babd
000001b0: 0d1f 85bd 7b6b d4bd 9d73 cbbd e4c0 00bd
000001c0: 9639 863d a5fa 0bbd e2da 883e 5e2f 303e
000001d0: 5ec6 9abd 8278 41bd 620a 403d ba3e ecba
000001e0: 7ea1 3e3e 0992 9b3d bdfa adbd ce73 aebb
000001f0: 8967 3bbe c680 203e cd47 babd 9205 c13c
00000200: 068c 52bd c769 6fbd 8d32 0c3b 3c89 aabc
00000210: 13bd 22bd f94b b0bd f141 fe3d 4df5 3b3d
00000220: 76ac fcbd c12e 3d3b 7c96 1d3e 6fcb b23c
00000230: 256b 2dbc 0f54 cd3d 79f6 2a3d 4f39 483d
00000240: 6198 0bbd 24c3 c0bc d799 d93d 337d 06bd
00000250: fc80 9c3d 1c23 0f3e 1480 cabd 054d 9cbd
00000260: ca2e 1cbd 3961 023b 0c94 f13d 2bd8 19bd
00000270: 4f12 9e3d 36e5 183e 6c03 bfbc d8f3 5f3e
00000280: cd2d 65bd e0ac 863d 0fc8 da3d 5e23 0a3c
00000290: b596 4bbd 3bbb 263e d955 48bd 9adb 17be
000002a0: 0ed9 483d db2f f0bc 4c4d 143c fce7 013e
000002b0: 46e0 f0bc b978 183e ca3f 4dbb c101 803c
000002c0: c274 88bb 9319 ecbb c53b 9dbd 50e9 a5bc
000002d0: 20b3 873b 9a30 3abe 8478 033e 1a43 5cbd
000002e0: e2fb b53d 8350 81bc 026f 8dbc 285d 05be
000002f0: 6610 11be d172 8f3e 7c74 1a3e d5fa 5b3e
00000300: 008c 663d 9902 823c a911 413d 324b 993d
00000310: d44b 4fbe f8ba cebc 16f0 0bbe c00d 123e
00000320: ea21 883d 73ac b23d 7df1 d9bc 495b 383e
00000330: 7107 5abd 5908 03bd d4b5 0bbe 0964 65bd
00000340: 3967 163c d18b 03be a59d aa3c 6d63 4f3e
00000350: 7029 ed3d 640a a73c 0799 1fbc 5be4 1a3e
00000360: f2d7 9cbd 1d80 ff3c 070a 18bd 919c 6cbd
00000370: 8809 2ebe 11f2 303c 4077 58bd a82d 63bd
00000380: 7bda 31be 9916 debb 3ab3 383d debd 79bc
00000390: 9982 c93d 2e79 80bd ee0a 0fbe 2561 0fbd
000003a0: 58c0 3abd eb1c b03d 2dfd 52bd 90f8 453c
000003b0: e148 813c 5bba c53c 2198 ecbd 1710 f9bc
000003c0: 5c81 423e 48d9 1e3e cf0d 513d 3acd 353e
000003d0: 5e47 453d d60f 343d 66ca 913d 67e4 3e3e
000003e0: b900 f8bb 39d1 22be ab1b 8abd f934 afbd
000003f0: 64f3 69bd ff84 193e 1652 d73c ab49 943c
0.19434766 0.08078625 -0.033043794 -0.055290196 -0.021225924 0.017754443 0.0063857827 -0.23486179
0.038186055 0.015820405 0.036060065 -0.034692373 0.17759888 -0.082594045 0.042342465 -0.078901656
-0.106172934 0.071418636 -0.11573562 -0.068588264 -0.032851227 -0.030305345 0.008743918 0.06782531
0.08312675 0.053896558 0.15893388 0.083030745 -0.105356455 0.19421181 0.17632426 0.035342287
-3.850629e-05 -0.04671811 -0.08023171 0.13718069 0.09966416 -0.091717094 -0.08858717 0.0033454143
-0.045176625 0.056055132 0.20433217 -0.04732198 0.023244658 0.06437794 0.119170606 0.01924045
-0.088899426 -0.21493526 -0.048307743 -0.21273604 0.07274269 -0.044515718 -0.14294393 0.053597808
-0.05187328 0.0967878 0.00182745 -0.027994746 -0.121279314 0.008306823 0.0019096155 0.059516765
0.10342242 0.11987945 -0.028464 0.2251822 0.15162697 0.08028202 0.18469581 -0.18256956
0.024263255 0.19805965 -0.018467885 -0.31031474 0.117308974 -0.10207671 -0.12135742 0.0691378
-0.078863434 0.045179643 0.03285555 -0.0064690677 -0.022139702 0.0455984 0.1641852 0.026983231
0.06749178 0.012415575 0.14201625 0.0044678333 -0.0131448535 -0.07554769 -0.024719346 -0.06661523
-0.008848108 -0.021422222 0.13013385 0.04736204 -0.011306654 -0.02044795 -0.028322361 0.03947895
0.00446432 0.054032117 -0.032044116 -0.09121044 -0.06500063 -0.10372063 -0.09934161 -0.031433955
0.065539524 -0.03417458 0.26729494 0.17205569 -0.07557367 -0.047234066 0.0468849 -0.0018024065
0.18616292 0.07596213 -0.0849509 -0.0053238636 -0.18301214 0.15674123 -0.09095726 0.023562226
-0.051403068 -0.058450487 0.0021392435 -0.020817392 -0.039731096 -0.08608241 0.12414921 0.045888234
-0.12337582 0.0028866979 0.15389436 0.02182552 -0.010584627 0.100257985 0.04173896 0.04888278
-0.034080867 -0.02353055 0.10625046 -0.032834243 0.07641789 0.13978237 -0.0988771 -0.07631878
-0.03813056 0.0019894375 0.11795816 -0.03755967 0.07718336 0.14931187 -0.023317061 0.21870363
-0.055951882 0.06575942 0.106826894 0.008431284 -0.049704272 0.1628236 -0.048909996 -0.14829865
0.049035124 -0.029319694 0.009051632 0.12686151 -0.029403817 0.14889802 -0.0031318539 0.015625836
-0.0041643092 -0.007205197 -0.07677416 -0.020252854 0.0041412264 -0.18182603 0.12838942 -0.05377493
0.088859335 -0.015785461 -0.017264847 -0.13023818 -0.14166412 0.28017285 0.15083498 0.21482404
0.05628586 0.01587038 0.047135983 0.074850455 -0.2024377 -0.025235638 -0.13665804 0.14263058
0.066470936 0.08724298 -0.026604408 0.18003573 -0.053229753 -0.031990383 -0.1364358 -0.056003604
0.009179884 -0.12846304 0.020827124 0.20252772 0.11580169 0.020390697 -0.009741074 0.15126173
-0.07658376 0.031189019 -0.037118938 -0.0577665 -0.16995823 0.010799901 -0.0528481 -0.055463463
-0.173685 -0.006777596 0.0450928 -0.015243022 0.09839363 -0.06273113 -0.13969013 -0.035004754
-0.04559359 0.08599266 -0.05151098 0.012083188 0.015781822 0.024136713 -0.11552454 -0.03040318
0.18994659 0.15512574 0.05103856 0.17754069 0.048163764 0.043960415 0.071186826 0.18641816
-0.0075684455 -0.15900125 -0.067435585 -0.085550256 -0.05711688 0.1499214 0.026284259 0.018101534

weight_hh_l1 f4 [128, 128]
00000000: 33b5 123d da1e 8ebd e494 6c3e 30a1 8bbe
00000010: d976 dcbd bb18 ef3d 8c5c 033e 6536 febc
00000020: 5b2b 1ebd f9a2 643e 92a3 0dbe 4742 473e
00000030: 9c02 25be 25a8 6cbd 10fb b0bd 1ab7 373d
00000040: bb53 8abd ad6e 8f3e 1e43 8dbd bf44 1f3c
00000050: 5a22 24bb 5285 c8bd ee1a a43d 3f50 0b3d
00000060: be65 eabd b901 16bd 9d6b 343e 5e67 0a3e
00000070: 1082 a93c e340 08be 9c35 f03d 8236 0c3e
00000080: aa50 2dbd f966 d4bc 4433 df3d a816 e03d
00000090: a228 adbd 33f0 14bd ab81 093c 16f8 db3c
000000a0: c3de dd3d 166e d83d 4cb1 5e3d 9e25 4fbc
000000b0: adf4 2c3e a085 313d 5b15 62bd 2fa3 693d
000000c0: 15e0 d5bb e110 f23d 06da 0ebe 1fbf d13c
000000d0: 6af0 70bb 38ff 473e 4b59 083e d8e2 5b3e
000000e0: 5c4f 053d 5697 c13d 5f4c 81bd b613 aabc
000000f0: d394 693c 5198 b2bc 9082 bfbc 8e9f c03d
00000100: 0163 40be 9ae8 bf3d 4b57 593d 8551 513d
00000110: c8eb 8c3d 84d0 c3bd 06e8 47be 936d 15be
00000120: 823e 4b3e 185f ba3c a878 fb3c dbbd 093e
00000130: c10d 8ebd 2bc7 5bbd d551 77bc 7c16 2dbe
00000140: 92b5 e63c 4507 e9bb ac75 95bc 5502 dabd
00000150: 208c 333d d09c 093e c46c 96bd 09b2 ec3d
00000160: ca3c f83d b68d bf3c 49ad 433a de06 033d
00000170: af49 12bb 713c 05be 7cdd d23d a15f 47be
00000180: d64a d9bd 32ce 97bd c247 ccbd aa9c 1f3d
00000190: 4cd2 93bd 12fd 90be ec6f fabd 7541 edbc
000001a0: d55d f6bc bdee 4b3d 7215 0abc b683 5dbb
000001b0: 49a5 e1bc cf52 01be 64c8 c3bd a86d 19be
000001c0: e380 063d 4eaa f23d da48 bcbc 2fe5 f0bd
000001d0: 2d45 82bd 2e21 ad3d db91 d7bc e262 1c3d
000001e0: 216c 3abe eba5 66be a949 c53c ee90 b5bd
000001f0: 3a32 03bd d1b8 06be 99c1 2c3b 8b16 a3bd
00000200: d6b5 923d 980d b03d 41f2 413b 412b 8fbd
00000210: f26b 0abe 95ca 50bd f783 a23d d1cc ebbc
00000220: 0a4f 49bd 06b1 9b3b fab3 b5bc 863c 30bd
00000230: e2d5 45be e314 203d df39 c6bc 2b34 a2bd
00000240: ce1e 033e a7f3 b4bd abc6 41bc 026a bebd
00000250: 4661 c73c a4f5 8d3d 00c0 44bd 1d9e 2f3d
00000260: afbe 8bbc ce65 d93d 4366 86bb 8dcb 723c
00000270: 0c4f 05bd 3917 15bd 2094 b5bd dabd 99bd
00000280: ac23 d0bc a848 cc3d cf52 203e 0e3f af3c
00000290: d94a a93d 2ff3 7fbd 39c7 c7bc 0f99 90bd
000002a0: a5e8 0abe 6824 05be 6dd1 153d 1b7a e63c
000002b0: ad93 0a3e 9ea8 1bbb 6432 6bbd f778 9ebd
000002c0: 8884 013e 832c 0c3d 8e42 00bd f614 9fbd
000002d0: a163 5a3d 2c7b f4bd f029 5ebd 94aa 223d
000002e0: f5d2 d2bd ef23 d53d 2655 c13d 8965 213e
000002f0: 6c01 28bd 04a4 833e 8613 d6bb 599c de3c
00000300: 61c5 fa3d eaeb 8fbd 4754 af3c a68f 62be
00000310: c3a0 b0bd 46d9 34be 7b8e 9f3c 4d89 6d3c
00000320: f6a9 e7bc daba 00be 8842 5ebe 4636 09be
00000330: 527c f4bd 43c2 473d e887 b63d 7541 b63d
00000340: f5cf 6a3e d3af 643d 4079 363e bee7 cebd
00000350: f629 79bd 0aec c43d d7c3 85bc 9bc5 38be
00000360: 495a 063e 7ca2 9bbd cfad a0bb 39bc d1bc
00000370: ba5d a2bd 7fd7 813d 01d5 2fbe 6f04 c03c
00000380: af9f 463d bfcf 8dbe 92bf 5f3d bd1c 8d3d
00000390: c9ea 423e 77f5 a23d 9aa8 223d cef7 d33d
000003a0: f03b 11bc 5d50 943d 6ffa 29bd 336d 8dbc
000003b0: b0b4 0f3e 2dd2 9bbd 71e7 37be 9251 49bd
000003c0: 2f7b bbba dd18 63bb 1100 22bd 2236 a53d
000003d0: 54b7 b3bc 6aed 313e 87a5 7c3e f0d8 4bbd
000003e0: dded 37be a957 93bd 2c44 9fbb 7797 a93d
000003f0: d83a 17be 1105 093e 5e7e c03d 55e7 953d
0.035817336 -0.06939478 0.23103672 -0.27271414 -0.10764856 0.11674639 0.12828273 -0.031031797
-0.038615566 0.22327794 -0.13831928 0.19458877 -0.16114277 -0.057777543 -0.08641636 0.044852354
-0.067542516 0.28014126 -0.06897567 0.00972098 -0.002504489 -0.09791054 0.08012949 0.034012076
-0.11445187 -0.036622737 0.17619176 0.13515994 0.020691901 -0.13306002 0.11728975 0.13692668
-0.042313255 -0.025928007 0.1089845 0.10941821 -0.08455016 -0.036361884 0.008392732 0.026851695
0.10833504 0.10567872 0.054368302 -0.012643246 0.16890211 0.043340325 -0.055196147 0.05704039
-0.006526957 0.11819626 -0.13950357 0.025603829 -0.0036764392 0.19530952 0.13315313 0.21473253
0.032546386 0.09452693 -0.06313395 -0.020761352 0.014256674 -0.021801146 -0.023377687 0.09405433
-0.18787767 0.09370537 0.053061765 0.051103134 0.06880909 -0.095612556 -0.19522104 -0.1459258
0.19848064 0.022750422 0.030697182 0.1345133 -0.06936217 -0.05365674 -0.015095194 -0.16903108
0.028162751 -0.0071114623 -0.018244587 -0.10644976 0.043834805 0.13438725 -0.07344964 0.11557395
0.121209696 0.023383003 0.0007464481 0.03198897 -0.002232175 -0.13011338 0.10296151 -0.19470073
-0.10609977 -0.074123755 -0.09974624 0.038967766 -0.07217845 -0.28318077 -0.12228379 -0.028961876
-0.03007404 0.049788225 -0.0084279645 -0.003380043 -0.027544634 -0.12629245 -0.09559706 -0.14983237
0.03283776 0.11848889 -0.022983957 -0.11762463 -0.063608505 0.08453594 -0.026314666 0.03818024
-0.1820531 -0.2252423 0.024082975 -0.08865534 -0.03203032 -0.1315644 0.002636051 -0.07963284
0.07163589 0.08596343 0.0029593857 -0.06990672 -0.1351774 -0.050974447 0.079353265 -0.028784188
-0.049147643 0.0047513274 -0.022180546 -0.04302647 -0.19319871 0.03908242 -0.024197517 -0.079201065
0.1280472 -0.088355355 -0.011827151 -0.09297563 0.024338376 0.06931618 -0.048034668 0.042875398
-0.017058698 0.10615121 -0.004101546 0.014819038 -0.032546088 -0.0363991 -0.08866143 -0.075069144
-0.025407635 0.099747956 0.15656589 0.021392372 0.08266229 -0.062487777 -0.024386989 -0.070604436
-0.1356531 -0.13002169 0.036576677 0.028134396 0.13532896 -0.0023751627 -0.057421103 -0.07737916
0.12648213 0.034222137 -0.03131347 -0.0776767 0.05331767 -0.11937556 -0.054239213 0.039713457
-0.10294143 0.104072444 0.09440069 0.15761389 -0.04101698 0.25711071 -0.006533089 0.027174162
0.12244678 -0.07027419 0.021402491 -0.2212511 -0.08624413 -0.17661008 0.01947712 0.014498067
-0.028279286 -0.12571278 -0.21705067 -0.1339961 -0.11937775 0.048769247 0.08912641 0.08899204
0.22930892 0.05583174 0.1781969 -0.10102795 -0.060831033 0.096153334 -0.016328735 -0.1804413
0.13120379 -0.07599351 -0.004903532 -0.025602447 -0.07928033 0.06339931 -0.17171098 0.023439614
0.04849213 -0.2769756 0.054626055 0.06890247 0.19034876 0.07956975 0.039711572 0.10349999
-0.008864388 0.072418906 -0.041498598 -0.017263984 0.1403377 -0.07608447 -0.17959382 -0.049150057
-0.0014303679 -0.003465227 -0.039550845 0.08066966 -0.021938004 0.17375723 0.24672519 -0.049767435
-0.17961831 -0.07194454 -0.0048604216 0.08280843 -0.14768541 0.13380839 0.09399103 0.07319514

bias_ih_l1 f4 [128]
00000000: 8277 83bd b21e 7bbe 9fd9 633c bb22 0a3e
00000010: d33b c0bb 3aeb fb3d 1d2e 02bd 1c05 d03d
00000020: ffbf 343c 96b8 003e ca01 fabc 3528 2cbd
00000030: 0a6b b2bd 0423 db3d 7599 123d ff52 8e3b
00000040: 56e2 d93d 5c96 63bc b2fb e9bd 0500 cfbd
00000050: 16c9 92bc 82d2 ea3d 63e2 b7bd 975b 8c3d
00000060: 8125 583e c756 e33d 00c8 1e3e 33ef debd
00000070: b22a e03c cde8 453d 5ad8 633d 4fbc 593d
00000080: 467a ae3d 6a8c 473e 0682 d53d 6744 b83d
00000090: a579 e93d 1b60 f93d 8f87 b9bd 4fc1 ed3d
000000a0: e4a5 76bc 6cf8 00be c80d 03be 1961 073e
000000b0: 23b9 d13d 411f 8d3d 19b6 f63d 1949 523e
000000c0: 7f81 0cbd 3c75 97be 83cf a9bd a2b7 e4bd
000000d0: f675 483d 9bd2 dbbd 080b 993d 24b2 cb3d
000000e0: 02c0 c63d a528 5bbe 0bfb 973d dd01 22bd
000000f0: 11d8 b1bd 896a 3abd 1119 3b3d f50d 003e
00000100: 927b 18be d989 0dbd 09fa f43d 218f 96ba
00000110: 1ee0 adbd 39e5 073e f89e 003e b130 f7bd
00000120: 3724 b83d b720 26be 4528 253e 53ee 2c3e
00000130: ef15 85bd 930a bdbd 4779 e73d 4b74 e9bd
00000140: 3155 cb3d 76f9 64be 107d 3d3c e1b6 64bd
00000150: 595a 2cbe ab31 ff3d 1b73 6dbc c50d 6a3e
00000160: d0af e33d d3f5 8fbd 6ddf c9bd 5ec9 35be
00000170: 9c13 2cbe 5aee 003e feec 33bd 9580 97bd
00000180: 22d1 c0bd edfb 59bd 73ea 8d3d 7dcf 883d
00000190: 0708 96be f6d9 00be 72c4 d13d 36d9 3abe
000001a0: 11e7 25be 245c 4a3e 643a 113e 84a7 793d
000001b0: c362 fa3d 722b 423d 9f84 09bd 63ef 233e
000001c0: f5a2 81be 9806 5c3c 2c08 883c 3c22 2c3d
000001d0: 1165 003e 1d17 d93d dbb1 b33d d710 323d
000001e0: bdbd e53c c6c9 9dbd 2178 323e 5e88 563e
000001f0: 5f1e b6bd 6864 173e 73d6 c53d 354e 623d
-0.06419279 -0.24523428 0.013906865 0.13489811 -0.0058665066 0.12300725 -0.03178226 0.101572245
0.011032104 0.12570414 -0.030518431 -0.042030532 -0.08711822 0.10700038 0.03579088 0.00434339
0.10638873 -0.013890829 -0.1142496 -0.101074256 -0.01791815 0.114659324 -0.08978727 0.06853407
0.21108057 0.11100536 0.15505981 -0.108854674 0.027364109 0.04831772 0.05562625 0.0531581
0.085194156 0.19487157 0.10425191 0.08997422 0.11400155 0.12176534 -0.09059059 0.11609136
-0.0150542 -0.12594765 -0.12798226 0.13220634 0.1024039 0.06890727 0.12046451 0.20535697
-0.034303185 -0.2958163 -0.08291533 -0.11167838 0.04894062 -0.10733529 0.07472807 0.09946087
0.09704591 -0.21402223 0.074209295 -0.03955256 -0.086837895 -0.045511756 0.045678202 0.12505324
-0.14890888 -0.03455529 0.11961753 -0.0011486748 -0.084900126 0.13271035 0.12560642 -0.12069834
0.089912824 -0.16223417 0.16128643 0.16887788 -0.06498324 -0.092305325 0.11302429 -0.11399134
0.09928358 -0.22360787 0.011565462 -0.05583847 -0.1683134 0.12460645 -0.014492775 0.22856815
0.11117518 -0.07029309 -0.09857068 -0.17752597 -0.16804355 0.12590924 -0.043927185 -0.07397572
-0.09414889 -0.05321877 0.06929483 0.066802 -0.29303 -0.12583145 0.10242547 -0.18246922
-0.16201426 0.19761711 0.1418243 0.06095077 0.122258686 0.047404714 -0.033573743 0.16009288
-0.2531964 0.013429306 0.01660546 0.042024836 0.12538554 0.10600112 0.087741576 0.04347309
0.028044576 -0.07704501 0.17428638 0.20950457 -0.088925116 0.14784396 0.096600436 0.055250365

bias_hh_l1 f4 [128]
00000000: 8377 83bd af1e 7bbe a8d9 633c bc22 0a3e
00000010: c73b c0bb 3beb fb3d 212e 02bd 1a05 d03d
00000020: 02c0 343c 96b8 003e be01 fabc 3528 2cbd
00000030: 096b b2bd 0123 db3d 7999 123d fc52 8e3b
00000040: 54e2 d93d 6096 63bc b2fb e9bd 0700 cfbd
00000050: 14c9 92bc 7dd2 ea3d 62e2 b7bd 985b 8c3d
00000060: 7f25 583e c856 e33d fdc7 1e3e 35ef debd
00000070: bb2a e03c cce8 453d 59d8 633d 50bc 593d
00000080: 467a ae3d 6a8c 473e 0382 d53d 6744 b83d
00000090: a679 e93d 1f60 f93d 8e87 b9bd 50c1 ed3d
000000a0: dea5 76bc 6cf8 00be c80d 03be 1961 073e
000000b0: 24b9 d13d 411f 8d3d 19b6 f63d 1b49 523e
000000c0: 7d81 0cbd 3c75 97be 82cf a9bd a2b7 e4bd
000000d0: f675 483d 9ad2 dbbd 080b 993d 25b2 cb3d
000000e0: 03c0 c63d a428 5bbe 09fb 973d d901 22bd
000000f0: 14d8 b1bd 876a 3abd 1119 3b3d f50d 003e
00000100: 927b 18be dc89 0dbd 0cfa f43d 1e8f 96ba
00000110: 1ce0 adbd 3be5 073e f89e 003e b430 f7bd
00000120: 3824 b83d b720 26be 4528 253e 53ee 2c3e
00000130: f215 85bd 940a bdbd 4579 e73d 4874 e9bd
00000140: 3155 cb3d 77f9 64be 047d 3d3c e0b6 64bd
00000150: 585a 2cbe ab31 ff3d 2073 6dbc c40d 6a3e
00000160: d0af e33d d3f5 8fbd 6fdf c9bd 5ec9 35be
00000170: 9e13 2cbe 59ee 003e fcec 33bd 9580 97bd
00000180: 24d1 c0bd eefb 59bd 73ea 8d3d 7ccf 883d
00000190: 0808 96be f8d9 00be 73c4 d13d 36d9 3abe
000001a0: 12e7 25be 245c 4a3e 643a 113e 88a7 793d
000001b0: c462 fa3d 732b 423d a184 09bd 66ef 233e
000001c0: f5a2 81be 9106 5c3c 2b08 883c 3c22 2c3d
000001d0: 1165 003e 1c17 d93d dbb1 b33d d610 323d
000001e0: b6bd e53c c6c9 9dbd 2278 323e 5b88 563e
000001f0: 5f1e b6bd 6564 173e 77d6 c53d 334e 623d
-0.064192794 -0.24523424 0.013906874 0.13489813 -0.005866501 0.12300726 -0.031782273 0.10157223
0.011032106 0.12570414 -0.030518409 -0.042030532 -0.087118216 0.10700036 0.035790894 0.0043433886
0.10638872 -0.013890833 -0.1142496 -0.10107427 -0.017918147 0.11465929 -0.08978726 0.068534076
0.21108054 0.111005366 0.15505977 -0.10885469 0.027364125 0.048317716 0.055626247 0.053158104
0.085194156 0.19487157 0.104251884 0.08997422 0.11400156 0.12176537 -0.09059058 0.11609137
-0.015054194 -0.12594765 -0.12798226 0.13220634 0.10240391 0.06890727 0.12046451 0.205357
-0.034303177 -0.2958163 -0.08291532 -0.11167838 0.04894062 -0.107335284 0.07472807 0.09946088
0.09704592 -0.21402222 0.07420928 -0.039552543 -0.08683792 -0.04551175 0.045678202 0.12505324
-0.14890888 -0.0345553 0.11961755 -0.0011486744 -0.08490011 0.13271038 0.12560642 -0.12069836
0.08991283 -0.16223417 0.16128643 0.16887788 -0.06498326 -0.09230533 0.11302427 -0.11399132
0.09928358 -0.22360788 0.011565451 -0.055838466 -0.16831338 0.12460645 -0.01449278 0.22856814
0.11117518 -0.07029309 -0.0985707 -0.17752597 -0.16804358 0.12590922 -0.043927178 -0.07397572
-0.094148904 -0.053218774 0.06929483 0.066801995 -0.29303002 -0.12583148 0.10242548 -0.18246922
-0.16201428 0.19761711 0.1418243 0.060950786 0.12225869 0.047404718 -0.03357375 0.16009292
-0.2531964 0.0134293 0.016605457 0.042024836 0.12538554 0.10600111 0.087741576 0.043473087
0.028044563 -0.07704501 0.1742864 0.20950453 -0.088925116 0.14784391 0.096600465 0.055250358

weight f4 [1, 128]
00000000: 3eb6 acba 525a 47bd 3ee7 e43c 6c79 883c
00000010: 3f9e 14bc 6540 7a3c 720f 10bc c15e ed3c
00000020: 62a9 11bd 09c4 a33b 488d db3c 4302 943c
00000030: 2267 cfba f329 033d 7de4 243d d6ee f43c
00000040: 29dc f53b 5c9c 64bc 3668 82bd c683 0fbd
00000050: 2890 cc3c 35d6 e13c e63f 7fbc c2dd c23c
00000060: 6a48 963d 6d1f 063d 12c1 103d c08b 25bc
00000070: 4aa7 5b3c 2491 593c 645c 4d3d 6f09 0b3c
00000080: 3251 123d 8931 2e3d 1a37 313c ae97 f839
00000090: 7b78 953c 46ad 473c dd24 4fbc af87 4b3c
000000a0: 49dd 83bc d738 c7bb 041b 05bc 27be 083d
000000b0: 587c 183d 30b0 cb3c 458d f63c 209d 503c
000000c0: 039f 6a3a 1ef7 bcbd 4469 64bb 3312 0dbd
000000d0: 8f96 813c 79bf 08bd baa9 1abc d6bb 473b
000000e0: 781a 973c 077a 94bd b775 013c 7e40 6ebc
000000f0: a893 cf3a 9c1f 1bbd ab6f cabb 7d7c 41ba
00000100: 56e6 eabc 8931 0c3b 4a23 873d f1c2 c53c
00000110: ab6c 1cbd 01f8 3a3d e428 603d 6a6a ffbc
00000120: c356 49bb e9ce 9dbd fc34 45b9 d768 8b3d
00000130: 8b1b 613c dd22 a5bc 7d87 d23c 3cbf cdbb
00000140: 9c94 9539 edb9 68bc ba2e af3c d3cb a9bc
00000150: 9e8f b3bc 514a 7f3d 283c 85bc 636e 4e3d
00000160: 68fa 293d 5ffa 06bc 7e68 16bc 2133 87bb
00000170: 7620 f4bc 16e4 5d3d bff8 853c 9817 61bc
00000180: 2eb9 01bd 0dd4 c63c 17f6 97bc 5abc 863c
00000190: 8c5b 84bd 8144 15bc 957e 2f3c e8e1 72bd
000001a0: a66b dfbb bab6 153d 373e a93c 5227 0cbc
000001b0: 8047 963c afe3 8e3b da9e ca3c 6736 313c
000001c0: 0fd6 50bd c571 2cbc a289 89bc d40b 64bc
000001d0: 84c8 493d d7d9 b03c 18c7 bb3b 3bbd 153c
000001e0: 32c1 2b3b 4819 96bc 9c60 193d 4fde 9a3d
000001f0: b6f5 8cbb caae 603c 5da5 733d f432 8b3b
-0.0013176871 -0.04867012 0.027942296 0.016659461 -0.009070932 0.015274142 -0.008792745 0.028975846
-0.035561927 0.0049977344 0.026800767 0.018067485 -0.0015823583 0.032022428 0.040256966 0.029899042
0.007503052 -0.013953295 -0.06367533 -0.03503778 0.024971083 0.027567962 -0.015579199 0.023787383
0.07338031 0.032744814 0.035340376 -0.01010412 0.013406584 0.013279233 0.05013694 0.008486136
0.035721965 0.04252771 0.01081636 0.00047415256 0.018245926 0.012187308 -0.012643066 0.012422486
-0.016096728 -0.006079774 -0.008124117 0.03338447 0.03722796 0.024864286 0.03009666 0.012732774
0.0008950086 -0.09226821 -0.0034852782 -0.034441184 0.015818862 -0.033385728 -0.00943988 0.003047695
0.018445238 -0.07249837 0.007901601 -0.014541743 0.0015836852 -0.037871942 -0.0061778626 -0.0007380916
-0.028674286 0.002139183 0.06598528 0.024140807 -0.03818957 0.04564667 0.054726496 -0.031178672
-0.003072188 -0.077054806 -0.00018807122 0.06807106 0.013739477 -0.020158226 0.025699371 -0.0062789004
0.00028530217 -0.014204484 0.021384586 -0.020727074 -0.021919068 0.062326733 -0.016264036 0.05039824
0.04149857 -0.008238404 -0.009180186 -0.004125968 -0.029800635 0.054172598 0.016353963 -0.013738535
-0.03167074 0.024271036 -0.018549962 0.016447235 -0.06462774 -0.009110571 0.010711332 -0.059297472
-0.0068182526 0.036551215 0.02065955 -0.008554297 0.01834464 0.004360638 0.02473395 0.010816193
-0.050985392 -0.010525172 -0.016789261 -0.013918836 0.049263492 0.02158825 0.005730521 0.009139354
0.0026207683 -0.018322602 0.03744565 0.07561933 -0.004301752 0.013713548 0.059483875 0.0042480174
