code/b_rnn_results/net/K_2_b_rnn_.pt (torch, 414559 bytes, 18 tensors)

weight_ih_l0 f4 [128, 7]
000000 2f ef 17 3d 89 16 8a 3d 5f a5 2b 3e d9 74 a8 bc
       0.037093338 0.067425795 0.16762303 -0.02056353
000010 e5 bd cf bc 89 5b b9 3d 89 2d 88 bd 5a 08 c5 bd
       -0.025359103 0.09050662 -0.0664931 -0.096207336
000020 7d a1 e8 3d d8 fa ef bd 1d 34 f2 bd 6e be 8a bd
       0.113589264 -0.117177665 -0.11826346 -0.06774603
000030 79 fb 71 be 81 97 9d 3d dc 59 28 3e 8a b8 b0 be
       -0.23631085 0.07694913 0.16440529 -0.34515792
000040 b9 2f 0e 3e 59 48 1e 3d 98 89 ff bd 27 b3 09 be
       0.13885392 0.038643215 -0.12477416 -0.13447247
000050 dd 2f 02 be 43 d8 5f 3e 79 5a 96 bc cf fe 8d bd
       -0.12713571 0.21859841 -0.018353688 -0.069333665
000060 3f 7b c7 bd 8f 06 39 3e c8 4f 7c bd 76 c5 1d be
       -0.09740304 0.18068908 -0.061599523 -0.15407357
000070 50 50 a8 3d b5 b4 77 3d db 1c 5a 3e 7d 15 89 3d
       0.082184434 0.06047507 0.2130007 0.06693552
000080 1e 94 a2 bd be b3 33 3e a0 29 85 3d 91 7d 4a 3d
       -0.07938407 0.17549035 0.0650208 0.049436156
000090 83 12 63 bd e8 4b cb 3d be 0d 72 3e d8 2a fe 3d
       -0.055437576 0.09926587 0.23638055 0.124105155
0000a0 8d 40 4a 3d f2 71 a7 bc 72 f7 35 bc 46 cd a8 bd
       0.049377967 -0.020440076 -0.011106359 -0.08242278
0000b0 f0 45 f6 3c 92 82 25 bd db 38 d8 ba ba 36 e8 3c
       0.030062646 -0.040407725 -0.0016496436 0.028346408
0000c0 c0 73 9d bd 9b c1 cd bd 1b dd 29 bd 31 be 03 bd
       -0.07688093 -0.10046693 -0.04147063 -0.032163803
0000d0 a3 fa 05 be 25 b8 1d be 44 e6 21 be 89 76 68 3d
       -0.13083892 -0.15402277 -0.15810496 0.05675367
0000e0 92 4d 5b 3e 8d a3 c6 bd 09 73 f4 3c 9c 1f d4 bc
       0.2141631 -0.096991636 0.02984001 -0.025893979
0000f0 f0 c9 eb bd a7 bf cf bd de 83 42 bd 99 d8 9b 3d
       -0.11513126 -0.10143977 -0.04748904 0.07609672
000100 f9 ed 11 be 34 a8 53 3c 2f ba ac 3d 9b 6d 0a bd
       -0.14250936 0.012918521 0.08433949 -0.033795934
000110 0c 64 55 bd b8 73 79 3d 78 e9 3e 3d 28 e7 1f 3e
       -0.052097365 0.060901374 0.046609372 0.15615523
000120 1d bc 9f bd 2f 10 0e 3d 4e a9 32 bd 98 74 da 3c
       -0.07799552 0.034683403 -0.043618493 0.026666924
000130 34 91 07 3e 36 9c bd ba e1 99 8d 3e 8a 58 4f be
       0.13238984 -0.001446611 0.27656463 -0.20248619
000140 7a 00 07 bc 5d 21 d9 3c f0 76 37 3e 00 77 ed 3c
       -0.00823986 0.026505167 0.17916465 0.028987408
000150 f6 d4 d8 3d 29 cc 6c be b0 19 b0 bd a9 89 4d bd
       0.10587494 -0.23124756 -0.085986495 -0.05018011
000160 71 85 20 be fd 83 ea 3e 5f 4d a0 3c 11 45 0f bd
       -0.15675904 0.45803824 0.019568143 -0.034977976
000170 ed 6f 25 3e 26 8a 8a bd e5 13 79 3d a8 7b d5 bd
       0.16155978 -0.06764631 0.06080999 -0.10423976
000180 3e 9a 30 3e ee 36 bd 3c 21 bd ff bd fa dd e0 bd
       0.17246339 0.023097482 -0.12487245 -0.10979839
000190 d7 d4 95 3d 4d 3d 01 3d 64 41 85 bd 5a 43 9b bd
       0.073159866 0.0315526 -0.06506613 -0.07581206
0001a0 1d f9 27 3c 3d b4 3e 3e 1c e3 72 be 78 dc aa 3d
       0.010252264 0.18623443 -0.23719448 0.08342832
0001b0 da 18 fc bd 83 15 b2 3d 57 f2 3b bd e0 85 83 3d
       -0.123094276 0.08695509 -0.04588541 0.06422019
0001c0 e9 79 4a bd d2 56 4c 3e 4f 74 a5 3d 5f f4 0a be
       -0.04943267 0.19954994 0.08078825 -0.13569783
0001d0 a6 84 be 3d f2 d4 8c bc 9e 0e 96 bd 98 ea 7b 3c
       0.093026444 -0.017191384 -0.07327007 0.015375756
0001e0 a2 aa 85 3d 27 d7 ee 3c 12 7f b0 3c 10 64 92 3d
       0.06526686 0.029155327 0.021544967 0.07147992
0001f0 c4 89 27 3e cb 05 bb 3d 86 87 83 bd 39 c4 3c be
       0.16361147 0.09131964 -0.064223334 -0.18434228
000200 d4 b8 4d 3e fe c0 0b be ec 54 21 3d e0 da b9 3e
       0.20090038 -0.1364784 0.03938763 0.362998
000210 5c 37 d4 3d 55 51 a9 3c 13 3e 8d 3d 72 61 98 be
       0.103621215 0.020668665 0.06896605 -0.29761845
000220 79 42 76 3d 70 7d 2f be 90 d5 b0 be cf 73 46 3e
       0.060121987 -0.17137694 -0.34537935 0.19380115
000230 fc 72 8d 3d b6 66 23 bd c3 16 d8 3d 6e 65 90 3d
       0.06906697 -0.039892875 0.105512165 0.07050596
000240 44 0c 94 3d b0 65 f5 3d 2d f4 91 bd a6 b7 da 3c
       0.07228902 0.11982286 -0.07126651 0.026698899
000250 33 6d 47 3e f2 76 85 be 24 5b 00 3e fd 16 59 3d
       0.1947525 -0.2606731 0.12534767 0.05300044
000260 00 da 17 3e e2 28 51 3e bb 45 3a bd 5e a2 06 be
       0.14829254 0.20425752 -0.045476656 -0.13147876
000270 9d f7 84 bd d9 04 1e 3e 59 1f 30 bd b7 4c 57 bd
       -0.06492541 0.15431537 -0.042998645 -0.052563395
000280 83 ca 6f bb 4b a6 c6 3d 2b 60 e4 3c 83 f3 55 be
       -0.0036589212 0.096996866 0.027877888 -0.20893674
000290 8c de 26 3e 6c d4 3a be 30 cb 91 be 1c b3 59 3d
       0.16295832 -0.18245095 -0.28475332 0.053149328
0002a0 48 ad e4 bd ac de 84 3c 7e 08 d6 3b 34 f1 e7 bd
       -0.11165863 0.01621946 0.006531774 -0.11325303
0002b0 a0 e9 8b 3e 25 dd 31 be f3 f0 29 bd b1 a8 dc bd
       0.2732668 -0.17369516 -0.041489553 -0.10774363
0002c0 cc 88 95 3b 9a 49 bb bd 73 54 9b 3c c8 36 0d 3d
       0.0045634266 -0.09144898 0.018961167 0.03447607
0002d0 76 85 08 be b5 25 03 3e 86 d3 9b bd fc a4 fd 3b
       -0.13332161 0.12807353 -0.07608704 0.007740615
0002e0 96 39 9b 3c 70 69 ef bd da 06 40 bd e5 fb b0 3d
       0.018948358 -0.116900325 -0.046881534 0.08641795
0002f0 d0 6f 9b 3d 51 17 46 bc e2 78 8a 3e 94 b7 1e be
       0.07589686 -0.01209052 0.2704535 -0.15499717
000300 38 48 66 3d 69 fd 4f 3c 29 40 3b 3e 23 74 19 3c
       0.056221217 0.012694695 0.18286194 0.009366068
000310 cb b6 5f bd 32 a8 3f be 63 dd 49 3d 2d 88 c0 3d
       -0.054617684 -0.18716505 0.049283396 0.094009735
000320 9b 42 77 3e 06 40 87 bd bc 5f ab bc 23 66 d6 3c
       0.24146502 -0.066040084 -0.020919673 0.02617175
000330 c2 ee 3f be f5 5a 16 3e c0 f1 a1 3b bd b3 58 be
       -0.18743423 0.14683135 0.004942149 -0.21162315
000340 24 c9 b0 3d 9d f2 25 be 89 43 0d bd 45 09 99 3e
       0.086321145 -0.16205831 -0.034488235 0.29889885
000350 91 88 1e 3e 5d 9e 42 be 0b cc be 3b cf 11 04 be
       0.15481783 -0.19005723 0.0058226637 -0.12897418
000360 2d e2 76 3e 99 e9 88 3d 25 c1 bc bd 92 ba 88 3d
       0.24109717 0.0668518 -0.09216527 0.066762105
000370 29 a1 46 3e 92 78 a6 bd 4d 6a 3e be 9e 88 07 3e
       0.19397415 -0.08128466 -0.18595238 0.13235709
000380 ce 01 5a 3d ed 90 1d be 9b e4 14 3f f7 a0 1d bc
       0.053224377 -0.15387316 0.58161324 -0.009620897
000390 6c 5d 2c 3c c6 77 82 3d 99 16 d4 bd a7 7e 17 be
       0.01052032 0.06370501 -0.10355873 -0.14794408
0003a0 dd 97 cb bc f8 25 23 3e 8b 44 cc 3d c3 aa 32 be
       -0.024852687 0.15932453 0.09974011 -0.17447953
0003b0 75 8d 63 3c 06 2f 0b 3e 8a 6c 48 be ae 45 e5 bd
       0.013888706 0.13592157 -0.19572654 -0.11194931
0003c0 ec 9f 9a bd f0 ed 72 3d c6 19 5e be f8 7b a9 3e
       -0.07550034 0.059308946 -0.2168952 0.33102393
0003d0 b0 e1 47 be 86 d5 1c 3e dd 79 28 be 7c 53 5d 3d
       -0.19519687 0.15315828 -0.16452737 0.054034695
0003e0 5a f0 2c bd 88 14 f7 3d a6 79 11 be e7 48 58 bc
       -0.042221405 0.12064463 -0.14206561 -0.013200975
0003f0 df ad ae bd ca d2 0f 3e 52 60 2d be 26 b7 fd bd
       -0.08529257 0.14045253 -0.16931275 -0.123884484

weight_hh_l0 f4 [128, 128]
000000 46 85 79 3e 42 ea 1a bd 50 b5 1c be da 4c da 3d
       0.24367246 -0.037821062 -0.1530354 0.106591895
000010 04 b3 e2 3a 77 37 c8 3d 36 5a e6 bd 2a 97 bb 3d
       0.0017295782 0.09776204 -0.11247675 0.09159692
000020 1b d3 7a bd 62 31 fc bd bc ce 49 bd aa 62 99 3c
       -0.061236482 -0.123141065 -0.049269423 0.018723805
000030 b2 69 49 3c 19 75 c8 bd f8 a6 83 bc 8f 68 5d 3e
       0.012293266 -0.097879596 -0.016070828 0.21621917
000040 b0 1f 78 3e f6 40 f5 bd 12 34 11 3e f7 44 61 3e
       0.24230838 -0.11975281 0.1418002 0.21998964
000050 c3 1f 1c 3c 2a a2 a7 bb 30 25 68 bd f8 28 1d 3e
       0.009529057 -0.005115767 -0.05667609 0.1534766
000060 8a 73 0a 3e 8e 10 fc 3d ae 53 fd bd dd 9c ce 3d
       0.13520637 0.12307845 -0.12369476 0.10088513
000070 7e a8 e0 3b fa f2 43 3e 92 2f be bd c0 46 ca 3d
       0.0068560233 0.19135657 -0.09286417 0.09876776
000080 33 10 e5 3c 0d ff 2e 3e 51 f9 c4 bc cc 1a 36 3e
       0.027961826 0.17089482 -0.024044665 0.1778366
000090 13 dc 80 3d 8e 6d f6 3d 70 8a 74 3d 81 02 e1 bd
       0.06291976 0.12032615 0.059702337 -0.10986806
0000a0 a5 13 6e 3e 6a 36 f3 bc 80 9f 97 bc 7a 65 d2 3c
       0.23249681 -0.029689033 -0.018508673 0.025683153
0000b0 78 5a f6 bd b5 88 7d 3d 56 ba 21 3d 7c d6 c7 bd
       -0.12028974 0.061897952 0.039484344 -0.097577065
0000c0 2f 60 f0 bd 76 4b bc bc ac 56 a0 3c 1a e1 f7 bc
       -0.117370956 -0.022985201 0.019572578 -0.030258704
0000d0 50 fe 14 be 92 f8 66 be 12 68 15 be 88 7d c5 bc
       -0.14550138 -0.2255576 -0.14590481 -0.02410771
0000e0 17 3a 56 be 7b 51 1c 3d cc 3f 49 3e 21 c6 05 3d
       -0.20920597 0.038163643 0.19653243 0.032659654
0000f0 4a e2 ab bd a2 9e 09 be 13 c4 49 3e 13 2d 9c 3c
       -0.083927706 -0.1343942 0.19703703 0.019064462
000100 c1 8e 06 3e 3f ea 8c bd fa f3 36 3e 32 e3 1f 3e
       0.13140394 -0.068806164 0.17866507 0.15614012
000110 9b b3 8e 3d 4f de 5f bd 7d dc 4c bd 55 92 3e bd
       0.06967851 -0.05465537 -0.05001496 -0.04652627
000120 b3 a4 65 3d bc f5 0f be a1 75 94 3d d1 77 5f 3e
       0.056065273 -0.14058584 0.072489984 0.2182305
000130 b2 57 5c 3e 45 f5 16 be e3 c3 80 3d d0 0b f1 bd
       0.21517828 -0.14742 0.062873624 -0.11769831
000140 9c 84 7f 3b 0b 21 b8 bd 48 2c b5 bd cd 99 92 3d
       0.0038988953 -0.089906774 -0.088463366 0.071582414
000150 f9 4e 83 3c 91 06 00 be 53 65 43 3e a3 7b 54 bd
       0.016028868 -0.12502505 0.19081621 -0.05187572
000160 4a 8d 5f be 74 01 fc bd 8b 26 46 3d 7f 68 0c bd
       -0.21831241 -0.12304965 0.0483766 -0.034279343
000170 f6 83 3f 3d af 7f 4c bd 71 42 3b be 3d 87 13 bc
       0.046756707 -0.049926456 -0.18287064 -0.009004411
000180 49 79 87 3d 8e 30 ff 3c 19 3c ed 3d 0e 28 25 bc
       0.0661493 0.031151082 0.11583728 -0.010080351
000190 f5 72 5f bd e9 02 3f be 1f b6 65 be 33 f9 af bd
       -0.05455299 -0.18653454 -0.22432755 -0.08592453
0001a0 db 87 a4 bd ed 98 9a 3d b8 ba 44 bd 67 57 d4 3d
       -0.08033725 0.075486995 -0.04802963 0.10368233
0001b0 6e 1d 4a 3d 7b 71 7d 3d 3a ca 75 bd 54 85 df bd
       0.049344473 0.0618758 -0.06000731 -0.10914102
0001c0 ff b9 83 bc 62 d0 f7 3d 9d b6 da 3c 78 b2 91 3d
       -0.0160799 0.12100293 0.026698405 0.07114118
0001d0 61 8d 01 bd 3b f6 d1 bd ff 11 a6 bd 5d 5f 73 bd
       -0.03162897 -0.10252043 -0.08108901 -0.059417117
0001e0 a0 47 75 be 68 89 1e 3d 8b 39 90 3d 35 f8 86 bc
       -0.23953104 0.03870526 0.070422255 -0.016475776
0001f0 d6 a5 95 bb de f8 25 3d 3e f1 ea 3d e9 5c 4f bd
       -0.0045668883 0.04052054 0.114717945 -0.050625715
000200 39 68 6c 3d 8c bb 76 3b a6 4e 3a bd 52 50 1b be
       0.057716582 0.0037648408 -0.04548516 -0.15167359
000210 c6 8b 69 be b8 d2 1c bd 99 5a 7c 3e 63 fe 20 bd
       -0.22807226 -0.038286895 0.24643935 -0.039305102
000220 0a a6 a7 3e 65 9c 32 3d fd 09 ee 3d 5f 0d e0 bd
       0.32743865 0.04360618 0.11622999 -0.1094005
000230 d5 95 79 bd 1f e3 eb bd 10 68 2c bc d7 8d 6c bd
       -0.060933907 -0.11517929 -0.010522857 -0.057752457
000240 ed 9f 34 be c1 e0 50 3e 7d 31 a8 3d 15 0d 73 bd
       -0.17639132 0.20398237 0.08212564 -0.059338648
000250 28 0a 21 be 3f 57 15 3d e3 0b b7 3c 6e e0 86 bd
       -0.1572653 0.036460157 0.022344535 -0.06585775
000260 de 89 06 be a7 2e 65 3d 7a a8 d3 bd e8 8f 37 bd
       -0.1313853 0.055952694 -0.10334869 -0.044814974
000270 83 37 a5 bd e8 ff 01 bc ec 3e 8b 3d 2b 59 b7 bd
       -0.08067229 -0.007934548 0.06799111 -0.08952554
000280 b4 9b a0 be 94 88 33 be 0b 8b 70 bd 5a 10 2b 3c
       -0.31368792 -0.17532569 -0.05872635 0.01044091
000290 be ff ae bd 87 43 85 3c 77 03 57 3e 3e d2 6d 3d
       -0.08544873 0.016267551 0.20997415 0.05806183
0002a0 60 24 ca bd e2 e4 32 bb 74 90 8d 3d f0 ff 09 be
       -0.09870219 -0.002729707 0.06912318 -0.13476539
0002b0 25 e4 ea bd 6e 19 09 be 4e cb 17 bd 9c 65 87 bd
       -0.11469296 -0.13388607 -0.03705912 -0.06611177
0002c0 83 7f fd bc 3b 61 6f bd 24 9a 71 be 1b 8b 95 bd
       -0.030944591 -0.058442336 -0.23593956 -0.07301923
0002d0 03 49 d9 bd 9c da 43 bd 91 2d 01 3e 4c 48 ae bd
       -0.10609629 -0.047815904 0.12615038 -0.08509883
0002e0 50 01 20 3e d8 5b 5a 3e 0c 24 08 bd 80 9d 2b bd
       0.156255 0.21324098 -0.033237502 -0.04189825
0002f0 60 6d af bc a2 76 c2 3b 90 48 fa 3d 61 c0 51 3d
       -0.021414459 0.0059345523 0.122208714 0.051208857
000300 6b 05 f3 bd b6 d4 0c 3e d1 b0 cb bd c7 58 6f 3d
       -0.11866268 0.13753018 -0.099458344 0.058434274
000310 a2 82 94 3c 2b 7e 1c bd e2 bc be bd 3e cf a0 be
       0.018128697 -0.03820626 -0.0931337 -0.31408113
000320 f9 2c 69 3d 7c 55 8f be 5f 56 e2 3d 59 15 f0 bd
       0.056927655 -0.27994907 0.1105163 -0.11722822
000330 7d a9 47 3d a3 05 b1 bd ba b8 37 be af b8 ff 3d
       0.04874562 -0.08643653 -0.17941561 0.124863975
000340 87 0a f8 bd d3 bb d2 bd 27 bb 45 3e 6b c0 01 3e
       -0.12111383 -0.10289731 0.19309674 0.12671058
000350 1f 2f 6e 3e b4 b9 89 bd f9 18 66 bd d4 65 58 3d
       0.23260163 -0.06724873 -0.05617616 0.052831486
000360 79 f6 91 3d 6d dd 12 be f4 50 cc 3c 13 90 33 bd
       0.07127089 -0.1434228 0.024940945 -0.04383857
000370 33 ff 77 bb 5a 99 64 3d b3 cc 66 3d 44 97 3f bc
       -0.003784132 0.05581031 0.05634756 -0.011693779
000380 61 25 6a bd be 77 9a bd 7e 6a 11 be 21 c5 68 bd
       -0.057164554 -0.0754237 -0.1420078 -0.05682862
000390 66 d0 cc bd fe 7c e3 bd c8 ab 91 bc e8 b2 f6 3d
       -0.10000686 -0.11107825 -0.017782107 0.120458424
0003a0 2f b7 6c bd c2 79 d3 bd 9e d4 81 3d 72 ed 65 3d
       -0.057791885 -0.10325958 0.06339382 0.05613465
0003b0 18 63 c5 3d d2 de 28 bd 09 43 03 3e ad 5c 8e 3d
       0.09638041 -0.041228123 0.1281854 0.0695127
0003c0 97 86 11 bd 20 0e ab 3d 8c 9b 64 be 92 80 54 bd
       -0.035528746 0.083523035 -0.22324961 -0.051880427
0003d0 2d d4 d1 bc 6c d6 d1 3b 38 a2 16 3e ed 6d 39 3d
       -0.025613869 0.006403735 0.14710319 0.04527085
0003e0 36 99 21 bd c5 75 23 be 31 f8 12 3e 54 18 64 3d
       -0.039452754 -0.15962894 0.1435249 0.055687264
0003f0 b4 e3 13 3c d5 80 9e 3d 7d 19 30 bd 7d ee ff bc
       0.009026457 0.077394165 -0.042993058 -0.03124165

bias_ih_l0 f4 [128]
000000 d3 3c 72 3c bf e2 99 3d ae cc c5 3b aa 7b 67 bd
       0.014785009 0.075139515 0.0060363626 -0.05651442
000010 d7 06 e2 bd f4 bf e4 3d f2 3d f4 3d 11 fa 0b bc
       -0.11036461 0.11169425 0.11925878 -0.008543507
000020 53 0e 20 be 75 53 8e 3d f9 cb 41 bc a8 28 15 3d
       -0.15630464 0.06949512 -0.011828416 0.036415726
000030 45 7f 9b bd d6 e6 fb 3d 2a e4 85 bc 72 19 b4 3c
       -0.07592634 0.12299888 -0.016344149 0.02198479
000040 47 ff ed 3c 3d 86 29 3e e6 f5 b7 bd f7 7d 0e 3e
       0.02905239 0.16555114 -0.08982448 0.1391524
000050 f6 4b 0f bd f7 ed 15 3e 2b 0c d7 bd bb 99 ed 3d
       -0.03498455 0.14641558 -0.10500368 0.116015874
000060 09 75 94 bd 8c f3 a5 bd 80 c8 85 bd 28 3b 15 3e
       -0.07248885 -0.081030935 -0.06532383 0.14573348
000070 a3 b7 47 3e 9b 22 a2 3c c3 c9 9b 3d c5 72 97 3d
       0.19503646 0.019791892 0.07606842 0.073949374
000080 96 ff ca 3c 17 e1 9a bd f1 0f 40 be 0b 6f 53 3d
       0.024780076 -0.07562464 -0.18756081 0.05161957
000090 7d 56 9e 3d c2 bb b3 3d 3a a1 2e be 8a 8c dd bd
       0.0773134 0.08776046 -0.1705369 -0.10817821
0000a0 5a 61 a2 3d a2 4a ee 3b e9 e6 76 bd 71 be df bd
       0.079287246 0.0072720805 -0.060278807 -0.10924996
0000b0 60 dd f3 bd 74 28 bf 3d 39 36 c1 3d bd df 41 bd
       -0.11907458 0.09333888 0.0943417 -0.047332514
0000c0 c6 83 e5 3d 59 1c f0 3b df 34 fa bd a6 30 b6 bd
       0.112067744 0.007327598 -0.122171156 -0.08895998
0000d0 a5 af 45 bd fa 45 99 bd da c1 7b 3d 0b d3 06 bd
       -0.04826321 -0.0748405 0.061464168 -0.03291611
0000e0 36 a3 1c 3d 83 6d c7 3d 72 c3 34 3d e2 42 80 3d
       0.038241588 0.097376846 0.044131704 0.06262757
0000f0 60 82 05 3e 70 20 15 be a4 f0 ad 3d b1 36 0e 3e
       0.13038015 -0.14563155 0.08493164 0.1388805
000100 9e a2 18 bd 43 1c 53 be 0a 24 4b bd 75 40 06 3d
       -0.03726446 -0.2061625 -0.049594916 0.032776315
000110 ca 22 bd 3d 80 3e 57 3d 89 5f 86 bd 4b 18 17 bd
       0.09235151 0.05254984 -0.06561191 -0.036888402
000120 c5 65 f5 3c 3f a1 43 3d 20 85 f6 3d bd c3 14 3e
       0.029955754 0.047761198 0.1203711 0.14527793
000130 56 8d 22 3e ba 82 84 bd b3 7d bf bd 91 8b 23 bd
       0.15874228 -0.064702466 -0.09350147 -0.039928023
000140 10 b8 02 3e 4c 8b 17 3d 02 9a 3d be a6 83 86 3a
       0.12765527 0.03699808 -0.1851578 0.0010262623
000150 43 cd 94 3d 13 81 ed bd 3c 64 21 3e 44 b7 15 be
       0.07265713 -0.115968846 0.15760893 -0.14620692
000160 98 0f b1 bd 02 67 29 be 3a 1b c3 3d 40 ed 85 bd
       -0.086455524 -0.165432 0.095266774 -0.065393925
000170 29 7b 11 3e d3 d8 6d 3d 38 fc a0 bd 95 aa bb bd
       0.14207138 0.058068108 -0.07860607 -0.09163395
000180 ff 38 00 3e a7 58 05 be cd 80 4a 3c 4e b1 b8 3d
       0.12521742 -0.130221 0.01235981 0.09018193
000190 07 65 20 3d 8e 05 6e 3d 13 d7 70 3c ac f8 03 3e
       0.039158847 0.058110766 0.014699715 0.1288783
0001a0 b5 e2 3a 3e 3e 9e 99 3d 25 0f 6c bc 78 7e b0 bc
       0.18250544 0.075008854 -0.014407908 -0.02154468
0001b0 c8 5c cb bd 54 33 a9 bd 69 3e c3 3d 52 ae c3 bd
       -0.09929806 -0.08261743 0.09533388 -0.09554733
0001c0 55 db af 3d 7b 01 c1 3d 3a dd a2 3d 5a d6 23 be
       0.08586756 0.094241105 0.07952352 -0.15999737
0001d0 48 d8 95 bd f0 7e 5f be a0 8b 10 3e d8 75 3e 3e
       -0.07316643 -0.21825767 0.14115763 0.18599641
0001e0 57 79 67 3d dc 98 59 bd a0 a9 1e b9 7b b1 fc bd
       0.056512203 -0.053124294 -0.00015131244 -0.12338539
0001f0 46 75 2a bd 5e c4 b3 3d 2f a6 19 be 8c 42 51 bd
       -0.041615747 0.087776884 -0.150048 -0.051088855

bias_hh_l0 f4 [128]
000000 cd 3c 72 3c bd e2 99 3d a3 cc c5 3b ac 7b 67 bd
       0.014785004 0.0751395 0.0060363575 -0.056514427
000010 d7 06 e2 bd f6 bf e4 3d ed 3d f4 3d 0f fa 0b bc
       -0.11036461 0.11169426 0.11925874 -0.008543505
000020 53 0e 20 be 73 53 8e 3d fa cb 41 bc ad 28 15 3d
       -0.15630464 0.069495104 -0.011828417 0.036415745
000030 48 7f 9b bd d8 e6 fb 3d 26 e4 85 bc 83 19 b4 3c
       -0.07592636 0.12299889 -0.016344141 0.021984821
000040 3e ff ed 3c 3d 86 29 3e e6 f5 b7 bd f4 7d 0e 3e
       0.029052373 0.16555114 -0.08982448 0.13915235
000050 f3 4b 0f bd f6 ed 15 3e 2a 0c d7 bd bd 99 ed 3d
       -0.03498454 0.14641556 -0.10500367 0.11601589
000060 0b 75 94 bd 88 f3 a5 bd 82 c8 85 bd 29 3b 15 3e
       -0.07248887 -0.081030905 -0.065323845 0.14573349
000070 a6 b7 47 3e a4 22 a2 3c be c9 9b 3d c5 72 97 3d
       0.1950365 0.019791909 0.07606839 0.073949374
000080 93 ff ca 3c 18 e1 9a bd f4 0f 40 be 0f 6f 53 3d
       0.02478007 -0.075624645 -0.18756086 0.051619586
000090 80 56 9e 3d c1 bb b3 3d 39 a1 2e be 8c 8c dd bd
       0.07731342 0.087760456 -0.17053689 -0.10817823
0000a0 5a 61 a2 3d b7 4a ee 3b e9 e6 76 bd 6b be df bd
       0.079287246 0.0072720903 -0.060278807 -0.10924991
0000b0 60 dd f3 bd 76 28 bf 3d 3b 36 c1 3d bf df 41 bd
       -0.11907458 0.09333889 0.09434172 -0.04733252
0000c0 c5 83 e5 3d 62 1c f0 3b e3 34 fa bd a8 30 b6 bd
       0.11206774 0.0073276022 -0.122171186 -0.08895999
0000d0 a4 af 45 bd f9 45 99 bd d6 c1 7b 3d 0a d3 06 bd
       -0.048263207 -0.07484049 0.061464153 -0.032916106
0000e0 3a a3 1c 3d 84 6d c7 3d 72 c3 34 3d e1 42 80 3d
       0.038241602 0.09737685 0.044131704 0.06262756
0000f0 62 82 05 3e 71 20 15 be a4 f0 ad 3d b1 36 0e 3e
       0.13038018 -0.14563157 0.08493164 0.1388805
000100 9f a2 18 bd 46 1c 53 be 0a 24 4b bd 7f 40 06 3d
       -0.037264463 -0.20616254 -0.049594916 0.032776352
000110 cc 22 bd 3d 82 3e 57 3d 88 5f 86 bd 4c 18 17 bd
       0.092351526 0.052549846 -0.0656119 -0.036888406
000120 df 65 f5 3c 42 a1 43 3d 1e 85 f6 3d bd c3 14 3e
       0.029955802 0.04776121 0.12037109 0.14527793
000130 57 8d 22 3e b9 82 84 bd b1 7d bf bd 92 8b 23 bd
       0.1587423 -0.06470246 -0.093501456 -0.039928026
000140 0e b8 02 3e 4b 8b 17 3d 01 9a 3d be 6e 84 86 3a
       0.12765524 0.036998075 -0.18515779 0.0010262856
000150 45 cd 94 3d 0f 81 ed bd 3d 64 21 3e 46 b7 15 be
       0.072657146 -0.115968816 0.15760894 -0.14620695
000160 99 0f b1 bd 01 67 29 be 3d 1b c3 3d 3d ed 85 bd
       -0.08645553 -0.16543199 0.0952668 -0.0653939
000170 29 7b 11 3e d7 d8 6d 3d 33 fc a0 bd 92 aa bb bd
       0.14207138 0.058068123 -0.07860603 -0.09163393
000180 ff 38 00 3e a9 58 05 be c1 80 4a 3c 4d b1 b8 3d
       0.12521742 -0.13022102 0.012359799 0.090181924
000190 09 65 20 3d 95 05 6e 3d 1d d7 70 3c aa f8 03 3e
       0.039158855 0.058110792 0.0146997245 0.12887827
0001a0 b3 e2 3a 3e 41 9e 99 3d 21 0f 6c bc 77 7e b0 bc
       0.18250541 0.07500888 -0.014407904 -0.021544678
0001b0 c8 5c cb bd 54 33 a9 bd 6b 3e c3 3d 54 ae c3 bd
       -0.09929806 -0.08261743 0.0953339 -0.09554735
0001c0 54 db af 3d 7d 01 c1 3d 3c dd a2 3d 5a d6 23 be
       0.085867554 0.09424112 0.07952353 -0.15999737
0001d0 4e d8 95 bd f0 7e 5f be 9f 8b 10 3e d6 75 3e 3e
       -0.073166475 -0.21825767 0.14115761 0.18599638
0001e0 5e 79 67 3d df 98 59 bd a4 a8 1e b9 7c b1 fc bd
       0.05651223 -0.053124305 -0.00015130878 -0.1233854
0001f0 47 75 2a bd 5b c4 b3 3d 2e a6 19 be 93 42 51 bd
       -0.04161575 0.08777686 -0.15004799 -0.05108888

weight_ih_l1 f4 [128, 128]
000000 46 e9 c8 bd 15 b1 2c bd a9 05 87 bd b6 03 e7 bd
       -0.098101184 -0.042161066 -0.065928765 -0.11280005
000010 6e 5f 55 b9 92 07 2b 3d de fa f4 3d 2f b9 8b bb
       -0.00020348813 0.041755266 0.119619116 -0.004264019
000020 85 70 48 3d 71 5c 20 bd fa 69 6c 3a 69 72 9d bd
       0.048935432 -0.03915066 0.0009018477 -0.07687838
000030 ec f9 ea 39 23 0c 00 bd e0 22 54 bd 89 e8 d4 3c
       0.00044818164 -0.031261574 -0.051791072 0.025989788
000040 27 2c 0e 3c 16 f0 bb bd 14 98 99 3d 87 b7 a0 3c
       0.008677519 -0.09176652 0.0749971 0.019618763
000050 ec f6 0f 3e 33 c3 0e bd 0f d9 b6 3d 57 0c 3d bd
       0.14059037 -0.034854125 0.089281194 -0.046154346
000060 d2 70 b9 3d 53 48 a8 bd e0 32 95 3d cb ae d4 bd
       0.09054722 -0.0821692 0.07285094 -0.103849016
000070 e9 3e a2 3d 52 fd 90 bd 9e 8b 87 3c 47 dd e2 bd
       0.079221554 -0.07079567 0.016546067 -0.110773616
000080 38 08 a7 bd 85 10 4f 3e 63 72 87 3d 30 b4 a9 bd
       -0.081558645 0.20221145 0.066136144 -0.08286321
000090 c8 b3 fb bc 5a 95 c6 bd d4 13 15 3d bf b5 23 3c
       -0.030725375 -0.09696455 0.036395863 0.009992062
0000a0 0a 28 9e bd 50 ba c3 3c 86 95 84 bd d3 50 da 3c
       -0.077224806 0.023892552 -0.06473832 0.026649868
0000b0 63 08 c3 bd 33 7e 69 bd 27 79 37 be 4d fd 4e 3e
       -0.09523084 -0.05700512 -0.1791731 0.20213814
0000c0 97 fb 31 3c d6 ad 7b bd 9b 7b a1 bd 52 a6 c4 3d
       0.010863206 -0.06144508 -0.07884904 0.096020356
0000d0 a7 37 43 bd df 27 c3 3c 6d ea 72 bd d8 ef 1f 3e
       -0.047660496 0.023822723 -0.059305597 0.15618837
0000e0 02 02 20 3e 29 36 b7 bc 62 c7 a4 bc e2 62 12 be
       0.15625766 -0.022364693 -0.020114604 -0.14295533
0000f0 4c da 5b bc 80 11 99 3b 29 d4 81 be cc ec 69 be
       -0.013418745 0.0046712756 -0.25357178 -0.22844237
000100 7c 5b 29 bd ec 11 b7 bd cb 2e 42 be f9 cf 7a bb
       -0.041347012 -0.08938965 -0.18963163 -0.0038270934
000110 8a 7f 07 3d ef 3c 8d 3c c0 74 e6 3d 46 2c b0 bd
       0.033080615 0.01724097 0.11252737 -0.086021945
000120 9c b4 e0 bc eb 69 08 be 3b 1e 34 bd 45 3a d8 3d
       -0.027429871 -0.13321654 -0.043974143 0.10557989
000130 c0 09 56 be a0 40 15 bd 9a eb 62 bd 6c c4 73 3d
       -0.20902157 -0.036438584 -0.05540047 0.059513494
000140 22 a5 95 bd ee 2f 3b bd 3c 2d ca 3d 08 95 98 bd
       -0.07306887 -0.045700006 0.09871909 -0.074503005
000150 96 71 e0 3d 62 95 48 3c 02 01 15 be ca 36 53 3e
       0.10959165 0.012242647 -0.14551166 0.20626369
000160 c2 26 bd 3d de dc 8a bd 2a 5f d2 3d 5d 86 84 3d
       0.09235908 -0.06780408 0.10272057 0.0647094
000170 39 f3 62 be a7 8b 13 be 36 eb d5 bd 69 ad 4f 3e
       -0.22163095 -0.14408742 -0.104452536 0.20280994
000180 08 f9 77 3d 4c 33 67 3d dd 14 e9 bd 48 53 04 3e
       0.06054023 0.056445405 -0.113809325 0.12922394
000190 37 4d e0 bc f9 94 1f 3d 1a a3 7a 3d 55 1c c8 bd
       -0.027380569 0.03896043 0.061190702 -0.09771029
0001a0 bb 39 43 be 74 24 4a bc 25 b6 12 3e c6 47 07 3d
       -0.19064991 -0.012337793 0.14327295 0.033027433
0001b0 e7 3c db 3d 45 1b 2f 3d cd 6d 1d bd 01 ba e3 3d
       0.107049756 0.042750616 -0.038434792 0.11119462
0001c0 52 51 c9 3c 6c e8 37 3d 17 a4 20 3b d3 33 fc 3d
       0.02457491 0.04489939 0.0024511868 0.12314572
0001d0 a3 d9 2b bc ad 31 10 3e 3f 89 14 be 59 a5 1e be
       -0.0104889 0.1408145 -0.1450548 -0.15492763
0001e0 00 b3 8d bc 9b 48 49 bd 30 cf bb bd c7 10 b4 3d
       -0.017297268 -0.049141508 -0.09170377 0.087922625
0001f0 71 85 13 3e 76 48 4a bd 66 29 1f 3d 58 96 08 3c
       0.14406373 -0.04938551 0.03885784 0.008336626
000200 7a 6c 19 3e 3b e3 d0 3c 63 f9 bb bc e1 e9 16 3e
       0.14982787 0.025498977 -0.022946065 0.14737655
000210 56 bc d8 bc 76 63 88 3c 7d 8b d9 3d eb 20 8c 3c
       -0.026456993 0.01664899 0.106223084 0.01710554
000220 cf e0 3a be f5 46 68 3d f8 74 3e bd c7 f2 e2 3c
       -0.1824982 0.056708295 -0.04649827 0.027703656
000230 55 9d c9 3d ce fe fd bc cc 88 2c 3e 57 eb 21 be
       0.09844462 -0.03100529 0.16849059 -0.15812431
000240 9a 2e 3e bd d4 cf 38 bd 8d 39 f2 bd 68 32 3f bc
       -0.04643116 -0.045120075 -0.11827383 -0.011669733
000250 c2 5b 17 be b5 c9 07 3d ca 4d 53 bd b7 7f ba bc
       -0.14781097 0.033151347 -0.051587857 -0.022765977
000260 5b 68 92 bd 80 ee 81 bd 3f fd 19 3e bf 1b 09 3c
       -0.071488105 -0.063443184 0.15038012 0.008368432
000270 f0 b8 25 3e 80 86 c9 3c a7 df 33 3e 4c f9 cd 3d
       0.1618383 0.024600267 0.17565785 0.10057315
000280 88 fe 0b 3d 36 77 f4 bc 60 d0 81 bd 01 a7 a3 3d
       0.034178287 -0.029842 -0.063385725 0.07990838
000290 fd 15 da 3c ca 28 1b 3e 7b 1f fd 3d 4c e2 58 3d
       0.026621813 0.15152279 0.1235952 0.05295019
0002a0 a0 68 30 3e 2c cb a4 bb a5 99 af bd 5e f0 5b 3c
       0.17227411 -0.005029103 -0.08574227 0.013424007
0002b0 b8 c0 4b 3d 58 1b 51 be 1d 04 bf 3b 7e f8 02 be
       0.049744338 -0.20420587 0.0058293478 -0.12790105
0002c0 1e 62 25 3e 2b 4f 6a 3d 94 f5 ec bd a4 7d 7f 3d
       0.1615071 0.057204407 -0.11570278 0.06237568
0002d0 07 d9 00 be 71 f3 6a 3d b0 34 89 3d f7 17 ce 3d
       -0.1258279 0.05736107 0.066995025 0.10063165
0002e0 ba d3 71 3d 58 5e 2c 3e 0b 01 bd 3d f2 03 d2 3d
       0.05903981 0.16832864 0.092287146 0.10254659
0002f0 db ae f3 bd f7 84 24 3e 09 4b e2 3d 51 67 2d 3e
       -0.118985854 0.16066347 0.11049468 0.16933943
000300 a0 2a b1 3c 96 46 57 bc 2a 8e df 3d 94 b3 c5 3c
       0.02162677 -0.013139388 0.109157875 0.024133481
000310 b2 8f e7 bd 75 92 8e 3c fd ac a0 bd bc 45 1b 3d
       -0.113067046 0.01740382 -0.07845495 0.0379083
000320 b3 eb 80 3c bb 59 b5 ba fc 6b bd bd 08 3e d8 3c
       0.01573739 -0.0013835946 -0.09249112 0.026396766
000330 e7 52 2e 3e aa e7 d9 3c e0 66 4c bd 9e 1f 59 3c
       0.17023812 0.026599724 -0.049902797 0.013252167
000340 42 8a 34 3c 22 a9 61 bb 0b 56 56 bd b5 b5 8d 3d
       0.011019291 -0.0034433086 -0.05232815 0.069194235
000350 1b 8e 63 3e 32 cc 68 3e 61 85 f0 3d a1 48 25 bd
       0.22222178 0.22734144 0.1174419 -0.040352467
000360 99 a9 39 bd f1 43 8f 3d 84 b2 98 bd b7 06 1b 3d
       -0.045327757 0.06995381 -0.07455924 0.0378482
000370 8b 4f 4e bd c0 22 0f 3e a8 22 8b 3d 25 f0 32 be
       -0.050368827 0.139781 0.067937195 -0.1747442
000380 e1 2f 81 3e 1c a4 03 bd c0 74 ca 3d 3b 4d b7 bd
       0.2523184 -0.03213893 0.098855495 -0.089502774
000390 9b 99 41 3d ef c0 64 3d e9 64 9b bd 28 a4 cb bc
       0.04726563 0.05584806 -0.075876065 -0.02485855
0003a0 14 67 1c 3e ee d5 6a bc ec 49 fd bd d8 fa 66 bd
       0.15273696 -0.014333231 -0.12367615 -0.056391567
0003b0 08 86 ba bc b2 ff ce bc 5c ce 40 bc 9e 62 f8 3d
       -0.02276899 -0.02526841 -0.01176795 0.12128185
0003c0 14 a3 c2 bd 40 e4 e8 3c 08 b2 b1 bc d0 8f 87 3c
       -0.09503761 0.02842915 -0.021691337 0.016548067
0003d0 bb 3c 10 be 4c 7c ae bd 90 86 36 3d b8 fa 1f bc
       -0.14085667 -0.085198015 0.044561923 -0.009764366
0003e0 01 39 b5 bd d9 a3 28 be ab 5a e0 bd f0 ed 19 3d
       -0.08848763 -0.16468753 -0.109547935 0.03758043
0003f0 50 d5 8f bd f4 4e b7 bc 19 4a 8b 3d 45 64 4d 3d
       -0.07023108 -0.022376515 0.068012424 0.050144453

weight_hh_l1 f4 [128, 128]
000000 ee f8 4a be fb af 77 be 3e c6 d7 3d 38 f9 03 3c
       -0.19821522 -0.24188225 0.105358586 0.008055024
000010 28 49 25 bd f7 7e 58 be f1 7b 46 bd fc 58 cc bd
       -0.04035297 -0.21142183 -0.048458043 -0.0997791
000020 d3 41 c7 3d 70 66 45 3d a8 37 80 3d e8 c9 ce 3d
       0.09729352 0.048193395 0.062606156 0.10097104
000030 c4 b9 96 3d 54 3e 29 3e 80 89 b8 bd 84 f9 11 3e
       0.07359651 0.16527683 -0.09010601 0.14255339
000040 e5 b6 d2 bd 3c 8a 2b bd 92 31 25 3e cb 51 19 be
       -0.102887906 -0.041879877 0.16132191 -0.14972608
000050 0b ee 8b bc e0 a0 a2 bd 73 7b 57 be 18 71 01 be
       -0.017081281 -0.07940841 -0.21043186 -0.12640798
000060 6a 9d 72 3e 88 6f a9 3c 85 38 38 bd d2 b4 4a 3d
       0.23692861 0.020683065 -0.044975776 0.04948885
000070 9f e0 1c bd 03 59 4c be d6 99 2e bd 5d dd 41 bc
       -0.038300153 -0.1995583 -0.042627178 -0.011832562
000080 90 82 05 3c ca 81 89 bd 5b a2 31 be 67 7e e4 bb
       0.008148804 -0.067142084 -0.1734709 -0.006973076
000090 70 21 5f bd f0 23 de 3d c3 6e 46 be fd 1f 3c 3d
       -0.054475248 0.10846698 -0.1937819 0.045928944
0000a0 00 2e 63 3c 8a c4 2d 3d d9 5a 17 be 5a b7 0b 3e
       0.013865948 0.042423762 -0.1478075 0.13644162
0000b0 88 0a 4b be 3e af 8e 3b 8a 08 1d 3e 4e 9c ed 3b
       -0.19828236 0.0043543866 0.15335289 0.007251299
0000c0 4c f9 e9 3d 32 3a d5 bd 69 3b ee bd b6 20 2e 3d
       0.11424503 -0.104114905 -0.11632425 0.042511664
0000d0 db 21 02 3d 58 7b 6d bd e2 c9 1b be cb f1 00 3e
       0.03177057 -0.057978958 -0.15213731 0.12592237
0000e0 5a fb d9 3c 33 ff 08 be 92 0b 4d 3e ae 37 24 3e
       0.026609112 -0.13378601 0.20023945 0.16036865
0000f0 7a 4f 01 3c 92 47 d6 bd 54 e3 21 3e ed b4 c4 3b
       0.007892484 -0.1046287 0.15809375 0.0060030133
000100 ed 8a eb 3d 01 fd 37 bd c4 7c 18 bc 2f 65 8e 3c
       0.11501107 -0.044919018 -0.00930709 0.017382232
000110 9d 70 2f 3e b8 3d f7 bd 04 3e fa 3d 9b eb c8 bc
       0.17132802 -0.12072319 0.1221886 -0.024526408
000120 a8 ad f7 bd b7 85 fd bd d8 75 04 be 34 91 f3 bc
       -0.12093669 -0.1237902 -0.12935579 -0.029732324
000130 a4 65 58 bd 49 32 14 3e 86 84 4a bd 72 2b 0c be
       -0.052831307 0.14472307 -0.04944279 -0.13688448
000140 eb ec ba 3c 10 25 12 3d a8 03 69 bc 1e 51 c0 3d
       0.02281805 0.035679877 -0.014222063 0.09390472
000150 cc 4b 1b be 84 57 94 b7 03 35 ff 3d c2 a2 b1 bd
       -0.15165633 -1.7683727e-05 0.12461283 -0.08673622
000160 2e 0b 99 3e a5 d2 e1 3d c7 7b 42 be a9 18 2a 3d
       0.29891342 0.110265054 -0.1899253 0.041527424
000170 50 e9 f8 bd d5 24 3c 3e a9 67 a9 3d e9 b1 d7 3d
       -0.12153876 0.18373425 0.08271725 0.105319805
000180 02 2b 66 ba 8d 8d 76 3d 86 94 ae 3d e7 33 b3 3c
       -0.00087802124 0.060193587 0.08524422 0.021875335
000190 cc d1 8e bc f2 0b 2c be 23 39 ec 3b 7e c5 8f 3d
       -0.017434023 -0.16801432 0.0072089597 0.070200905
0001a0 7d e2 f3 3c 7a 3d f8 3d 49 ad bd bd 29 8c 03 be
       0.029771084 0.12121101 -0.09261567 -0.12846436
0001b0 d8 7c d7 bd 41 fd 45 3e 02 60 ea bc 18 db 5a bd
       -0.10521859 0.1933489 -0.028610233 -0.0534316
0001c0 89 d1 82 3c da 26 88 bd 1c d7 62 3b 71 2d 12 3b
       0.015969055 -0.06648035 0.0034613078 0.0022304917
0001d0 36 7d 3f 3c 48 77 63 3d e4 08 67 3e dd 45 aa bb
       0.011687567 0.055533677 0.22561985 -0.0051963166
0001e0 5c cb 1b 3d 8f a8 b0 3d e8 fe a8 3d 0e 8d b6 3d
       0.038035735 0.086259 0.082517445 0.08913623
0001f0 90 48 c6 bb a3 18 32 bc f7 e3 ab 3d f3 94 a8 3d
       -0.0060511306 -0.010870132 0.0839309 0.08231535
000200 7a 18 ea 3d c3 2f 30 3d 70 c0 de bd c1 3c 85 3c
       0.1143045 0.0430143 -0.10876548 0.016264321
000210 7d dd b2 bd 83 a5 45 bd 9a ee 49 3d 40 bf a6 3c
       -0.08733652 -0.048253547 0.049299814 0.020354867
000220 0e 3b 7e 3d 40 8d b2 3d ae a3 44 3d 7c cf 9b bc
       0.062068038 0.087183475 0.04800766 -0.019019835
000230 3f a8 c7 3a f6 59 e7 3d 27 b0 61 bc 40 6e 84 3d
       0.0015232636 0.112964556 -0.013774908 0.06466341
000240 39 ce 44 be 24 9c 56 bd 4d 8c 4c 3d f4 2e 28 bd
       -0.19219293 -0.052395 0.04993849 -0.041060403
000250 44 3e b6 3d 0a 10 d8 3b 02 93 51 bc 7a ab a6 3b
       0.08898595 0.006593709 -0.012791397 0.0050863596
000260 c0 9c a6 3d 1c 20 2b bb 5c 60 91 3c f4 ca 8f bd
       0.081353664 -0.0026111668 0.017746143 -0.07021132
000270 b1 f4 94 bd cd 3a 44 3d 71 b1 b8 bd c1 a5 0d be
       -0.07273234 0.04790764 -0.09018219 -0.13832761
000280 64 90 b2 3c df dc a9 bc 11 25 17 3e 71 02 7d bc
       0.021797366 -0.020735202 0.14760233 -0.015442477
000290 80 13 22 be 5f fe 6d bd 09 1a ce bd 2f 80 8d bd
       -0.15827751 -0.058103915 -0.100635596 -0.06909215
0002a0 f4 8c 3d 3d a8 1f 9e 3d 3e ae 5e 3e 89 da 25 be
       0.046277 0.07720882 0.21746156 -0.16196646
0002b0 a9 96 7c 3d 80 9c 0a 3e 24 31 cb 3d c2 ed 36 3e
       0.06166712 0.13536263 0.09921482 0.17864135
0002c0 7e 54 21 be aa 63 2f 3e 5a a6 c8 bd 7c 9f 47 bb
       -0.15754887 0.17127863 -0.09797354 -0.003046005
0002d0 6b 46 b9 bd 7f 9c 3a 3d 27 4c 8d 3d 15 72 1e 3d
       -0.09046634 0.045559403 0.068992905 0.038683016
0002e0 d8 ec 9d 3d ea 21 46 bd d2 53 7c 3d 71 e2 4e 3e
       0.0771119 -0.048372187 0.061603375 0.20203568
0002f0 a4 2e 87 bd 4f b9 3a bd 60 0e ec bd 97 c1 eb 3b
       -0.06600693 -0.04558688 -0.11526179 0.0071947086
000300 be 51 99 bd b1 62 be 3c e2 38 6b bd 1b 27 a6 3c
       -0.07486294 0.02324042 -0.057427295 0.020282319
000310 4b b0 0f 3d d9 5e a9 3d 46 57 ff bd 09 81 2a 3d
       0.035080235 0.08270044 -0.12467818 0.041626964
000320 01 26 26 be b9 ef 1a 3e 54 df 43 be 30 7a 8f 3d
       -0.16225435 0.1513051 -0.19128162 0.07005727
000330 a5 e5 73 3d 4d 24 9d bd df 29 02 3e f2 11 a3 bd
       0.059545178 -0.076729394 0.12711285 -0.07962407
000340 36 be 23 3e 9e 95 d7 3d 11 cf 31 3e 0a d2 14 bc
       0.15990528 0.10526584 0.17364146 -0.00908328
000350 cb c9 f9 3c c2 ec 59 3d 99 53 8a 3d ae 5c df 3d
       0.03049173 0.053204305 0.06754226 0.10906349
000360 ba a0 b9 bd 32 eb b5 3d 7e 9e cf 3d 67 99 47 3e
       -0.09063859 0.088827506 0.10137652 0.19492112
000370 8c f0 86 bd dc 5b 45 3c ec fa 03 bd ab 9c 28 bc
       -0.065888494 0.012045827 -0.03222172 -0.010291259
000380 86 15 53 bc 46 73 56 bd 46 40 20 be e8 32 45 be
       -0.01288355 -0.052356027 -0.15649518 -0.192577
000390 cd 96 7a 3e 9d 94 6a bd 6e 12 04 3e 7e 19 71 be
       0.24471588 -0.057270635 0.12897655 -0.23544881
0003a0 a9 7e 57 3d 77 c1 19 bd 40 ca c9 3d c6 97 18 3e
       0.052611027 -0.037538018 0.09853029 0.14901647
0003b0 d6 96 59 bb ec cc a8 3c 46 4b 37 be c4 7c 97 3d
       -0.0033201477 0.020605527 -0.17899808 0.07396844
0003c0 1f e3 a0 bd 43 0c 37 3d 62 82 8f 3d a2 f7 0c be
       -0.0785582 0.044689428 0.070072904 -0.1376634
0003d0 24 37 a2 3d f3 ba 9d 3d 18 e7 28 be 48 cd a8 3c
       0.079206735 0.07701673 -0.16494405 0.020605698
0003e0 57 36 90 3d 40 3b ae 3d 04 c0 92 bd d6 09 53 3e
       0.070416145 0.08507395 -0.0716553 0.20609221
0003f0 b4 e0 f4 3d 10 c6 00 be fc 3a 9a 3e 08 f5 41 3c
       0.11956921 -0.12575555 0.30123127 0.011838205

bias_ih_l1 f4 [128]
000000 bd 69 8d bd a9 73 1b 3e 59 74 ad bd 8d ce 65 3d
       -0.069049336 0.1518084 -0.08469457 0.056105185
000010 c8 8a f7 bd 93 54 ee 3d 72 52 b1 3d fd 39 9e 3d
       -0.12087017 0.11637225 0.08658303 0.07725904
000020 af ec b3 bc 08 9a 35 bd db e5 f9 bc f9 1d bb bc
       -0.021963445 -0.04433635 -0.030505111 -0.02284144
000030 14 db dd 3c dc d6 4b bc dd 09 d9 3d ca 95 ab bd
       0.027082004 -0.012441363 0.105975844 -0.08378179
000040 1b bf 45 bd f7 8f c1 3d fb d3 d8 bd 84 f8 1e 3d
       -0.048277956 0.09451287 -0.10587307 0.03881122
000050 6c 62 d0 bd 9e 0b e2 3d d2 16 0b 3e 38 5c f7 3d
       -0.101750225 0.11037372 0.13582924 0.12078136
000060 7f 47 3d be 33 c4 d2 3d 36 99 16 3e 2b ea ee b9
       -0.18484305 0.10291328 0.14706883 -0.00045569366
000070 6e f9 09 3e ca 8e a5 3c 0d 72 53 3c e5 d5 07 3e
       0.13474056 0.020209689 0.01290561 0.13265188
000080 53 d3 d5 3d 4f 6a 61 bd a7 02 7c bd 5b 7e 26 be
       0.104406975 -0.055033024 -0.061525967 -0.16259138
000090 b5 3a 67 bc 21 00 5c 3d db 72 4d 3e fb fe 25 3e
       -0.014113118 0.05371106 0.20063345 0.16210549
0000a0 a5 9e 13 bd 64 f7 1c be 9e 7e f0 3d 85 d4 9d bd
       -0.036039967 -0.15328747 0.117429 -0.077065505
0000b0 b4 7d 00 3e e3 3c e1 bd 35 f3 8f 3c 98 07 54 3d
       0.12547952 -0.10997941 0.017572025 0.051765054
0000c0 03 64 7a 3d d1 26 90 3d 04 5f 46 bc ac 15 82 bb
       0.061130535 0.07038654 -0.012107614 -0.0039698686
0000d0 14 ee a4 3c 78 6e 83 3d e4 5e 11 3e 99 e0 ed bd
       0.020133056 0.064175546 0.14196354 -0.11615104
0000e0 e5 a6 31 3e 6b 86 0c 3e 9d b3 14 be 89 b1 dd bd
       0.17348821 0.13723151 -0.14521642 -0.10824878
0000f0 db ce e6 bd 9c d0 9e 3d d4 7b af bd ad 1d 58 bd
       -0.11269923 0.07754633 -0.0856854 -0.052762676
000100 7f 8f ee bd 35 f1 d3 bd cb ef 10 3e bf 79 1b bc
       -0.116484635 -0.10348741 0.14153974 -0.009489476
000110 1d 86 01 be 6a 2c 0f 3e 45 aa 8f bd ac 49 01 3e
       -0.12648816 0.13981786 -0.07014898 0.1262576
000120 39 a5 bc 3d c1 bf e4 3d 45 37 28 3e dc d5 7e 3d
       0.09211201 0.11169387 0.16427334 0.06221567
000130 93 d5 c5 3d ec 9b 90 3c 43 a7 00 3e 4d af f8 3d
       0.09659877 0.017652474 0.12563805 0.12142811
000140 11 e6 7a 3d 51 fb c1 bd c3 e1 b8 3d 29 13 ec 3c
       0.061254565 -0.09471763 0.09027436 0.02881773
000150 2c 71 20 3e 79 0a 30 3e d1 73 e4 bd 47 2b 5a 3d
       0.15668172 0.17191495 -0.11154903 0.05326393
000160 c2 69 16 be e2 9e b4 3d 2d b7 6a 3d ee 94 cf 3d
       -0.14688781 0.08819367 0.057303596 0.10135828
000170 ec 13 71 3d a8 af e0 bd 80 86 aa bd e9 68 2f bd
       0.05885689 -0.10971004 -0.08326435 -0.04282466
000180 51 d8 18 3e 3d 7b 08 be dd 19 fb bc 39 bb 14 be
       0.14926268 -0.13328262 -0.030651981 -0.14524545
000190 f6 2f 9e 3d b7 77 5e 3d f2 79 da 3b 27 96 09 be
       0.077239916 0.054313388 0.006667369 -0.13436185
0001a0 6d cd 07 be 33 cf 0c be b8 7a b0 3d 4c 1e dd bc
       -0.13261957 -0.13750915 0.08617157 -0.026991986
0001b0 06 e1 97 3c 55 69 f1 bd a8 4c 77 3d 72 5a 64 bc
       0.018539917 -0.117876686 0.06037584 -0.0139375795
0001c0 e6 02 2f 3b 3a f3 7f 3d db 74 69 bd 47 18 33 3d
       0.0026704608 0.06248782 -0.056996208 0.043724325
0001d0 47 d7 ec 3d db 48 d1 3d c7 2a de bd f3 51 2a 3e
       0.115644984 0.10218974 -0.10848003 0.16632824
0001e0 3c ae a0 bd 86 32 db bd a3 c9 fe 3d f7 a6 04 3c
       -0.078457326 -0.10702996 0.12440803 0.008096448
0001f0 2c a3 14 3d 3e 63 cd 3d 92 57 d1 bd 30 d1 29 be
       0.036288425 0.100286946 -0.10221781 -0.16583705

bias_hh_l1 f4 [128]
000000 bc 69 8d bd aa 73 1b 3e 5a 74 ad bd 8d ce 65 3d
       -0.06904933 0.15180841 -0.08469458 0.056105185
000010 c8 8a f7 bd 92 54 ee 3d 72 52 b1 3d 00 3a 9e 3d
       -0.12087017 0.11637224 0.08658303 0.07725906
000020 af ec b3 bc 08 9a 35 bd df e5 f9 bc fd 1d bb bc
       -0.021963445 -0.04433635 -0.030505119 -0.022841448
000030 1c db dd 3c e7 d6 4b bc da 09 d9 3d ca 95 ab bd
       0.027082019 -0.012441373 0.10597582 -0.08378179
000040 1e bf 45 bd f7 8f c1 3d fb d3 d8 bd 84 f8 1e 3d
       -0.048277967 0.09451287 -0.10587307 0.03881122
000050 6d 62 d0 bd 9d 0b e2 3d d2 16 0b 3e 37 5c f7 3d
       -0.10175023 0.11037371 0.13582924 0.120781355
000060 7d 47 3d be 33 c4 d2 3d 36 99 16 3e 87 e8 ee b9
       -0.18484302 0.10291328 0.14706883 -0.00045568144
000070 6e f9 09 3e cd 8e a5 3c 12 72 53 3c e4 d5 07 3e
       0.13474056 0.020209694 0.012905614 0.13265187
000080 54 d3 d5 3d 50 6a 61 bd a8 02 7c bd 5c 7e 26 be
       0.10440698 -0.055033028 -0.06152597 -0.1625914
000090 ae 3a 67 bc 21 00 5c 3d da 72 4d 3e fb fe 25 3e
       -0.014113111 0.05371106 0.20063344 0.16210549
0000a0 a4 9e 13 bd 62 f7 1c be a0 7e f0 3d 83 d4 9d bd
       -0.036039963 -0.15328744 0.11742902 -0.07706549
0000b0 b4 7d 00 3e e4 3c e1 bd 33 f3 8f 3c 94 07 54 3d
       0.12547952 -0.10997942 0.017572021 0.05176504
0000c0 05 64 7a 3d d1 26 90 3d fa 5e 46 bc 9a 15 82 bb
       0.061130542 0.07038654 -0.012107605 -0.0039698603
0000d0 0a ee a4 3c 75 6e 83 3d e5 5e 11 3e 95 e0 ed bd
       0.020133037 0.064175524 0.14196356 -0.11615101
0000e0 e6 a6 31 3e 6c 86 0c 3e 9c b3 14 be 8a b1 dd bd
       0.17348823 0.13723153 -0.1452164 -0.108248785
0000f0 e1 ce e6 bd 9b d0 9e 3d d4 7b af bd ac 1d 58 bd
       -0.11269928 0.07754632 -0.0856854 -0.052762672
000100 7d 8f ee bd 37 f1 d3 bd ca ef 10 3e c0 79 1b bc
       -0.11648462 -0.103487425 0.14153972 -0.009489477
000110 1e 86 01 be 6a 2c 0f 3e 43 aa 8f bd ab 49 01 3e
       -0.12648818 0.13981786 -0.07014897 0.12625758
000120 3a a5 bc 3d c1 bf e4 3d 46 37 28 3e d9 d5 7e 3d
       0.09211202 0.11169387 0.16427335 0.06221566
000130 95 d5 c5 3d fa 9b 90 3c 43 a7 00 3e 4b af f8 3d
       0.09659878 0.0176525 0.12563805 0.121428095
000140 0d e6 7a 3d 51 fb c1 bd c1 e1 b8 3d 31 13 ec 3c
       0.06125455 -0.09471763 0.09027434 0.028817745
000150 2b 71 20 3e 79 0a 30 3e d1 73 e4 bd 43 2b 5a 3d
       0.1566817 0.17191495 -0.11154903 0.053263914
000160 c0 69 16 be e2 9e b4 3d 2c b7 6a 3d e9 94 cf 3d
       -0.14688778 0.08819367 0.057303593 0.10135824
000170 ef 13 71 3d aa af e0 bd 7e 86 aa bd e8 68 2f bd
       0.0588569 -0.10971005 -0.083264336 -0.042824656
000180 51 d8 18 3e 3d 7b 08 be e3 19 fb bc 3a bb 14 be
       0.14926268 -0.13328262 -0.030651992 -0.14524546
000190 f6 2f 9e 3d b4 77 5e 3d e5 79 da 3b 29 96 09 be
       0.077239916 0.054313377 0.006667363 -0.13436188
0001a0 6d cd 07 be 35 cf 0c be bd 7a b0 3d 47 1e dd bc
       -0.13261957 -0.13750918 0.086171605 -0.026991976
0001b0 06 e1 97 3c 55 69 f1 bd a7 4c 77 3d 8a 5a 64 bc
       0.018539917 -0.117876686 0.060375836 -0.013937602
0001c0 f3 02 2f 3b 38 f3 7f 3d db 74 69 bd 4d 18 33 3d
       0.0026704639 0.06248781 -0.056996208 0.043724347
0001d0 4a d7 ec 3d da 48 d1 3d ca 2a de bd f5 51 2a 3e
       0.11564501 0.102189735 -0.10848005 0.16632827
0001e0 3d ae a0 bd 89 32 db bd a4 c9 fe 3d 00 a7 04 3c
       -0.07845733 -0.10702998 0.12440804 0.0080964565
0001f0 2f a3 14 3d 3e 63 cd 3d 8f 57 d1 bd 31 d1 29 be
       0.036288437 0.100286946 -0.102217786 -0.16583706

weight f4 [1, 128]
000000 be 03 96 bc 13 f6 27 3d e6 0f 0f bd e2 e7 92 3d
       -0.018312331 0.04100616 -0.03492727 0.071731344
000010 19 59 ab bd ad 71 61 3c 9f df 48 3d 40 cb 46 3d
       -0.083666034 0.013760013 0.049041387 0.048533678
000020 f7 47 94 bd 57 16 1e 3d 02 8f 3d 3d fc aa 44 3d
       -0.07240289 0.038595524 0.04627896 0.048014626
000030 a9 db dc 3d 8e fc 6d 3d 0a 70 51 3a 91 05 ea bc
       0.10784084 0.058102183 0.00079894124 -0.028567107
000040 92 78 53 bd 58 53 df bc 9b 59 95 3b 47 50 75 3b
       -0.051628657 -0.027261421 0.004557801 0.0037431882
000050 7d cb 75 bd 41 e2 a5 3c 35 ec d9 3c 46 36 15 bd
       -0.060008515 0.020249488 0.02660189 -0.036428712
000060 24 8a 76 bd 8e 57 ae 3c 90 5e 41 3d cd 61 cb 3c
       -0.060190335 0.021281984 0.047209322 0.024826908
000070 76 85 4d 3d 7f 17 79 bd b0 c8 64 b9 fe 15 59 3d
       0.050176106 -0.060813423 -0.00021818536 0.05299949
000080 16 b1 f0 3b bf 20 9e bd 8c 00 1d be 57 57 95 bd
       0.007345329 -0.077210896 -0.1533224 -0.072920494
000090 28 16 3d 39 1c c9 3b 3d 26 b1 81 3d 6e 52 98 3d
       0.00018032698 0.04584609 0.063326165 0.07437597
0000a0 d7 ec 83 3d 6d f1 0f bc 69 d9 31 3d 78 3d e2 bd
       0.06441658 -0.008785588 0.04342023 -0.110468805
0000b0 fb 46 95 3c a5 4f 27 bd 97 e7 a8 3c 9c a6 7f 3d
       0.018222323 -0.04084744 0.020618243 0.06241475
0000c0 81 ec a0 3d f1 64 0d bd 16 c2 27 3b 9f 3b 25 bd
       0.078576095 -0.034520093 0.0025597862 -0.040340062
0000d0 7b 11 dd 3c c9 3b 8a bd 4a 45 99 bc 65 d8 32 bb
       0.026985874 -0.06749684 -0.018709797 -0.0027289626
0000e0 88 6d fe 3d be 0d 9d 3d d0 9c 67 bd 77 c0 5e bc
       0.12423235 0.07668637 -0.056546032 -0.013595692
0000f0 3f 22 50 bd 6b 37 06 3d 42 a2 98 bb 4c 51 20 bd
       -0.05081391 0.032767694 -0.0046580145 -0.03914003
000100 9f 4f 1a bd a1 fc 7c bd 96 8b c2 3d cc d4 c2 3d
       -0.03767359 -0.061764363 0.0949928 0.09513244
000110 b8 c3 98 bc dc de 95 3d 2e fb 94 bd 23 47 2b 3c
       -0.018648013 0.07317898 -0.07274471 0.010453972
000120 83 6b 2c bc e0 9d 92 3c 0f 8f 90 3c ef f8 0c bd
       -0.01052368 0.017897546 0.01764634 -0.03441709
000130 76 98 85 3b 1b b9 95 3d b2 45 88 3c 3b f4 8c 3c
       0.0040770127 0.07310697 0.016634796 0.017206302
000140 82 39 cc bb 35 80 29 3c 78 a4 2e 3d a4 d2 0a 3d
       -0.0062324414 0.010345508 0.04263732 0.03389229
000150 bd 09 67 3d 59 9f aa 3d 1f 1a 40 bb bd 94 b4 3b
       0.05640577 0.083311744 -0.0029312444 0.005510895
000160 08 21 6d 3c 18 4e 25 3d 3f 8e 78 3c 13 e2 91 bc
       0.014473207 0.04035768 0.015170633 -0.017807996
000170 be 35 68 bd d6 ee 70 3d fb 07 c9 3c 1b ad 2e 3d
       -0.056691878 0.05882152 0.024539938 0.042645555
000180 82 0a 48 3d a0 8f 2b bd f1 cf 2c 3d 0c c2 59 bd
       0.048838146 -0.04188502 0.042190496 -0.053163573
000190 ec e0 fb 3b c4 09 4a 3d 51 1e c9 bc 0a 03 7b bd
       0.007686725 0.04932572 -0.024550589 -0.061282195
0001a0 aa fc 4a bd 04 0e 16 bd 73 ed 79 3d 3a c3 1f bd
       -0.049557365 -0.03663446 0.061017465 -0.039004542
0001b0 1f d3 f9 3c 39 be 96 bc cd 05 2e 3d 0b 77 77 bc
       0.030496178 -0.018401252 0.042486 -0.015104066
0001c0 4e 66 f5 bc ff 77 ca bc 13 33 1e 3d 7f 6a b1 bd
       -0.02995601 -0.024715422 0.038622927 -0.08662891
0001d0 b4 4c 58 3d 71 f9 80 3b 86 a8 03 bd 78 95 fc 3c
       0.052807525 0.0039359857 -0.03214314 0.030832991
0001e0 c2 f0 1a 3d 1e 51 20 bd f8 ff 91 3d b1 1c 10 bd
       0.03782726 -0.03913986 0.071289 -0.035183612
0001f0 b0 39 86 3d cd ce f2 bc 09 ef d7 bc 2a 8d 6a bd
       0.06553972 -0.029639626 -0.026359098 -0.05726353
