code/b_rnn_results/net/K_3_b_rnn_.pt (torch, 621367 bytes, 27 tensors)

weight_ih_l0 f4 [128, 7]
00000000: 9849 f23e 087d 2dbd fc6d 8e3c 660e e43d
00000010: 69c0 15be 3789 3a3e 21e0 e8bb b635 d23c
00000020: 7d3f 0bbe 09a7 dfbc 8971 e0bd 7215 953e
00000030: 0504 0bbe a8d8 93bd c5d9 fa3d d293 943e
00000040: 03aa 1abe fd04 973b 1fc2 013e e00e c6bd
00000050: cf8a 03be 8076 ec3c 99f5 733d 6256 7cbe
00000060: fa48 c9bd 4735 2d3e d1d0 523d 72b0 efbd
00000070: 6d36 e93c 2f33 2e3e 9449 233e fe3f 593e
00000080: ca6e 1bbe dd52 673e 3558 91bd 40ca 603e
00000090: 8fc9 d5bc 1d50 a8bd 1340 1c3b aa50 23bd
000000a0: 8953 b3bc af62 82be fba1 423d 55e5 903e
000000b0: 12de aabe a2ce 6fbe 73e2 e63d deda ddbd
000000c0: d055 c8bd 4394 1a3e a0b9 cc3c bb37 8dbe
000000d0: ae7c f9bd c935 e83d 420c 56bd a250 273e
000000e0: 2041 79bd db40 333c 4eef 74be 0ee6 5dbe
000000f0: 0212 78be 5b39 a83d 2205 953e de90 28bd
00000100: d1e4 c4be 68a7 2dbe 1138 f33c b9e6 373d
00000110: 2181 593d 53e8 0cbd 96f2 d7bd dbb4 aabd
00000120: 6857 18bb 4094 553b a43c 593e c4ab 61be
00000130: c8a2 823d aef1 cbbc 0134 8b3e 58c5 43be
00000140: e8b6 123e e02b 2e3c 3888 19be 63cd 0d3d
00000150: 9239 763d ab20 a13e 2ad6 34be e798 abbd
00000160: c0d7 04bb 4e33 27be ac92 06be c0e9 d6bc
00000170: 094a d93d 9669 b3bd 7023 01b9 978c a2be
00000180: 9a43 58bd f1c4 df3c 771f f8bd 5a84 7b3e
00000190: 645a 31be c29c 63be a83d 873e be99 91bd
000001a0: e4a9 013d bfbb 123e f8e9 103e d534 1e3d
000001b0: c67f 2b3e 1f3a db3d a2fc a2bd 57dd a4bd
000001c0: ce19 80bd f1d4 a43e 2cbb 9abc 93e5 b13e
000001d0: a337 24bd 5516 703d edc2 61be 6a6e 02be
000001e0: 9704 a7be d5ea d53e d23e 2abc 43fb 01be
000001f0: 975c 1fbe 9410 683d 216d c8bd c6d0 633d
00000200: 0443 f0bd 1218 a23d cdc9 263d 70da 30bd
00000210: 92eb 8dbc 7c16 23bd 16d0 acbd 7f78 8e3d
00000220: 7a85 4ebd 8a05 8a3e a491 54bd 5eda 2e3d
00000230: c865 98bc 18bd 13be c388 8e3e 0ef8 e13d
00000240: adc8 913d 8a8e 5ebd 6a18 7abd dd87 2ebe
00000250: 4c58 01be 4281 edbc 3f5c 85bd 4079 b03c
00000260: 89ab 02be 313f 733e 0ef5 aabd 390e 9abd
00000270: b558 983e 0e1d d73c 8225 8abd 446a 653d
00000280: 92fc a43d f8e6 993d d608 15bd b086 fd3d
00000290: 5bbd 843c 5b37 e6bc 47a2 8d3e 87c9 61bd
000002a0: 92f7 d3ba d61b 8cbd 33eb 5dbd 2fa4 0abe
000002b0: c998 303e 1aa2 98be 7b3b 543d 8482 c4bd
000002c0: a59d 5f3e 8097 69be 5927 8c3d e680 25be
000002d0: adf0 7a3e 7075 bcbd 6c6c 363e ed76 c4bd
000002e0: 2608 f83c 248a 07be aa1b 8dbe c568 843c
000002f0: 05a9 e5bd 9b53 a43d d8eb 913e 33e7 3abe
00000300: 7c0b e7b9 1ae9 b73e b623 58bd ed05 0dbd
00000310: 1cd0 19be 142e 75bc 099a b93d 0ab5 20be
00000320: f673 163d e36c 8ebc 035d 853d b614 193c
00000330: b7a5 eb3c f3bd 673c 79d0 7bbe 770f 823c
00000340: 3d64 143e 3b68 603d 3ef9 ae3e 7530 463c
00000350: ced8 0e3e 4317 603e 34ff 223e d506 923d
00000360: 48ed 683e 13fb 04be f313 84be 135a 533e
00000370: 9ca4 68bd 9935 39bd 476e 4cbc 9e63 523e
00000380: 703b e33d e887 bf3d 3004 4abd 6e9f 9bbd
00000390: 3a1d 1ebd d311 9fbe e1a6 a9be bfce 61bd
000003a0: 547b 493a 0997 b13e e124 9c3c d7f5 40be
000003b0: e65e 813d 21c1 9cbd 7821 cabd e306 9c3d
000003c0: 5133 98bd 02f9 8fbc 0bd0 4c3d d2dc 7cbd
000003d0: 4ed7 83be 5bb0 883e 9a19 26bd 2860 70bb
000003e0: b302 ccbd f7db 16bd 66b1 5abe 8342 f93d
000003f0: eb9b 263e acd7 3fbe cd28 3b3e acf1 343e
0.47321773 -0.042355567 0.017386429 0.11135559 -0.1462418 0.18216406 -0.0071067964 0.025660377
-0.13598438 -0.027301328 -0.10959155 0.29117924 -0.13575752 -0.07219058 0.122485675 0.29019028
-0.15103917 0.004608749 0.12671708 -0.09670806 -0.1284592 0.028865099 0.059560392 -0.24642327
-0.09828372 0.16914855 0.051468674 -0.11703576 0.028468335 0.17011712 0.15946037 0.21215817
-0.15178981 0.22590204 -0.07096902 0.21952152 -0.026097087 -0.082184054 0.0023841902 -0.03987185
-0.021890419 -0.25465915 0.047517758 0.28299966 -0.3337255 -0.23418668 0.112736605 -0.10832761
-0.097819924 0.1509562 0.024990857 -0.2758158 -0.12181984 0.11338384 -0.052257784 0.16339353
-0.060853124 0.010940756 -0.23919412 -0.2166979 -0.2422562 0.08214065 0.2910548 -0.04115378
-0.38455823 -0.16958392 0.02968982 0.04489777 0.053101663 -0.03440125 -0.105443165 -0.08335277
-0.0023245458 0.0032589585 0.21214539 -0.2203818 0.06378704 -0.024895515 0.27188113 -0.1911825
0.14327586 0.010630578 -0.1499337 0.0346197 0.060113497 0.31470236 -0.17659822 -0.08378773
-0.0020270199 -0.16328165 -0.13141888 -0.026234508 0.10609824 -0.08760373 -0.000123156 -0.31747887
-0.052798845 0.027315589 -0.121153764 0.24562207 -0.17319638 -0.22227767 0.26414227 -0.07109402
0.03165616 0.14329432 0.14151752 0.038624603 0.1674796 0.10704445 -0.07958342 -0.0805003
-0.06254922 0.3219371 -0.018888079 0.34745464 -0.04009212 0.058615047 -0.22047015 -0.12737432
-0.3262069 0.41780725 -0.010390954 -0.12693505 -0.15562664 0.056656435 -0.0978644 0.055619024
-0.11731532 0.07914747 0.040719796 -0.04317707 -0.017324243 -0.039816365 -0.08438127 0.069565766
-0.050420262 0.2695735 -0.051896706 0.04268872 -0.01860322 -0.14427602 0.27838716 0.11033641
0.07118354 -0.054335155 -0.06105844 -0.17044015 -0.12631339 -0.028992299 -0.06511735 0.021542192
-0.12760748 0.23754574 -0.08347522 -0.07522244 0.29755178 0.026258972 -0.06745435 0.056009546
0.080559865 0.07514757 -0.03638538 0.12379205 0.016203573 -0.028102567 0.2766287 -0.055123832
-0.0016171804 -0.06841247 -0.05417938 -0.13539194 0.17245783 -0.29811174 0.051814537 -0.095952064
0.2183748 -0.22811699 0.068434425 -0.16162452 0.24505873 -0.09202087 0.17814797 -0.09592996
0.030277323 -0.1323629 -0.27560169 0.01616324 -0.112138785 0.08023759 0.28500247 -0.18252258
-0.0004406831 0.3592003 -0.05276843 -0.03442948 -0.15020794 -0.014964599 0.09062583 -0.15694061
0.036731683 -0.017385906 0.06511881 0.009343317 0.028765542 0.0141444085 -0.24591245 0.015876515
0.14491363 0.054786902 0.34174532 0.012096514 0.13949892 0.21883874 0.15917665 0.07130209
0.22746766 -0.12986402 -0.2579647 0.2063983 -0.05679761 -0.04521713 -0.012477464 0.20545813
0.11095321 0.09352094 -0.0493204 -0.07598768 -0.03860209 -0.31068286 -0.3313513 -0.05512881
0.0007685919 0.34685543 0.019060554 -0.1884378 0.063169286 -0.07654024 -0.09869665 0.07618501
-0.07431663 -0.01757479 0.050003093 -0.06173403 -0.25750202 0.2669705 -0.04055176 -0.0036678407
-0.09961452 -0.03683087 -0.21356735 0.12170889 0.16270415 -0.18734616 0.18277283 0.17670316

weight_hh_l0 f4 [128, 128]
00000000: fe3d 413c fc12 81bc 1892 b63d e3c8 843e
00000010: 99c0 80bd 10ad 99b8 a646 013e c4fc ecbd
00000020: f14a 8e3d 97b1 55bd f9f4 c33d a448 9abc
00000030: e489 4839 854c 723d 45cc 033e b740 f23d
00000040: 9124 573e 3f8e ac3d d7cd 54be 2d53 d9bd
00000050: a73a b53d b171 c73d 5f50 253d dcd6 2c3d
00000060: 4c07 953a 62fc b4bd ba5c b2bd 19e4 95bb
00000070: e3c5 e4bc ec6e b6bd 4042 b83d b063 44bd
00000080: 6bb1 153e 7f1c 783c a95b b3bd adf5 463e
00000090: c2ad 313e b3b2 9fbd 3f44 033d 10d4 46bd
000000a0: 2e15 043c a16d 90bd b1c1 58be da36 ffbc
000000b0: 6991 66bd c84b c53d 358c 243d 6c48 40be
000000c0: 4ccc 82bd 1980 36bd b391 b6bc 6a27 66be
000000d0: 0c83 28bd 07eb dcbd 267b 8cbd 2a32 c43c
000000e0: e168 e5bd 5942 92bd ba77 993d 2976 f33d
000000f0: 8aa9 003e 7df8 583d bfb2 edbd 309a 0a3e
00000100: dc06 60be 31e1 ae3c d95f 1fbd aec5 4ebc
00000110: f115 bd3d b025 33bd 6b48 313d cafc 053e
00000120: 1515 76be b468 c73d f29f 853d e67d 543d
00000130: c53c b23d 5a2c 3fbd 72b4 4bbe c200 753d
00000140: f787 78bd 8ef6 a33c d818 5cbd 5cd6 debd
00000150: 9429 3c3d 4561 28be 9e46 533c 52f0 063e
00000160: b4fb 9b3d 3917 db3c 6424 91bd d88c f83d
00000170: a8eb dcbc 342d 683e 6efa 1d3e bf66 06be
00000180: 89de 3f3e 0050 b73c 7873 eebd 8190 223e
00000190: 1341 3ebe 10f6 0f3e 4a72 cabd 5a94 343c
000001a0: 3e86 39be 9bbb 41be fc85 043c 4faf 44bd
000001b0: cbe8 82bd 4f20 02be 8698 573d d050 05bc
000001c0: 5c16 ed3c ad28 9c3c cb63 ed3d d562 55be
000001d0: f899 fabd d80f 403e bd15 f53d bf1a 0f3e
000001e0: a999 1f3e 08e8 3b3d 9759 13bd 7d97 103e
000001f0: 3550 093e 28b1 12be 2a5a 683d dd60 0fbc
00000200: 7c68 0bbc 9b66 293c 17e9 88be 3318 543e
00000210: c66e c13d 2e19 043e e2e2 51bd 2415 823c
00000220: b58a 003e 4867 933d 41b6 c3bd 7c03 1f3e
00000230: 9037 8c3b 3f40 e2bd 489a 06be eaa3 393d
00000240: 2530 193d 9cdd 05be 2556 3fbe bccd 20bc
00000250: 8268 d03d 3c69 92bd fb29 f4bd 7058 e4ba
00000260: 9d7d 81bd bbb6 903d 44fc 7c3d 379a 01be
00000270: 291a 4dbe 3ac4 613d 2f01 b73c 6584 493e
00000280: 9422 033d 9d04 bebd 5c5d 9fbc 40f9 41bd
00000290: efc1 a6bd 3739 dd3d ef13 c0be bf62 c13b
000002a0: bc81 143d 5903 f7bb f370 42bd 9c7f 0f3d
000002b0: bc4a 09bd 548e 3bbe 72e5 81be 0f75 fa3c
000002c0: 82e6 733d a839 b43c da6e 463e 405f 5dbe
000002d0: ae2e 91bd e4e6 b93d e82e cfbd e342 e5bd
000002e0: 2193 043d 20f0 c3bc f770 46be 313b 5bbe
000002f0: b80c 9a3b aa72 c83d 11cd c43d 2deb 64be
00000300: a258 64ba ff32 af3b b87a 27bd 690e e4bd
00000310: 9c1c f23d b8a2 0fbd 6329 b6bc f2ef 9a3d
00000320: beea a23b 8842 ac3d 0ad2 9d3e 5c2d 523d
00000330: db67 263e 173f 9d3d 81d2 8e3d c0ad adbc
00000340: 10af b3bd b4cb 283e 4ea7 cd3d 3c13 113e
00000350: d52f 823d f918 123e a9f3 803c a00e 7ab9
00000360: 18d6 69bd d6da 653d acbd 503e 8373 763d
00000370: 9d61 d6bc ce95 4fbd 6fb1 10bd 3554 343e
00000380: 6c86 7abd 9479 ca3d 6077 053e ae0c a93d
00000390: cb29 88bd 8004 4abe 7ca9 333e 85e8 323c
000003a0: a498 1bbe e379 9ebc 2979 5c3c 0e79 e83d
000003b0: b932 13bd 9a6e 0b3e a264 473e cc80 e43d
000003c0: e0be 813d 8b48 8bbd 8de8 96bd ae73 3fbd
000003d0: fc70 e93d 1cdb 283e 46a5 00be 4781 5bbd
000003e0: 948a 293e 4e9b 7c3c f1f3 373e 4d05 febd
000003f0: f27b 36bd 30a2 1d3e b1ec 193e b463 3c3d
0.011794565 -0.015756123 0.08914584 0.25934514 -0.06286735 -7.327844e-05 0.12624606 -0.11571649
0.06947888 -0.052171316 0.09568209 -0.018833466 0.00019124855 0.059155006 0.12870891 0.118287496
0.21010043 0.08425569 -0.20781647 -0.10611568 0.08849078 0.09738482 0.04035985 0.042197093
0.0011369972 -0.08837201 -0.087090924 -0.0045743105 -0.027926391 -0.089078754 0.08997011 -0.047946632
0.14618461 0.015143513 -0.08757717 0.19429655 0.1735144 -0.07797756 0.032047506 -0.048542082
0.00806169 -0.0705216 -0.21167637 -0.031154085 -0.056291018 0.09633595 0.040172774 -0.18777627
-0.06386623 -0.044555757 -0.022286272 -0.22475973 -0.0411406 -0.107870154 -0.06859426 0.023949701
-0.11201645 -0.07141561 0.07493539 0.11887772 0.12564674 0.052971352 -0.11606359 0.1353538
-0.21877617 0.021347614 -0.038909767 -0.012620373 0.092327006 -0.043737113 0.043281954 0.13084713
-0.2403148 0.097367674 0.06524648 0.05187788 0.08702997 -0.046673156 -0.19893053 0.059815176
-0.06067654 0.020015027 -0.05373463 -0.108807296 0.04593809 -0.16443355 0.012895254 0.13177612
0.07616368 0.026744472 -0.07087019 0.12136239 -0.026967838 0.22673494 0.15427563 -0.13125132
0.18737234 0.022377014 -0.11643118 0.15875436 -0.18579511 0.14058709 -0.0988508 0.011021698
-0.18117616 -0.18919222 0.008088585 -0.04801875 -0.06392058 -0.12707637 0.052635692 -0.008136943
0.028941326 0.019062364 0.115912996 -0.20838483 -0.122363985 0.18756044 0.11967037 0.13975047
0.1558596 0.04587558 -0.03597411 0.14120288 0.13409503 -0.14325392 0.056726612 -0.008751121
-0.008508798 0.010339404 -0.26740333 0.20712356 0.094449565 0.1290023 -0.051241763 0.015879221
0.12552913 0.07197434 -0.095562465 0.15528673 0.0042790845 -0.1104741 -0.13144791 0.045322336
0.03739943 -0.13072819 -0.18685205 -0.009814676 0.10176183 -0.07148978 -0.1192207 -0.0017421376
-0.06322787 0.07066103 0.061764017 -0.12656485 -0.2002951 0.055118777 0.022339432 0.19679411
0.0320154 -0.09278224 -0.019453697 -0.047356844 -0.08142459 0.108019285 -0.37515208 0.005901664
0.036256537 -0.007538241 -0.047470998 0.035033807 -0.033518538 -0.18316013 -0.25370365 0.030573396
0.059546 0.022000149 0.19378224 -0.21618366 -0.070889816 0.09077242 -0.101163685 -0.11194398
0.032366876 -0.023918211 -0.1937903 -0.21409298 0.004701223 0.097874954 0.09609426 -0.22355337
-0.0008710717 0.0053466554 -0.040888518 -0.11135561 0.11821863 -0.03506729 -0.022236532 0.07565297
0.004971831 0.08411127 0.3082431 0.05131279 0.16250555 0.07678049 0.06973744 -0.021201015
-0.08773625 0.16483957 0.100416765 0.14167494 0.063567795 0.14267339 0.015741186 -0.00023847306
-0.05708894 0.0561169 0.20384854 0.060168754 -0.026169593 -0.050679974 -0.035325464 0.17610247
-0.06116335 0.098864704 0.13033819 0.082543716 -0.066485964 -0.19728279 0.17545122 0.010919695
-0.15194947 -0.01934523 0.013456621 0.11351214 -0.035937045 0.1361641 0.19471982 0.111573786
0.06335235 -0.06800946 -0.07368574 -0.04674118 0.11398503 0.16489834 -0.12563047 -0.053590085
0.1655677 0.015417887 0.1796415 -0.12403355 -0.044551797 0.15393901 0.15031697 0.04599352

bias_ih_l0 f4 [128]
00000000: 70fc 273e 850c 513c 0c9f fdbd 1b3f ff3d
00000010: 886b 813e 755f 8bbd 7d41 a2bb e780 283e
00000020: 2f5c 6d3d 50ab 22bc e952 46bd dd01 b5bd
00000030: 581d 153e aa9f ffbc 52a9 97bd d47c fb3d
00000040: 2e57 203e 9a1b 02be 7f2d 55be 9af9 b83d
00000050: 867a 28bd fe42 113e 7606 fd3c feb6 d33d
00000060: 166d d1bc 3555 acbd 5678 dabd 85ea ff3d
00000070: 59b5 f0bd 06ef e8bd 139c 943d 7fd6 c6bc
00000080: 2692 33be 6cd8 28bc d95e fdbd 63ea c9bd
00000090: b731 03be b879 143e 302d f63d 8dcc 0c3e
000000a0: a123 f53d a9f7 9bbd 78aa 803b 199b a73d
000000b0: b5d1 5a3e 24c4 513e 8c73 b9bd 4c37 19be
000000c0: db2e b23c c2e0 9b3d f05f 003e 29cd 63bd
000000d0: 9a53 d6bd 5966 02bd a4f6 113e 800c a93d
000000e0: fc33 193e 73d4 5cbe da62 fb3d c77b 0abd
000000f0: 07b0 4fbe 6434 6b3d 91ac 473d beac b1bc
00000100: d6e6 aebd 8be8 073e 585b 943c b0fc b43d
00000110: f90c f63d 4497 263d e883 d73d e78e 383d
00000120: 3681 03be ebc5 023e ed5c 723e dbb9 033d
00000130: fa5f 12be 1f07 c3bd 4342 4f3d fb92 a8bd
00000140: 848b 21bc 3f02 be3c 76bf e13d ebd8 a23c
00000150: a82c 8e3d 9814 023d e28f 1bbe 26f4 863d
00000160: eaec 21be bb51 f73d 9d1c e23d e46e 05bc
00000170: a789 1b3d c220 7f3e 717e 103d c801 3ebc
00000180: 9e7a 2e3d 348b 5a3d 3078 4b3d 3d5f 413c
00000190: 736d 5ebd 4813 db3d bea9 07bd 4277 903d
000001a0: 2534 26be 6a2c ebbd 6dc9 a0bd 03db e63d
000001b0: 11b0 0d3c 1554 ab3d 53c8 83bd 0ba2 b0bc
000001c0: 4639 5e3e b0ca 0a3e 3d1f f53c a2d6 6dbd
000001d0: 7fac 14be c4a3 91bd a1ef 263e adb1 db3d
000001e0: 6deb 56bd a9de 19be 5339 943d acaf 073d
000001f0: e55e f83d 52df 75bd 9897 413c 0080 2dbe
0.16404891 0.012759333 -0.123838514 0.12463208 0.25277352 -0.06805316 -0.0049516545 0.16455422
0.05794924 -0.009928539 -0.048418913 -0.08838246 0.14561975 -0.031204063 -0.07405342 0.122796685
0.15658256 -0.12705842 -0.20818137 0.09031983 -0.041132472 0.14185712 0.03088687 0.10337637
-0.025564712 -0.084146895 -0.106674835 0.12495903 -0.11753339 -0.11373715 0.07256331 -0.024272202
-0.1753622 -0.010305505 -0.123716064 -0.09859159 -0.12811933 0.14499557 0.120203376 0.13749905
0.11969686 -0.07615597 0.0039265715 0.081838794 0.2136906 0.20484978 -0.09055242 -0.149625
0.021750858 0.076112285 0.12536597 -0.055615578 -0.104651645 -0.031835888 0.14254242 0.08254337
0.14961237 -0.21565418 0.12274714 -0.03380945 -0.20281993 0.05742301 0.048748557 -0.021688815
-0.08540122 0.13272302 0.018109962 0.08837259 0.12014193 0.040671602 0.10523206 0.045058157
-0.12842259 0.12770812 0.23668261 0.032159667 -0.14294425 -0.095228426 0.0506003 -0.08231159
-0.009859923 0.02319443 0.110228464 0.019878825 0.06942111 0.03175792 -0.15191606 0.06589536
-0.15813032 0.12076136 0.11040614 -0.008144114 0.037973072 0.2491484 0.035276834 -0.011597104
0.042597406 0.05335541 0.049675167 0.011802492 -0.054303598 0.10697037 -0.033120863 0.070539966
-0.16230829 -0.11483081 -0.07850919 0.11272242 0.0086479345 0.08365647 -0.06434693 -0.021561643
0.21701536 0.13553882 0.029922122 -0.058066018 -0.14518927 -0.07111314 0.16302349 0.10727248
-0.052470613 -0.15026344 0.07237496 0.033126518 0.12127475 -0.060027428 0.011815928 -0.1694336

bias_hh_l0 f4 [128]
00000000: 6ffc 273e 910c 513c 0a9f fdbd 183f ff3d
00000010: 886b 813e 735f 8bbd 4841 a2bb e880 283e
00000020: 315c 6d3d 41ab 22bc ea52 46bd df01 b5bd
00000030: 5a1d 153e a79f ffbc 51a9 97bd d37c fb3d
00000040: 2c57 203e 9a1b 02be 7b2d 55be 99f9 b83d
00000050: 887a 28bd ff42 113e 7006 fd3c ffb6 d33d
00000060: 176d d1bc 3355 acbd 5a78 dabd 85ea ff3d
00000070: 56b5 f0bd 04ef e8bd 129c 943d 7dd6 c6bc
00000080: 2092 33be 6ad8 28bc dc5e fdbd 64ea c9bd
00000090: ba31 03be b879 143e 2e2d f63d 8acc 0c3e
000000a0: 9f23 f53d aaf7 9bbd 6baa 803b 169b a73d
000000b0: b6d1 5a3e 24c4 513e 8b73 b9bd 4c37 19be
000000c0: da2e b23c c1e0 9b3d f05f 003e 2ecd 63bd
000000d0: 9b53 d6bd 5a66 02bd a4f6 113e 7f0c a93d
000000e0: fa33 193e 73d4 5cbe d262 fb3d c97b 0abd
000000f0: 08b0 4fbe 6234 6b3d 92ac 473d bfac b1bc
00000100: d6e6 aebd 88e8 073e 5e5b 943c affc b43d
00000110: fb0c f63d 4897 263d ea83 d73d e68e 383d
00000120: 3581 03be ecc5 023e ee5c 723e d9b9 033d
00000130: fc5f 12be 1d07 c3bd 4442 4f3d fa92 a8bd
00000140: 838b 21bc 3d02 be3c 72bf e13d ecd8 a23c
00000150: a72c 8e3d 9714 023d e18f 1bbe 29f4 863d
00000160: eaec 21be b851 f73d 9c1c e23d e86e 05bc
00000170: a789 1b3d c420 7f3e 6e7e 103d d101 3ebc
00000180: a27a 2e3d 2f8b 5a3d 3278 4b3d 3c5f 413c
00000190: 706d 5ebd 4713 db3d bfa9 07bd 4477 903d
000001a0: 2434 26be 692c ebbd 6fc9 a0bd 08db e63d
000001b0: f7af 0d3c 1554 ab3d 52c8 83bd 15a2 b0bc
000001c0: 4739 5e3e afca 0a3e 371f f53c a0d6 6dbd
000001d0: 7dac 14be c3a3 91bd a2ef 263e abb1 db3d
000001e0: 63eb 56bd a8de 19be 5339 943d b0af 073d
000001f0: e65e f83d 5adf 75bd ae97 413c ff7f 2dbe
0.1640489 0.012759344 -0.1238385 0.12463206 0.25277352 -0.06805315 -0.00495163 0.16455424
0.05794925 -0.009928525 -0.048418917 -0.088382475 0.14561978 -0.031204058 -0.074053414 0.12279668
0.15658253 -0.12705842 -0.2081813 0.09031982 -0.04113248 0.14185713 0.030886859 0.10337638
-0.025564713 -0.08414688 -0.106674865 0.12495903 -0.11753337 -0.113737136 0.072563305 -0.024272198
-0.17536211 -0.010305503 -0.123716086 -0.098591596 -0.12811938 0.14499557 0.12020336 0.137499
0.11969685 -0.076155975 0.0039265654 0.08183877 0.21369061 0.20484978 -0.09055241 -0.149625
0.021750856 0.07611228 0.12536597 -0.055615596 -0.10465165 -0.03183589 0.14254242 0.082543366
0.14961234 -0.21565418 0.12274708 -0.033809457 -0.20281994 0.057423003 0.04874856 -0.021688817
-0.08540122 0.13272297 0.018109974 0.08837258 0.120141946 0.040671617 0.105232075 0.045058154
-0.12842257 0.12770814 0.23668262 0.03215966 -0.14294428 -0.09522841 0.050600305 -0.082311586
-0.009859922 0.023194427 0.110228434 0.019878827 0.069421105 0.031757917 -0.15191604 0.065895386
-0.15813032 0.120761335 0.11040613 -0.008144118 0.037973072 0.24914843 0.035276823 -0.011597113
0.04259742 0.053355392 0.049675174 0.011802491 -0.054303586 0.10697036 -0.033120867 0.07053998
-0.16230828 -0.1148308 -0.078509204 0.11272246 0.00864791 0.08365647 -0.064346924 -0.021561662
0.21701537 0.1355388 0.029922111 -0.05806601 -0.14518924 -0.07111313 0.1630235 0.10727247
-0.052470576 -0.15026343 0.07237496 0.033126533 0.121274754 -0.060027458 0.011815948 -0.16943358

weight_ih_l1 f4 [128, 128]
00000000: 4587 88bd 3c18 3f3d b128 32be 72b3 e93c
00000010: 230f 953e c40d dabc 164e cf3d dd8c 053e
00000020: b8f5 b3bd 3e50 2b3c 3322 053d 8d45 dcbc
00000030: b868 f93d 76f7 4d3e c8ad 45bd 3864 d63c
00000040: 48ba 363e 4772 bfbd 4f61 bebd f8a5 173e
00000050: c128 4a3c 9695 b93d 7710 003e 9ff3 a93d
00000060: 2dda 2cbe 1b26 4ebd b910 fc3b 59ca 713d
00000070: 1c07 88bd 251f 8a3d 12cb 1d3e 1fe2 93bc
00000080: a53b a6bd 4dec 90bd e6f1 153c 9277 90bd
00000090: 6f51 b0bd 805c 683d 0f23 3b3d 2d7d c43d
000000a0: 48e5 493d f2f1 0e3d dec0 69bd 5a81 993d
000000b0: f44a 9b3d 33ed 673e 2ec5 34bd da12 fbbd
000000c0: bb3f 16be b8ef a83d ddd9 61bd 0c67 043e
000000d0: a847 06be 2750 22be 0cd1 81bd 8704 f23d
000000e0: d92c 49bd 3e1a f8bd dd55 79bb 4816 4cbb
000000f0: 56ce ccbc 4f34 133d d76f 1bbd 54f8 7f3d
00000100: 5388 debc 1f46 20bd fcbd 273e 5899 c0bc
00000110: 84ad e63d 1de0 e83c 8247 0d3e 9d28 a8bc
00000120: 7894 213d 62d0 193e b212 3d3e 14a1 3d3e
00000130: d7f2 a3bd 037b be3d e6b9 993d 966c 1bbd
00000140: 571f 653d 2e5b 083d ace1 c83d 2965 d9bd
00000150: 9b47 a23d 4d1f 2d3e c8ef a5bd 93ad 103e
00000160: 954b b33c 405f 623d 53ae a0bd 79ff 473e
00000170: 7571 033e 527c 5c3e 480b 38be 825c ccbc
00000180: 76dc 133e ac04 b4bd 067d 913d 1234 dcbd
00000190: 37fc a1bc 7ac7 d73c 0c17 05be 0d54 d3bb
000001a0: b3c1 6ebd 7f12 1dbe e563 eb3d eb37 8d3d
000001b0: b913 80bd 5b00 ea3d c974 ab3d 74de cb3d
000001c0: e7ec 333e 2e41 0a3d c87f c8bc 032c 353d
000001d0: ffd0 9d3d 5a75 3dbc 64eb e73d 00d1 58bd
000001e0: 1b4d bdbd d6d1 aabd f962 903c d1b9 c3bd
000001f0: 855a 293e e0ca 803d 1360 24bc 76f2 d23d
00000200: 1f80 7c3d adea 36bd f92c f23c 873a 553e
00000210: 3291 7b3d bce3 75bc 0804 8dbe 5c94 223e
00000220: 000e 9cbe 0040 41bd c051 07be 478d 863e
00000230: 02ff 3c3d 0b37 693e cee4 93bd 731b 593e
00000240: 89a3 f23d 16b7 d4bd 8109 c3bd ca7e 10be
00000250: 6567 acbd ddb4 c83c af58 a73c 470a 0c3e
00000260: 7dd7 023d eabc 5bba bc56 2dbe f1ef 1d3d
00000270: ecf6 9a3d 4a9d 9dbc 7536 85bd 35c6 b0bd
00000280: ed5c 46bd 86da 8a3e e2f4 e9ba a793 62be
00000290: 8911 3f3e dfbb a03d 8751 f6bb d0b3 ec3d
000002a0: eef7 4a3d 5289 f13c 1f60 913d d31b 693e
000002b0: 0535 bfbc f745 1c3e 43ad 4f3d d184 a7bd
000002c0: e39a 1c3d deba ea3b fdf4 c1bc c794 563d
000002d0: 5421 5c3d 1ee9 983d 8e7f 9a3d 5442 99be
000002e0: 2d9a 03be 5c24 08be b2d5 86bd 3574 00be
000002f0: 26f2 19be 2bc3 003d d07f 3a3e f14b 75bd
00000300: 9e84 a53d 7156 913c fc2d 3a3e 621f fb3c
00000310: 0372 003e e377 dc3d 24cb 0ebe 8e7a 053e
00000320: f5eb 343d 0991 663d a4d8 4f3e fe14 cf3c
00000330: 4d5d 15be 109f 07be 9209 32bd d329 e43c
00000340: 4293 793d 5dee 473e fd45 f53a c0d7 053d
00000350: b9a1 6e3e 3cf2 343e 3f81 fc3d 92ad 423d
00000360: 12b8 9bbd b059 513e 4680 aabd 2d8f 3f3d
00000370: d371 053e 7c94 b63d 47f1 03be a9a5 a43d
00000380: 8f7a 153d 3cdd 45be 3399 9d3d c3b7 9cbd
00000390: c9c9 4a3c ffc2 973b a969 3cbe 622a b4bd
000003a0: 588d 90bd 687c b3bd 784d 473e 0470 0d3e
000003b0: fa7f 91bc 3f63 5e3e 07c9 b13e 2567 56be
000003c0: d1f0 9fbc 0799 c6bb 8e17 c43d fa9d dd3b
000003d0: 0394 323d 27bb 2a3e 11b3 373e ed7e 5ebe
000003e0: 4f41 013d a2d1 37be 59aa 0fbe af9c 1ebe
000003f0: 24d4 bebe 6f01 e9bd f362 c5bd cf40 643e
-0.066664256 0.04665397 -0.17398335 0.028527949 0.2911311 -0.026617892 0.101223156 0.13042016
-0.087871015 0.010456143 0.032503318 -0.026888633 0.12178177 0.2011393 -0.048261434 0.026170835
0.17844498 -0.093479685 -0.09295904 0.14809406 0.012338818 0.090617344 0.12506281 0.0829842
-0.16880102 -0.05032931 0.007692423 0.059030864 -0.06641981 0.067442216 0.15409496 -0.018052159
-0.08116845 -0.07076321 0.009151911 -0.07054056 -0.08609282 0.05672884 0.04568773 0.09594188
0.049290925 0.034898706 -0.057068698 0.07495375 0.075826555 0.22649078 -0.044133358 -0.12259455
-0.14672749 0.08248848 -0.05513941 0.12929934 -0.13113272 -0.15850888 -0.06338701 0.1181727
-0.049115036 -0.1211438 -0.0038045563 -0.003114121 -0.025000732 0.035938557 -0.037948456 0.062492684
-0.027164614 -0.039129373 0.16381067 -0.02351062 0.11263564 0.028427178 0.1379681 -0.020527178
0.03944823 0.15020898 0.18464163 0.18518478 -0.080053024 0.093008064 0.075061604 -0.037945352
0.05593809 0.03329008 0.098086685 -0.10614998 0.07923814 0.16906472 -0.08102375 0.14128713
0.021886626 0.05526662 -0.0784575 0.19531049 0.12836249 0.215318 -0.17973053 -0.024946455
0.14439568 -0.087899536 0.071039245 -0.10752119 -0.019773586 0.026340235 -0.12997073 -0.0064492286
-0.058290195 -0.15339087 0.11493663 0.06895431 -0.06253762 0.11425849 0.083718844 0.09954539
0.1757084 0.033753566 -0.024474993 0.044231426 0.077058785 -0.011563623 0.11324194 -0.052933693
-0.09243222 -0.08340804 0.017625319 -0.09556926 0.16538437 0.06288695 -0.0100326715 0.10300152
0.061645623 -0.044657398 0.02956246 0.20823108 0.061417766 -0.015007909 -0.27542138 0.15876907
-0.3047943 -0.047180176 -0.13214779 0.2627966 0.046141632 0.22774903 -0.072213754 0.21201877
0.11847598 -0.10386483 -0.09523297 -0.14110866 -0.084181584 0.024500305 0.02042803 0.13675795
0.031943787 -0.00083823374 -0.16927618 0.038558904 0.07566628 -0.01924004 -0.065045275 -0.08631555
-0.048428465 0.27119845 -0.001784947 -0.22126637 0.18659033 0.078483336 -0.007517043 0.11557734
0.04955285 0.029484425 0.07098412 0.2276452 -0.023340711 0.15261064 0.050702345 -0.081796296
0.03823365 0.0071633896 -0.02367639 0.05238798 0.05374272 0.074663386 0.075438604 -0.29933417
-0.12851782 -0.1329512 -0.06583728 -0.1254433 -0.15033779 0.031436127 0.18212819 -0.059886876
0.08081935 0.017741414 0.18181604 0.030654613 0.12543492 0.10765054 -0.1394468 0.13035032
0.04417034 0.05629066 0.20297486 0.025278565 -0.14586373 -0.13244271 -0.04346616 0.027851975
0.06093145 0.19524522 0.0018712875 0.03267646 0.2330388 0.1767053 0.12329339 0.04752881
-0.07603468 0.2044437 -0.083252475 0.046767402 0.13031702 0.0891504 -0.12885009 0.0803941
0.036493834 -0.19322675 0.07695236 -0.07652237 0.012377211 0.0046313996 -0.18399681 -0.087971464
-0.07058209 -0.08763963 0.19463146 0.13812262 -0.01776122 0.21717547 0.34723684 -0.20937784
-0.01952401 -0.0060607227 0.09574805 0.006763217 0.043598186 0.16672955 0.17939402 -0.21728106
0.031556424 -0.17951062 -0.14029826 -0.15489458 -0.37271225 -0.113772266 -0.09638014 0.22290348

weight_hh_l1 f4 [128, 128]
00000000: 2bcd 163e 3b7e f03b 27ef c83d 6826 bbbc
00000010: 3ade 14bd 3be4 443e 3667 48be 55f9 34bc
00000020: b3c9 e73d 3618 593c b8b6 e73d b0dd 37bd
00000030: cc76 e2bb 5c64 173d 3367 953d d35a 7c3d
00000040: c30d 0a3d 8ce0 963d b922 8b3d 568d adbd
00000050: 1ebf 19be de78 9bbd 349f 073d b88c 36be
00000060: 95af f2bd aeb3 0cbe f802 1b3d 40cb b6bd
00000070: b774 aebd 583f ba3c c68b b4be bcb0 073c
00000080: 4398 5bbc 1a26 333d 19ed b53d 85d7 883d
00000090: 24a9 cabc f3cd ee3b fb07 d63c 4641 bd3b
000000a0: 0bd8 51bd 9905 703d 07ee 973b 395c 95bd
000000b0: e470 ccbd 688f 1cbd 8582 323e c201 973d
000000c0: d470 873d c99e e63c 3327 0bbe 31e3 0b3e
000000d0: e319 7e3c 5777 a5bc fd00 f8bd 35c3 973c
000000e0: 10f5 81bd 172d 7c3d 67ba 99bd 0a42 f13c
000000f0: 89cc d1bd 1dba d33d e5e1 de3d 3476 c9bc
00000100: da35 aabd 8b3e 7fbd 6ade 94bd 76be 49bb
00000110: 46a2 40bc 2fa7 423d 730b 4f3d 5dba 613a
00000120: 3bde 3d3e 31a2 a33b e16e febd 5221 96be
00000130: 34a4 b0bd 5d93 c7bc 3c29 123d dd9a 563d
00000140: 3cd2 1e3c 9f5d 2f3d 46f9 18bd 6471 16bd
00000150: 1f0d 783d 503c 3bbe 3f4f 91bd bfb4 b33c
00000160: 2c14 b8bd fa1c da3d 6ac5 9c3d 7c33 4dbd
00000170: e10c 1d3e 191b 98bc ab13 e83d 1912 b33d
00000180: 19f8 cdbc 74b1 aa3c 01bd 3a3e 3d20 ac3d
00000190: 5fcd 2fbd 053c f1bd f3a7 4bbd d4e8 00be
000001a0: 5afb 8a3d f97b dabc 3308 08bd cd82 2dbd
000001b0: 63b0 47be 293d b3bd 4f2a 783d ae79 94bc
000001c0: 5c9b 48bc 70a9 8a3d 9398 533d 8a6e 8abc
000001d0: 248f f83d 4af0 993d 79f9 c73c 61d0 19be
000001e0: 7178 503d 751d 2cbe 1e0e ffbc e315 5cbe
000001f0: 387d 873b a31e dfbd 2a30 de3d 3eeb 813d
00000200: 13a2 1f3d 340d debd cc6b ddbc 2fa8 833e
00000210: 14d2 d0bd 22cf 63be 8a30 6fbc 54a6 033e
00000220: 4e58 863d f805 0ebe 3456 713d 7af6 30be
00000230: 9216 343e d1d0 f83d 8957 943d 9c0b 17be
00000240: 811d 0f3e fb9e 8abd 4e93 ee3d e01b 8e3d
00000250: d23e d4bd 586e 2a3e cbe8 01be 13e4 40be
00000260: 68ca b23d bde1 323e c54f fb3d 2443 52bc
00000270: 0554 86bd 6002 3dbe 7599 c83d 9064 a03d
00000280: d3b8 59be 3bcb 953c 1a64 ba3d 879e bb3d
00000290: f43f 1a3e d86d b2bd 6901 71bc ed69 973d
000002a0: dd44 ac3d 91ca b03d 00f4 f9bc 3cdc 143d
000002b0: 10ae 3d3d a30c 10bd 72c6 36bd 8ca2 78be
000002c0: 69cd 48be a3d7 22bd de9c 1bbd 60a4 d43b
000002d0: 6c94 bc3d 22fa cfbc e1b6 45be 1df8 b73d
000002e0: b963 353e af16 aebd 623a 8a3d a07e 9b3e
000002f0: 382f 123d fbf7 1d3e 4ffe a23d f2d6 7abd
00000300: 1c3c cdbc 6ae5 60be f718 2abe c02d 013e
00000310: 25bf 2ebc 1a87 d8bd 9712 8d3d 1fec 31bd
00000320: fb80 0e3e 0c6c 4dbc f7cd 833d fe1c 18bd
00000330: d210 80bd 9a5b 39bd 6a10 f53d 0fc4 08bd
00000340: 05a5 11be 82d9 cbbb b8a0 35be 0f11 6bbd
00000350: 34e1 cebd 7a4f f4bd 460c 833d 6237 223e
00000360: dd23 4b3e 4a13 863c 2d88 953d 0b4f 7f3e
00000370: a260 d7bb 0415 c43d 88d7 643e 3e76 e53d
00000380: fd3a d1bd 5fab ec3d 54ef 3dbc 1e65 dbbd
00000390: e2d0 b13b c1c6 b73d be0b 963d c112 2fbe
000003a0: a767 68be 30f9 573d 020a abbd 39c5 5f3c
000003b0: 5b78 07be 469a 7fbe 8440 1c3e 552d 8fbc
000003c0: 4c92 cabe a4c5 a3bd 3976 bcbd da0b c1bc
000003d0: 2f18 1dbd d855 b83d 7b71 1fbe c0ae b0bd
000003e0: 8206 05bc ecf8 5f3e 84fc a1bc 53e7 1e3c
000003f0: 8b1c 223e 9be5 79bd 1759 223d 4bd5 66bd
0.14726703 0.0073392666 0.0981124 -0.022845462 -0.036344744 0.19227688 -0.19570622 -0.0110457735
0.11317768 0.013250401 0.11314148 -0.044889152 -0.0069111343 0.036960945 0.07295074 0.061610054
0.03370453 0.07367048 0.06793732 -0.08474223 -0.15014312 -0.07591413 0.033110812 -0.17827117
-0.11849896 -0.13740417 0.037844628 -0.089254856 -0.08518355 0.022735283 -0.3526289 0.008281883
-0.013403001 0.04373751 0.088831134 0.06681732 -0.024738856 0.0072877347 0.026126852 0.0057756035
-0.051231425 0.05859909 0.0046365294 -0.07292981 -0.0998247 -0.0382227 0.17432602 0.07373382
0.06613317 0.028151887 -0.13589172 0.13660885 0.015509102 -0.020198507 -0.121095635 0.0185257
-0.0634557 0.06156644 -0.075062566 0.029450435 -0.1024409 0.10338233 0.1088293 -0.024592496
-0.083110526 -0.062315505 -0.072689846 -0.003078369 -0.011757439 0.04752272 0.05054803 0.0008610839
0.18541805 0.0049937 -0.12423492 -0.29322296 -0.08625069 -0.02436226 0.035683855 0.052393783
0.0096936785 0.042813893 -0.0373471 -0.03672923 0.06055939 -0.18284726 -0.07095193 0.021936772
-0.089882225 0.10650058 0.07654841 -0.050097927 0.15336944 -0.018567609 0.11331876 0.08743686
-0.025142716 0.02083657 0.18236162 0.084045865 -0.042920467 -0.11779026 -0.049720716 -0.12588817
0.06786223 -0.026670443 -0.033210944 -0.04236107 -0.1950088 -0.087519 0.060587224 -0.018124428
-0.012244072 0.06770599 0.051659178 -0.016898412 0.12136677 0.075165346 0.02441095 -0.15020896
0.050896112 -0.16808112 -0.031134661 -0.21492724 0.0041348003 -0.10894515 0.1084903 0.06343697
0.038972925 -0.10842362 -0.02702894 0.2571425 -0.10196319 -0.22246984 -0.014598975 0.12856418
0.065598115 -0.13869464 0.0589201 -0.17281523 0.17586735 0.121492036 0.072432585 -0.14750522
0.13976099 -0.06768604 0.1164919 0.069389105 -0.103635445 0.16643655 -0.1268646 -0.18837003
0.08730012 0.17468925 0.12271074 -0.01283339 -0.06558994 -0.18457937 0.097948946 0.07831681
-0.21261911 0.018285384 0.09101124 0.09161096 0.15063459 -0.08712357 -0.014709809 0.073932506
0.08411572 0.086323865 -0.030511856 0.036342844 0.046308577 -0.0351683 -0.044622846 -0.24280757
-0.19609608 -0.03975643 -0.037991397 0.0064893216 0.09207997 -0.025387827 -0.19308044 0.08982871
0.17713822 -0.0850042 0.06749417 0.30370045 0.035689563 0.15426628 0.07958662 -0.061240144
-0.025053076 -0.21962515 -0.16611086 0.12615108 -0.01066569 -0.105726436 0.06888311 -0.043438073
0.1391639 -0.012537967 0.06435769 -0.037137024 -0.06253208 -0.045253374 0.11966021 -0.0333901
-0.14223106 -0.0062209973 -0.1773709 -0.057389315 -0.10101548 -0.119292215 0.06398825 0.1584144
0.198379 0.01636662 0.07301364 0.24932496 -0.006572799 0.09574321 0.22347844 0.112041935
-0.10216329 0.11556124 -0.011592705 -0.10712646 0.005426512 0.08973456 0.073264584 -0.17096998
-0.2269579 0.052727878 -0.08351518 0.013657861 -0.13229506 -0.24961194 0.15258986 -0.01747767
-0.3956474 -0.07996681 -0.09202237 -0.023565222 -0.03835314 0.090007484 -0.15570633 -0.08627081
-0.008119227 0.218723 -0.01977373 0.009698707 0.15831201 -0.061009984 0.039635744 -0.056355756

bias_ih_l1 f4 [128]
00000000: a435 653e e050 353d 8424 3d3e c5bb 8b3c
00000010: 9e62 7a3e ac53 c63d 2d69 57be d2d8 7a3d
00000020: a76c 693e 558f 0f3e d039 33bd 8651 16be
00000030: 939b 7dbc 8aa6 563e 2938 b4bd 1471 9bbd
00000040: 0142 863d 4f06 d3bd 1eb0 2bbe 9084 b93d
00000050: 448b cd3b 2119 d13d 0ce0 dc3d e3cf 7fbd
00000060: cb9a 1fbd ae69 d5bd e6ff 123e 3ef1 7abc
00000070: a222 113e 4940 cdbd cd48 973d fbee 803d
00000080: e7f6 e4bd a8e2 423e 3b77 583e a16d d53d
00000090: 8aa4 8f3c 138f 753b 1198 d63d a8c0 3cbe
000000a0: 5017 753d c208 80bd f3ce d53d ed83 ffbd
000000b0: f7f6 4dbe c427 86bd eb7a 073e e71d f33d
000000c0: 74f6 25be beb3 20be 2a96 0abe 1123 6b3e
000000d0: 6b89 f03c 0ad3 ac3c f907 35be 6838 373e
000000e0: 8cc2 403d c9d1 9f3c e641 083d cda1 833d
000000f0: 7c96 bc3d 3c7b 3fbd 7a4a 563b 2e1f 30be
00000100: 543f 31be a1bc acbd f0ee b4bc 90f8 233e
00000110: cbb4 073e 5fc6 e93d ad90 973d 03b5 29bd
00000120: ac54 b73d 4f4d 8ebb 8288 4d3d 8150 9bbd
00000130: 87e5 d53d ff5b 52be 9b80 cebd 4757 723e
00000140: 1eb4 26bd 3fcf fc3d 4597 1fbc a055 dabd
00000150: bf16 70be e568 9cbd 7b37 4d3d d70e 74bd
00000160: f494 c9bd 3cd4 153e b6d6 623e ff41 e0bd
00000170: 62b0 d13d e353 173e 10b2 503e e961 3a3e
00000180: ec2b 5a3e d25d b2bd 0f3e 0d3d c430 a4bd
00000190: 80dc fbbd 7490 e63d b0f6 7d3e 5358 77be
000001a0: 2223 a33d 153a 00be 978f 1bbd bf68 9dbd
000001b0: d8c4 26be 5c78 64bd 5b87 8ebd 2b1a a03d
000001c0: f960 32be 0668 8abd d4cf e1bd ebfd 313e
000001d0: 695f 46be 6d0c babd 3ad0 e1bd fcaa c8bd
000001e0: 8298 09bd bd4e 883d 2ae9 a33d 757b b23d
000001f0: 7c86 24bd c33c e5bd bf19 89bc cf2e fa3d
0.22383744 0.04426658 0.18470961 0.017057309 0.24451682 0.09683928 -0.21036215 0.061241932
0.22795354 0.1401952 -0.043756306 -0.14679536 -0.015478986 0.20961967 -0.08799774 -0.07589927
0.06555558 -0.10303938 -0.16766402 0.090584874 0.0062727053 0.10209871 0.10784921 -0.062454116
-0.03896598 -0.104205474 0.1435543 -0.015316306 0.14173368 -0.10022027 0.073869325 0.06295582
-0.111799054 0.19031775 0.21139233 0.10421301 0.017534513 0.0037469312 0.10478223 -0.18432868
0.059836686 -0.062516704 0.10439863 -0.12476335 -0.20113741 -0.065505534 0.13230483 0.11870938
-0.16207296 -0.15693566 -0.13533846 0.22962596 0.029362401 0.021096725 -0.17678823 0.17892611
0.047060534 0.019509213 0.03326597 0.064273454 0.0920839 -0.046748385 0.00326982 -0.17199394
-0.17309314 -0.084344156 -0.02208659 0.16012788 0.13252561 0.114147894 0.074006416 -0.04143239
0.08951697 -0.004342712 0.050179012 -0.07583714 0.104441695 -0.20542906 -0.10083123 0.23666106
-0.040699117 0.123442166 -0.009740655 -0.10660863 -0.23446177 -0.076371945 0.05010174 -0.059584465
-0.09842864 0.14631742 0.22152218 -0.10950088 0.102387205 0.14778094 0.20380425 0.18201412
0.21305817 -0.08709301 0.03448301 -0.08017114 -0.122979164 0.11258021 0.24801135 -0.24154787
0.079656854 -0.12522157 -0.037978735 -0.07685994 -0.16286027 -0.055778846 -0.06959411 0.07817491
-0.17419805 -0.06758122 -0.11025968 0.17382018 -0.19372334 -0.09084401 -0.11026044 -0.09798238
-0.03359271 0.06655643 0.08003457 0.08714954 -0.040167317 -0.1119323 -0.01673591 0.12215959

bias_hh_l1 f4 [128]
00000000: a535 653e e150 353d 8324 3d3e c0bb 8b3c
00000010: 9c62 7a3e ad53 c63d 2b69 57be cfd8 7a3d
00000020: a76c 693e 548f 0f3e cf39 33bd 8751 16be
00000030: 939b 7dbc 88a6 563e 2838 b4bd 1571 9bbd
00000040: 0142 863d 5106 d3bd 1ab0 2bbe 8e84 b93d
00000050: 498b cd3b 2119 d13d 0ce0 dc3d e1cf 7fbd
00000060: cb9a 1fbd af69 d5bd e6ff 123e 4af1 7abc
00000070: a122 113e 4840 cdbd cd48 973d fcee 803d
00000080: eaf6 e4bd a6e2 423e 3b77 583e a16d d53d
00000090: 89a4 8f3c 058f 753b 1198 d63d aac0 3cbe
000000a0: 5117 753d bf08 80bd f2ce d53d f183 ffbd
000000b0: f7f6 4dbe c127 86bd e77a 073e e81d f33d
000000c0: 74f6 25be bdb3 20be 2a96 0abe 1123 6b3e
000000d0: 6a89 f03c 09d3 ac3c f907 35be 6738 373e
000000e0: 8fc2 403d cbd1 9f3c e141 083d cda1 833d
000000f0: 7c96 bc3d 387b 3fbd 1d4a 563b 311f 30be
00000100: 543f 31be a1bc acbd f5ee b4bc 8ef8 233e
00000110: cdb4 073e 5ec6 e93d b090 973d 02b5 29bd
00000120: b054 b73d 854d 8ebb 8488 4d3d 8150 9bbd
00000130: 88e5 d53d fd5b 52be 9b80 cebd 4857 723e
00000140: 1eb4 26bd 3ccf fc3d 4097 1fbc a055 dabd
00000150: bf16 70be e968 9cbd 7737 4d3d d70e 74bd
00000160: f494 c9bd 3dd4 153e b7d6 623e fd41 e0bd
00000170: 63b0 d13d e753 173e 0eb2 503e e861 3a3e
00000180: ec2b 5a3e d25d b2bd 0f3e 0d3d c430 a4bd
00000190: 7ddc fbbd 7490 e63d aff6 7d3e 5758 77be
000001a0: 2323 a33d 153a 00be 9c8f 1bbd bc68 9dbd
000001b0: d7c4 26be 6078 64bd 5e87 8ebd 291a a03d
000001c0: f760 32be 0668 8abd d4cf e1bd edfd 313e
000001d0: 685f 46be 6c0c babd 39d0 e1bd fcaa c8bd
000001e0: 8198 09bd c04e 883d 27e9 a33d 757b b23d
000001f0: 7d86 24bd c43c e5bd c519 89bc d02e fa3d
0.22383745 0.044266585 0.1847096 0.0170573 0.24451679 0.09683929 -0.21036212 0.06124192
0.22795354 0.14019519 -0.043756302 -0.14679538 -0.015478986 0.20961964 -0.087997735 -0.07589928
0.06555558 -0.10303939 -0.16766396 0.09058486 0.0062727076 0.10209871 0.10784921 -0.06245411
-0.03896598 -0.10420548 0.1435543 -0.015316317 0.14173366 -0.10022026 0.073869325 0.06295583
-0.111799076 0.19031772 0.21139233 0.10421301 0.017534511 0.003746928 0.10478223 -0.1843287
0.05983669 -0.06251668 0.10439862 -0.12476338 -0.20113741 -0.06550551 0.13230477 0.118709385
-0.16207296 -0.15693565 -0.13533846 0.22962596 0.0293624 0.021096723 -0.17678823 0.1789261
0.047060546 0.019509217 0.033265952 0.064273454 0.0920839 -0.04674837 0.0032697984 -0.17199399
-0.17309314 -0.084344156 -0.0220866 0.16012785 0.13252564 0.11414789 0.07400644 -0.041432388
0.089517 -0.004342737 0.05017902 -0.07583714 0.1044417 -0.20542903 -0.10083123 0.23666108
-0.040699117 0.12344214 -0.009740651 -0.10660863 -0.23446177 -0.076371975 0.050101724 -0.059584465
-0.09842864 0.14631744 0.2215222 -0.10950086 0.10238721 0.147781 0.20380422 0.18201411
0.21305817 -0.08709301 0.03448301 -0.08017114 -0.12297914 0.11258021 0.24801134 -0.24154793
0.07965686 -0.12522157 -0.037978753 -0.07685992 -0.16286026 -0.05577886 -0.06959413 0.0781749
-0.17419802 -0.06758122 -0.11025968 0.17382021 -0.19372332 -0.090844005 -0.110260434 -0.09798238
-0.033592705 0.06655645 0.08003455 0.08714954 -0.04016732 -0.11193231 -0.01673592 0.1221596

weight f4 [1, 128]
00000000: cb8a 143e aec0 b43d bd96 b03d 051e 97bd
00000010: 9edc 1f3e 6b26 e73d 8d9b e2bd 046e e4bb
00000020: 718f ed3d 235c 003d 01c4 a6bd ca42 9fbd
00000030: 5b8a 34bd f369 523d 03fc 32bd dc9f 463d
00000040: 7b61 933c bb73 52bd cca3 b7bd bce5 2cbb
00000050: 89e4 c7bd 32ea 50bc a8c8 003d 52a1 463d
00000060: 7b17 0b3d e2d2 46bd 6949 3e3e 3032 74bd
00000070: fb1a 9f3d e0b2 533c 0cd4 18bd d55e 763c
00000080: 2ea5 9ebd d0c6 463d 8f23 723d fa4e 543b
00000090: dfcb 8ebc b91c e03c 600d bb3d 91df d2bd
000000a0: 34bf 0c3c 55e6 6d3d 7cb2 a23d 6035 87bd
000000b0: f305 c5bd 9826 7abd 871b 303d 0ea6 a93d
000000c0: 23f7 05be 2c71 a5bd bc57 3cbc b157 a43d
000000d0: f00d 3cbd 3d0f 43bd ed1b b7bd bf74 dc3d
000000e0: 31e3 04bd f3eb 0b3d e30e 753d 042b 833d
000000f0: f466 f2bb 321f febb 31ee 993c d551 eebd
00000100: b51e e6bd e368 383d 1b3b c5bc 934c a83d
00000110: 5572 153d 2196 683d 6265 123c a8f9 1a3d
00000120: 3230 a23d 9091 803a 1128 f0bb 297c 1d3d
00000130: 01c9 c03d bb76 dabd c824 7bbd 4cc5 283e
00000140: dc8a 5d3d e331 3b3d ab8f 24bd d4ca 053d
00000150: 075b eabd 612e 8c3d bc89 adbd 1198 08bd
00000160: f991 a2bd 0272 9e3d 7016 1b3e d4ee 93bd
00000170: 5d31 13bd 84eb c23d 18a2 863d 0c38 f73d
00000180: c5fb 013e 5f0b adbb 1ff8 dd3d 6058 963c
00000190: 4481 92bd fbfa 573d ea36 0d3e 1b76 a7bd
000001a0: 1f64 803d c867 20bd ecef 47bd 5ab3 0a3d
000001b0: 7d2b c1bb 72ed 263c 99d2 0b3d 1b67 473d
000001c0: d93f 10be 60aa 573d 3b6b 50bb a9bc b33d
000001d0: 0cf3 3cbd bd68 91bd 10b6 083d 805d bd3c
000001e0: 0e9d 263b 0269 d93b 8346 2d3d 1c24 a73d
000001f0: d598 953d c5b4 b0bd 5e60 373d 4961 f63c
0.1450607 0.08825813 0.08622501 -0.07378773 0.15611503 0.112866245 -0.11064825 -0.0069711227
0.11599625 0.03133787 -0.081428535 -0.07776411 -0.04407726 0.051370572 -0.04369737 0.048492298
0.017990818 -0.0513799 -0.08966789 -0.002638205 -0.097603865 -0.012751149 0.03144136 0.04849369
0.03395794 -0.048540957 0.18582691 -0.059618175 0.07768818 0.012921065 -0.0373116 0.015037258
-0.07746349 0.048529446 0.059115943 0.0032395707 -0.017431198 0.027357446 0.091334105 -0.10296548
0.008590508 0.05808099 0.079441994 -0.06601977 -0.09620275 -0.061071962 0.042995002 0.082836255
-0.13082556 -0.080782264 -0.011495527 0.08024538 -0.04591173 -0.047621954 -0.08940873 0.10764455
-0.03244323 0.034160566 0.05982865 0.06404689 -0.007397527 -0.0077551836 0.018790336 -0.11636702
-0.11236326 0.045021903 -0.024076035 0.082177304 0.03648599 0.0567838 0.008935304 0.037835747
0.07919349 0.0009809006 -0.007328995 0.038448486 0.094133385 -0.10667177 -0.061314374 0.16481513
0.054087505 0.045701873 -0.040176075 0.032664135 -0.11443143 0.068447836 -0.08473536 -0.033348147
-0.07937998 0.07736589 0.15145278 -0.07223287 -0.03593575 0.09517577 0.06573886 0.12071237
0.12693699 -0.0052808966 0.10838341 0.018352687 -0.07153562 0.052729588 0.1379048 -0.08176824
0.062690966 -0.039161474 -0.04881279 0.03386245 -0.005895077 0.010188447 0.03413639 0.048682313
-0.14086856 0.052652717 -0.0031802196 0.087762184 -0.046130225 -0.07100055 0.033376753 0.023115873
0.0025423202 0.0066348324 0.042303573 0.08161184 0.07304541 -0.08628229 0.044769637 0.030075686

weight_ih_l0 f4 [128, 7]
00000000: 11ba 583d 4d4a f83d 100f 063e e420 073c
00000010: 29fe a1bd 1823 27be 278b 62bc bad4 a4bd
00000020: d7ce efbd 55a5 183d c6eb 59bd 7809 0cbd
00000030: c96b d6bc ef31 6cbd 1ddf 333e b0c3 4e3e
00000040: 234e bf3d f83a 0bbe 7cf5 023d 95b7 ab3d
00000050: cf27 dbbd e584 17bd be23 3d3e 76ad 5d3e
00000060: f59a a1be 5bba dbbd 6479 a1bd 322a cf3d
00000070: 885a 843d b961 16be 3a30 3abe 7f60 313d
00000080: ec43 4abe f24f 363e e3ad 21bd c867 26bd
00000090: 7da3 d03d d1f6 5f3d 8cfd c13b a16e eebd
000000a0: 8d8c 483d a901 ba3b 4a72 21be 5fa7 88bd
000000b0: 683e 723d 992f f9bc 56b0 2d3c bca3 babc
000000c0: 47ad 83bd f480 b33c 4320 96bc 68d7 eb3d
000000d0: 3779 d7bc 1b7f 2ebd 61f3 1dbd 6eca 1bbe
000000e0: c5a9 0bbe 4fec 11be d8df 543d 7790 093e
000000f0: 8423 913d 54db d43d e847 c63c 6ef0 153e
00000100: 1835 eebd 9343 1b3d db12 093e 7066 3ebd
00000110: ebf8 6e3c 6081 cbbe 2c87 26bd da4a 7cbd
00000120: aada 18bd ec24 613d 7d3d 54be 7c10 8dbe
00000130: f1e3 ca3d d2d3 42bc b756 653d e976 093e
00000140: 66e0 143e 4068 6abd 0048 913d a09d c5bc
00000150: 9ac9 00be 21b3 383e b45d 2dbe 1072 1f3d
00000160: 8d09 d5bc aaeb b6be 684e 2abe 736f da3d
00000170: 6bbf 5bbe 9260 ecbd 92b4 413e 9c32 7c3d
00000180: db0b fcbd dbac 0dbe 97dd cbbc 3029 33bd
00000190: a026 d0bb a6a9 5abc 9858 b4bb 8a3e e83d
000001a0: 49af ebba 1817 7bbe eadd dbbd ff33 b5bd
000001b0: 2f09 913c 881d 73bc f104 8abd 7380 d4bd
000001c0: bf07 4d3d ed4c 36bb ba09 2c3e ef7a 443c
000001d0: 22aa febd 4566 d63c 7eb8 a43d e0cc 96bc
000001e0: 9609 553d 32d1 953d be88 82bd 8bfb 00be
000001f0: ccb5 8ebd 57c0 323e e5ee 59be 6fcd 03bd
00000200: 2ffb c3be a482 12be 3197 e6bd 2daa abbb
00000210: d47b 2d3e 1618 92bd a391 ab3d 7be4 1c3e
00000220: ed5b b73d cc94 f5bd b05b 32bb 52d4 89bd
00000230: 85ce dc3d f3d9 dabd 55e5 6fbd 99a7 6a3b
00000240: 5794 633d d6a0 4dbe aa67 f2bd 7053 e3bd
00000250: ed7f dfbc e250 623e a5ee 85bc 0b36 893d
00000260: 97e9 273e 4b2c 58bc a74b 5abe 0c29 f43d
00000270: 7adc bfbd 1c05 353d f447 413e d2dc a6bd
00000280: be6b 1c3d 54e3 13bd 84a5 f43c 0005 0bbd
00000290: 6f51 343e 4b71 9b3c a149 d0bd 61a6 373e
000002a0: 2e79 1fba d877 d93d 9651 12be 4750 963e
000002b0: 8afb 743d c281 093d 0081 ff3d 41c6 24bd
000002c0: 69e6 083c c1a6 98bc 4f9e a6bc b6d6 383e
000002d0: 5b09 083e 5e40 2ebd 3b3d de3c 9b79 f13d
000002e0: 6ee6 b53c da1e 08bd f364 ea3c f0da 1d3e
000002f0: 359f ab3c 54e0 81bd 391a d0bc b467 dd3c
00000300: 8f3b 0abe 25a3 8ebd 4872 2f3d 910f 38bd
00000310: 616d 0b3e e0cb b03c 7418 3abe 6aa7 20be
00000320: 991b 603b 7a65 2e3d 7664 e0bd 44f5 143a
00000330: f51e 25be 8731 bebd 7c60 74bc a74c 18bb
00000340: 65c1 043d 8a65 cdbd fe3e 0ebe e6e9 1cbd
00000350: 9785 f4bd fd73 283e f954 743c 9b3a d0bd
00000360: 15a7 62bd 0365 2c3e 9635 d8bd f64a 3d3d
00000370: 6d2d 35be 38cb 603e 26e9 aa38 0661 30be
00000380: eb62 183e 693b 68bd 9eb9 efbd 9579 61bc
00000390: 1bab 643d 93e8 f53d 27b2 9bbe b84a b43d
000003a0: 2cde c2bd 16ee 3b3e 25e1 b03d e3eb eb3d
000003b0: 61f3 843d dc80 5bbe 892e c23d 64c4 1dbe
000003c0: 35d8 803e 6b73 d73d fef1 0d3d 9373 dd3d
000003d0: f2a8 82bd 1484 e0ba 18ce 54bd ffd2 633c
000003e0: 616b 03be 52da 5c3e 58bc d1bd 47f3 443c
000003f0: 0d46 623e 5bab 04be f6c2 bbbd 64ee adbd
0.05291182 0.12123547 0.13091683 0.008247588 -0.07909805 -0.16321981 -0.013827122 -0.08048387
-0.117093734 0.037267048 -0.053203367 -0.034188718 -0.026174443 -0.057664808 0.1756558 0.20191836
0.09341075 -0.13596714 0.031972393 0.08384625 -0.10700952 -0.036991972 0.18470666 0.21648201
-0.31563535 -0.10728904 -0.078844815 0.1011547 0.0646258 -0.14685716 -0.1818246 0.043304916
-0.19752473 0.17803934 -0.039472472 -0.040626317 0.10187433 0.05467874 0.0059201177 -0.116421945
0.048962165 0.0056764674 -0.15766254 -0.066725485 0.059141546 -0.030418204 0.010601124 -0.022783153
-0.064295344 0.021912076 -0.01832593 0.11515695 -0.026302917 -0.042601686 -0.038562182 -0.1521394
-0.1363898 -0.14250301 0.051971287 0.13434015 0.07086852 0.10393396 0.02420421 0.14642498
-0.116312206 0.03790624 0.13386099 -0.04648441 0.014585714 -0.39747143 -0.040656254 -0.06159482
-0.03731791 0.054966852 -0.20726581 -0.2755164 0.099067576 -0.011891322 0.0559909 0.13424267
0.14538726 -0.057228327 0.07093811 -0.024123013 -0.12576905 0.18037082 -0.16930276 0.038927138
-0.02600553 -0.35726672 -0.16631472 0.106657885 -0.21459739 -0.11541857 0.18916538 0.061571702
-0.12306949 -0.1383547 -0.024885936 -0.04374045 -0.0063522607 -0.013346111 -0.0055037253 0.113400534
-0.0017981316 -0.24520528 -0.10735686 -0.08847808 0.017704574 -0.014838584 -0.06739224 -0.10376062
0.050056215 -0.0027816847 0.16800585 0.0119922 -0.12434794 0.026171813 0.080430016 -0.018408239
0.052011095 0.073152915 -0.06373738 -0.12595956 -0.06968269 0.17456184 -0.21282537 -0.03217834
-0.38277575 -0.14307648 -0.11259306 -0.0052387924 0.16941768 -0.071335 0.083773874 0.15321533
0.0895308 -0.119912714 -0.0027215295 -0.0672995 0.10781578 -0.10686102 -0.058568317 0.0035805462
0.05556139 -0.20080885 -0.118361786 -0.11099899 -0.02728268 0.22101167 -0.016349146 0.06699761
0.16397701 -0.013194154 -0.21317922 0.119218916 -0.093682244 0.044194326 0.18875104 -0.08147587
0.03818869 -0.03610547 0.02986408 -0.033940315 0.1760919 0.01897492 -0.101702936 0.17934562
-0.0006083426 0.106185615 -0.14288935 0.29358122 0.0598102 0.033571012 0.12475777 -0.040228132
0.008355715 -0.018634202 -0.02033916 0.18050656 0.13284819 -0.042541854 0.027128806 0.117907725
0.022204604 -0.033232547 0.02861259 0.1541555 0.02094994 -0.06341615 -0.025403129 0.027026989
-0.13499282 -0.06964711 0.042833596 -0.04493672 0.13615943 0.02158159 -0.1817339 -0.15688863
0.0034196137 0.042577244 -0.109566614 0.00056822994 -0.1612509 -0.0928679 -0.014915582 -0.0023239048
0.032410998 -0.10029133 -0.13891217 -0.038309 -0.11939543 0.16450496 0.014912837 -0.10167428
-0.055335123 0.16835408 -0.10557096 0.046214066 -0.1769311 0.21952522 8.149659e-05 -0.17224512
0.14881484 -0.056697283 -0.117053255 -0.013761898 0.05582724 0.12007251 -0.30409357 0.08803314
-0.09515032 0.18352541 0.08636693 0.11519601 0.06491733 -0.21435875 0.09481532 -0.15406948
0.25164953 0.10520061 0.03465461 0.1081306 -0.0637988 -0.0017129206 -0.05195436 0.013905286
-0.1283393 0.21567658 -0.10241002 0.012020892 0.22097035 -0.12955992 -0.09168045 -0.08492735
