code/b_rnn_results/net/K_4_b_rnn_ - 副本.pt (torch, 828175 bytes, 36 tensors)

weight_ih_l0 f4 [128, 7]
00000000: fa79 7ebe 98cb d0bd db08 343b 4eaf 01be
00000010: b244 273e e07e 06be 4c93 09be 9eab 4abd
00000020: 3aec ea3e c2b3 8b3b e218 dd3d b9eb 18bd
00000030: 2699 03bc 9f51 85bd dafc 90be 7573 f8bc
00000040: 8a9c c9bd 3430 2dbd de3f 85bb df45 76bd
00000050: ddb2 af3d 63cd 26be f17d d3be ec98 433e
00000060: cece be3c 30f6 6e3d 501b 94bc 295f 17bd
00000070: 618d c43d d51b 613d 9d84 b33d b611 44bd
00000080: 13df 33bd d613 d8bc e2d8 5bbd 3634 173e
00000090: 59a5 473e de18 303e a2d4 d9bd 319b a63d
000000a0: 6716 033e aa91 dfbd c621 06be 760a 11be
000000b0: 65a0 0a3e 6a2a 773e 56d8 c63d b7a9 a5bd
000000c0: 80d8 153e 2f63 c1bd 434c 79bd 37c7 453e
000000d0: aaea 0c3e de13 f03c 3f3c 13bd a9b7 fdba
000000e0: 05bf bf3d d48c be3d 2149 88be 1d98 6abe
000000f0: 7b65 ba3e 0c85 063d d624 183e 3f3e aabd
00000100: 4c53 a53e c5b2 d6be c7d4 05be 0a80 84bd
00000110: 6cdf 983e 85b0 a5bd d0af 153d 2d42 b2be
00000120: c661 0b3e 26cc 3dbd fd78 7abd 01a0 aabd
00000130: aa96 2b3d eb5f 873d 1f8f b03b 6190 85bc
00000140: b5e8 bb3d 6568 30bd cdf4 833d 56a2 6abe
00000150: 4857 463d 07a0 243e d43e d2bc fa5b 563e
00000160: 3e22 b0bd e4c2 dd3c e152 a2bd 57e5 a8bd
00000170: 9f8e 893d 2ab2 463e 7364 36be b30b e63d
00000180: 5e47 893d 9c94 72bd 1d84 5a3e 530c 7e3e
00000190: 2721 82be 0b40 7fbe 5964 453d 741a e43c
000001a0: ca05 083e c90d 023e 2a1e 673d 74ca 13be
000001b0: 2980 7c3c d820 a0bd 57fc 8fbd 860e 26be
000001c0: 4137 a73d f8eb 40be 80bb 33be 24c7 debd
000001d0: 85fc 213e 4084 0f3d a4cd e8bb f6b7 f6bd
000001e0: b9da b53e cf4d 22bd c1d7 7b3e e74a 093e
000001f0: 9c67 21be 1b87 823d dffb ddbd 07c3 18be
00000200: eafd 16be 90e6 1bbe fc36 ae3c 2387 18be
00000210: c415 4bbe ea72 2a3e ab41 26bd ca8f 2b3d
00000220: 8e6d 9abc 0605 d5bc 41dc c7bd 8dd7 06be
00000230: a879 20be 9e8b a13e 58a7 e7bd 7706 463d
00000240: 5d42 5dbd 5a26 f83b d884 54be 7064 113e
00000250: aaeb 1cbe d958 733e 07c3 cf3c 55d3 8b3d
00000260: 884c d2bc c9d9 0ebe 2fb7 963e aa1a 4ebe
00000270: 4213 6abd 0233 80bc 29ce 173c 6385 45be
00000280: 468f ab3d 6a08 f73d 9752 94bc 25f8 863d
00000290: 40fa c9bd f486 74b9 1fd2 f7be b698 133d
000002a0: f4a2 853d 5819 9e3d 9d18 a4be 4639 e9bd
000002b0: 29f1 ff3c 56c6 08bc 738f 0bbe f005 8dbd
000002c0: 58c5 e53d 641e a43c 5929 8e3e 23ad 833d
000002d0: 1289 d73d 3ef6 5b3d 37fa 853c 6519 4fbc
000002e0: 1cca 3b3e f3ae cbbd d01b 8e3d a56b ec3c
000002f0: b2b9 bd3d 595f f33d 9ea3 ea3c bda2 05bf
00000300: 6ba5 67bd 7a46 8fbc 8354 6ebd 50fb 1cbe
00000310: 369e 083c 74df d6bd 1273 f23a f364 56bd
00000320: e7db 16be 2913 0c3e 05f1 16be 2806 97bc
00000330: 4923 063e f561 1b3e 47c1 c23d 344f 10bc
00000340: 5c25 b6bd 6252 4c3e 1b31 2dbe 5382 8c3d
00000350: b0e2 20be e74f 813c 3926 773e 7403 cd3d
00000360: 827b 2a3e 8f26 4bbb 6364 72be 8171 e6bd
00000370: 531a 2f3e 6f61 98bd 029c 94be 72dc 443e
00000380: eed8 89bd 6c11 1dbe d764 02bd b6f5 f53d
00000390: fdff ed3c e6b2 02be 951f 81be 00c1 a8bb
000003a0: 8546 afbe e2de 5b3e 7c1d b63c 1559 86be
000003b0: 6d0c bb3d 77a3 a63c f4d9 943e 4b99 b23e
000003c0: ab63 83be ec80 b4bd 6b69 a53d 0143 1dbd
000003d0: dc04 3e3c 4e69 923d dabb 84be d283 7b3e
000003e0: 0618 a9bd 7760 51be 26fc acbd 1156 cfbd
000003f0: 136e 69be 83f1 75bd 7861 4a3e a894 863e
-0.24851218 -0.101950824 0.0027471099 -0.1266453 0.16334799 -0.13134336 -0.13435096 -0.049480073
0.45883352 0.004263372 0.10795762 -0.037334178 -0.008032119 -0.065097086 -0.2831791 -0.030328492
-0.098443106 -0.0422823 -0.0040664515 -0.060125228 0.08579037 -0.16289286 -0.41307023 0.19101304
0.023291972 0.05834025 -0.01807943 -0.036955986 0.095972784 0.054958183 0.08765528 -0.047868453
-0.043913912 -0.026376646 -0.053673632 0.1476601 0.19496669 0.17196986 -0.106362596 0.08135069
0.12801515 -0.10916455 -0.13098821 -0.14164147 0.13537748 0.24137273 0.097092316 -0.08089011
0.1463337 -0.09442746 -0.060863744 0.19314276 0.13761392 0.029306348 -0.035946127 -0.0019357103
0.09362606 0.093042046 -0.26618293 -0.22909589 0.36405548 0.032841727 0.14857802 -0.08312654
0.32290113 -0.41933265 -0.1306945 -0.06469734 0.29857957 -0.08090309 0.03654462 -0.34816113
0.13611516 -0.04633727 -0.06115054 -0.083312996 0.04189173 0.06610092 0.005388155 -0.016304197
0.09175245 -0.04306831 0.064431764 -0.22913489 0.04842308 0.1607667 -0.025664724 0.20933524
-0.08600281 0.02707047 -0.07925964 -0.08246868 0.06716656 0.19403902 -0.17811756 0.112327
0.06703065 -0.059223756 0.2133946 0.24809389 -0.25415918 -0.24926774 0.048191402 0.027844645
0.13283458 0.12700571 0.05642525 -0.14432698 0.015411415 -0.078187644 -0.07030552 -0.16216478
0.08164836 -0.18840015 -0.17551994 -0.10877827 0.15818985 0.035038233 -0.0071045924 -0.120468065
0.35518435 -0.039624985 0.24594022 0.13407479 -0.1576218 0.063734256 -0.10839056 -0.14918147
-0.14745298 -0.15224671 0.021266453 -0.148953 -0.19832522 0.16645399 -0.04058997 0.041885175
-0.018851068 -0.026003372 -0.09758807 -0.13168164 -0.15671408 0.31551832 -0.11311215 0.04834601
-0.054018367 0.0075729312 -0.20753801 0.1419847 -0.15324274 0.23764361 0.025361551 0.06827418
-0.025671259 -0.13950266 0.29436633 -0.20127359 -0.057147272 -0.015649322 0.009265461 -0.19289164
0.083769366 0.12062152 -0.018105788 0.065902986 -0.098621845 -0.00023319927 -0.48402497 0.03603431
0.065252215 0.07719678 -0.32050028 -0.11387877 0.031242924 -0.008348068 -0.1362894 -0.06885898
0.11219281 0.020034023 0.2776592 0.064295076 0.10524191 0.05370163 0.016354663 -0.012640332
0.18338817 -0.09945478 0.069388986 0.028859923 0.09263934 0.118834205 0.028642472 -0.52201444
-0.05655424 -0.01748966 -0.058186065 -0.15330243 0.008338502 -0.10491839 0.0018497428 -0.052342366
-0.14732324 0.13679184 -0.14740379 -0.018435553 0.13099398 0.15174086 0.09509521 -0.008807946
-0.088938445 0.19953302 -0.16913263 0.06860795 -0.15711474 0.01578517 0.24135675 0.10010424
0.16648677 -0.0030998325 -0.23671107 -0.11252118 0.17099886 -0.07440459 -0.29025275 0.19224718
-0.06730829 -0.15338677 -0.03183445 0.12009756 0.029052729 -0.12763557 -0.25219408 -0.0051499605
-0.3423349 0.21471742 0.022230856 -0.2623984 0.091332294 0.020341618 0.29072535 0.34882578
-0.25661978 -0.088136524 0.080767475 -0.038393978 0.011597838 0.071489915 -0.2592457 0.24562004
-0.08256535 -0.20446955 -0.08446531 -0.10123838 -0.22795896 -0.060044777 0.19763744 0.2628529

weight_hh_l0 f4 [128, 128]
00000000: 8885 79bd c024 50be e295 c53a 84b4 d1bd
00000010: d06d fd3d 99c7 09be f15d 8ebe 8c17 30bc
00000020: bf91 293c 8103 f2bd 3780 d63d 8508 353b
00000030: af28 25bb 3b6a 6cbc 6f2d 06bb d3c5 08be
00000040: 2091 2a3e 6a31 8ebd 32f1 03bd fa9a 51bc
00000050: 1b03 c9bd 3962 f63c f155 3dbd fcc0 66bd
00000060: 3bfb bdbc 4e7b fabc a51b a1bc 38c7 4abe
00000070: 8827 aa3d 6867 1fbb a304 0c3e 8759 ba3b
00000080: 3758 03bd 17d1 383d e90b 03be f0e1 ab3d
00000090: 6377 13bd 5398 6ebd 252a a0bd f659 a5bb
000000a0: cead 77bd e113 b4bd fb34 793e e05a eb3d
000000b0: 18bd ba3d f856 adbc f4d5 2dbe 4737 3e3d
000000c0: f039 383e 0d32 bfbd 8821 82bd bad1 6cbd
000000d0: ad03 e0bd 6588 143e b8c8 a93c f742 833c
000000e0: 5b41 1ebe b468 3dbd e4ce bcbc 2c82 babc
000000f0: b660 89bd eeea e73c 8688 0cbe a655 d2bd
00000100: b1b6 ad3c a11b 1dbd 54ff 15bd 32dd c7bd
00000110: 35e1 89be b9c8 4fbe 218b 123e 4592 f7bc
00000120: e9d5 043d 69a1 033e 324a 5bbd 18a1 b23b
00000130: 2118 02bc 42c9 a5bd c756 00bd 66d9 6c3d
00000140: bc59 d33d a6b7 cd3c c6ad 2f3c b7fc 023e
00000150: 9654 0bbe 2df5 14be 5a67 34bd d04d 0d3c
00000160: db30 8c3c cf64 463d 5881 15bd 31dd adb9
00000170: 0104 9abc af7e f0bc d62e 6bbc b99f 86bb
00000180: fdc5 bb3d e398 0f3c ddb1 873e ff45 d23d
00000190: 83fd 8abd 0318 473e 8b24 86bd 6e7c a13d
000001a0: 713a 313d 585d 0e3d 13e3 afbd dda8 2cbe
000001b0: 2cde d73d f922 a73c 1770 6fbd 3889 1bbe
000001c0: 5d9f ecbd 666d 07be eb5d 46bd 14c2 9a3e
000001d0: 1ae0 36bd 4257 05be b2b8 d33d d47d d4bc
000001e0: b3ec 46be b8f1 18be bf31 293e 168d 41bd
000001f0: 7eb9 2d3e 3f0a 853d 4679 c1ba acbe 453d
00000200: df58 603e 160c eebd 8f2a 4dbe 7fda 453e
00000210: 1119 46be aae8 17bd 942a b6bd 35c3 78bd
00000220: 03ed eb3d f5e0 b3be 8691 bf3d ae5a b9bd
00000230: e7ce 7bbc eda5 83be 58d5 07bc f64c 44be
00000240: 2a89 94bc 2fb1 febd c82d 5d3a 8157 3abd
00000250: 0300 373d a39a 9fbd f9b3 3b3c cc9a ffbd
00000260: e9fa 963e 3e31 9ebc c126 863d 6353 1b3e
00000270: 8cbe 443e ff02 f23c fcad 7ebe 690d 9dbd
00000280: 3046 0eb8 46f1 1bbd 3f1f 003e 13f6 80be
00000290: 3714 a13d a36c db3d 0fe0 cd3c 0d53 d03c
000002a0: b4ed 14bd 4c55 90bd 69b2 473d 7ac0 683d
000002b0: 6644 df3d 5a41 c63d ea85 09bd 89f3 97bd
000002c0: b86f 6fbd 5b20 0d3e b98a 6a3d ab25 9fbe
000002d0: aac4 6f3c 8eb4 423a 3ccf 68be 87c3 fcbd
000002e0: 9add 80be c3b0 56bd 440f 133e 6677 a73d
000002f0: 3c51 c1bd 8b52 5bbd dc1d f13d 94e2 56bd
00000300: 9490 0b3e 1552 afbd 0ca7 29bc 3298 e8bd
00000310: 2c11 a2bd 21f4 bfbd d5c2 f8bd 9336 39be
00000320: 57d9 b6bd 4f8b ef3d 87c1 bb3d 7fb3 d1bc
00000330: 9e0d acbd 0e7d e83c 8cb2 f73d 05c6 4dbd
00000340: 5fb8 0a3d 3713 373e 0861 89bb ee67 e0bc
00000350: 5502 5f3e 8160 243e 3505 4abe 89ac 3bbe
00000360: 09cf c53c 10d6 913c 5326 a4bd e26c 373d
00000370: e997 a83d 6193 16be 1c5e 6a3b 1205 cfba
00000380: b5b3 2a3c 7374 8abe 1c3a fe3d 6d11 cc3d
00000390: 1ce9 4ebd 6c4b 14be f2d7 653d ddbc ffbd
000003a0: 9baf bbbd d168 283d 60cb 0f3c 2425 f4bd
000003b0: 7c4e 25bd 102a 693e 4819 5d3e 431d e0bc
000003c0: 88f1 a13c 34f4 76bd 53a9 d3bd 665f 933e
000003d0: dc01 76bc 9b62 bf3c fcbd b03d 840f 9b3c
000003e0: e212 fbbd 0fda d63c 7740 76bc 2a1e 443d
000003f0: 3e55 433d 93a0 63be 97d5 3cbd dda9 94bd
-0.06091836 -0.20326519 0.0015074576 -0.10239509 0.12374461 -0.13455047 -0.27806047 -0.0107478015
0.01034969 -0.118170746 0.10473674 0.0027623486 -0.0025201251 -0.014429624 -0.0020473858 -0.13356714
0.16656923 -0.06943019 -0.032212444 -0.012793297 -0.098150454 0.030076133 -0.04622454 -0.056336388
-0.023191085 -0.030576374 -0.019666502 -0.19802558 0.08308321 -0.002432311 0.13673644 0.005686942
-0.03206655 0.04512128 -0.12797512 0.083927035 -0.036002528 -0.058250736 -0.078205384 -0.0050461246
-0.060468487 -0.08792854 0.24336617 0.114919424 0.09118098 -0.021159634 -0.16976148 0.046439435
0.17990851 -0.09335718 -0.06354052 -0.0578172 -0.10938201 0.14505155 0.020725593 0.016023142
-0.15454619 -0.04624243 -0.023047872 -0.022767149 -0.06707899 0.028310265 -0.13723955 -0.102702424
0.021205278 -0.038356427 -0.036620453 -0.097589865 -0.26929632 -0.20291413 0.14310886 -0.030221114
0.032430563 0.12854542 -0.053537555 0.005451333 -0.007940323 -0.080950275 -0.031332757 0.057824515
0.1031985 0.025111984 0.010722583 0.12791716 -0.13606486 -0.14546652 -0.044043876 0.008624509
0.01711314 0.048435982 -0.036500305 -0.00033161932 -0.018800737 -0.029357282 -0.014354428 -0.004108396
0.09168623 0.008764478 0.26502886 0.10267257 -0.06786635 0.19442753 -0.06549939 0.07885061
0.043268625 0.03475699 -0.08588233 -0.16861291 0.10540423 0.020402418 -0.058456507 -0.15189064
-0.11553834 -0.13225326 -0.04842941 0.30226195 -0.044647314 -0.13021567 0.10337962 -0.025938906
-0.19426231 -0.14935958 0.16522883 -0.04725369 0.16965291 0.06496095 -0.0014760874 0.048277542
0.21908902 -0.11623399 -0.20035766 0.19321631 -0.193455 -0.03708712 -0.0889484 -0.06073304
0.11519816 -0.35132566 0.09353928 -0.09050499 -0.015369154 -0.2571253 -0.008290611 -0.19169983
-0.018131811 -0.12436139 0.0008437303 -0.045493606 0.044677746 -0.077931665 0.011456483 -0.12480697
0.29488304 -0.01931059 0.065503605 0.15168528 0.19213313 0.029542444 -0.24871057 -0.076685734
-3.3920805e-05 -0.038071893 0.1251192 -0.2518774 0.07865184 0.1071408 0.025131254 0.025430227
-0.036359504 -0.07047519 0.04875413 0.056824185 0.10901718 0.096804336 -0.033574976 -0.074194975
-0.058456153 0.13781874 0.057261202 -0.31083426 0.014634291 0.00074274174 -0.22735304 -0.123419814
-0.2516907 -0.052414667 0.14361292 0.0817707 -0.09439322 -0.053545516 0.11773273 -0.052462175
0.13629371 -0.08560578 -0.0103547685 -0.11357154 -0.079134315 -0.09372736 -0.12146536 -0.18087225
-0.08928173 0.11696493 0.09167772 -0.025598286 -0.08401035 0.028379943 0.12094602 -0.050237674
0.033867236 0.17878424 -0.004192475 -0.027393308 0.21778233 0.16052438 -0.19728549 -0.18327536
0.024146574 0.017802268 -0.08015122 0.044781573 0.082320996 -0.14704658 0.003576166 -0.0015794358
0.010418822 -0.2704197 0.12413427 0.09964261 -0.05051528 -0.14481896 0.056114145 -0.12487195
-0.091643535 0.041115586 0.008776516 -0.119211465 -0.04035805 0.22769952 0.21591675 -0.027357703
0.019768491 -0.060291484 -0.103350304 0.2878372 -0.015015092 0.023362448 0.08629987 0.018928297
-0.12259461 0.026227025 -0.015030018 0.04788033 0.047688715 -0.22229223 -0.046102133 -0.07258961

bias_ih_l0 f4 [128]
00000000: 364c aabd 885f 863e 067d b83d b598 72bd
00000010: 9c22 babd 69b8 3c3e 3c53 333e 5b68 e53d
00000020: 50ef 7fbd e62e 303c a1af 22be c2ad 4d3e
00000030: 41d2 983d b2bb 143e 10eb fc39 4a3f 00be
00000040: 4c10 57be fff8 1b3e b06f 41be bd47 f43d
00000050: ed94 3d3e 9d44 6ebd 8e66 3ebe 0570 2e3e
00000060: 9264 be3d 4bf4 563e 0564 363e 635f 0cbe
00000070: 26f2 17be d492 143e 32fd 8c3d 125c cdbd
00000080: bc9e 3dbd afe8 b2bd 599f fa3d b436 1dbe
00000090: bdb3 c33d ed1a 573e bc84 44be 42a6 56be
000000a0: 3a6c 153e fc7b 143e 576e 38bd 1fc0 4e3d
000000b0: 0ad4 243e 9d0a b5bd 6f30 51bc 353e 983d
000000c0: 8c09 26be 3d9a 01be ce93 693b 5cf6 7ebd
000000d0: 04a1 1e3e cb2c c83d 433c 36be bac3 2abe
000000e0: c540 963d 6bf1 143e e029 9e3c 44e9 dd3d
000000f0: 9373 0fbc 2dec 18be b640 d6bd 6052 82bd
00000100: 1d91 b03c 8d10 d8bd d709 3f3e a4d1 803e
00000110: 6382 153e 5ccb 57bd 6d32 0a3c 7f24 293e
00000120: 9fb5 1ebe 0df9 c23d ecef 09bd adf2 45be
00000130: c977 203e 81ba bd3d 96a2 febc 8fee c1bd
00000140: 67a4 c9bc 4524 b53d 7542 fd3d 31cf f4bd
00000150: f750 eb3d b0a6 4f3e 616a 9e3d d4d9 2ebd
00000160: 9f77 03be 71fa 3ebe c6a4 3fbe 166c f93d
00000170: ccc6 d6bc 2c46 0e3e 45f4 bf3d d3d9 0b3d
00000180: ff52 afbd 6d56 cc3d e5b7 3abe fc35 2f3c
00000190: d115 543e 04b2 843d 7a4d d3bd a145 a03d
000001a0: aa5d 793c 0753 66be 460d f0bc 1ac9 453d
000001b0: 08d0 07be 8dc7 0bbe 17b9 e3bd bb60 023d
000001c0: 4028 0e3e 93ef 603e 9a70 883b 11e4 54be
000001d0: 7cf9 f3bd f45f 00be e52e 9fbd 79cb eb3c
000001e0: d460 20be 21bf 383e 2c4e 0fbe b81e c93d
000001f0: 297b 033d 814c 313e 7996 2a3d 280e 803d
-0.08315317 0.2624476 0.09008221 -0.059227664 -0.090886325 0.18429722 0.1751222 0.11201545
-0.062484086 0.010753369 -0.1588731 0.20085815 0.07461978 0.14524725 0.0004824032 -0.12524143
-0.2100231 0.15231703 -0.18890262 0.119277455 0.18513842 -0.058170903 -0.18593809 0.1703492
0.09296526 0.20991628 0.17811592 -0.13708262 -0.14838466 0.14509135 0.06884231 -0.10027327
-0.04629396 -0.08735787 0.122374244 -0.15352899 0.09555767 0.21006365 -0.19191259 -0.2096186
0.14592066 0.14500421 -0.045027103 0.05047619 0.16096511 -0.08839915 -0.012767895 0.0743374
-0.1621458 -0.12656493 0.0035641077 -0.062246665 0.1549111 0.097741686 -0.17796426 -0.16676226
0.073365726 0.14545219 0.019307077 0.108355075 -0.008755582 -0.14933844 -0.104615614 -0.06363368
0.02155357 -0.10550032 0.18656097 0.25159943 0.1460052 -0.052684173 0.008434874 0.16517828
-0.1549897 0.09520159 -0.033676073 -0.19330855 0.15670694 0.092640884 -0.031083386 -0.094693296
-0.024614526 0.088448085 0.12366191 -0.11953581 0.11490052 0.2027843 0.07735134 -0.042688206
-0.128386 -0.18650223 -0.187152 0.12178819 -0.02621784 0.13893956 0.093727626 0.03414328
-0.08560752 0.09977422 -0.18234213 0.010694023 0.20711447 0.06479266 -0.10317512 0.07825781
0.015220085 -0.2249261 -0.029303204 0.04828749 -0.13262951 -0.13650341 -0.111192875 0.03183053
0.13882542 0.2196639 0.004163814 -0.20790125 -0.1191282 -0.12536603 -0.07772616 0.028783547
-0.15661937 0.1804166 -0.13994664 0.09820312 0.032099877 0.1731434 0.04164741 0.062527

bias_hh_l0 f4 [128]
00000000: 334c aabd 885f 863e 0b7d b83d b698 72bd
00000010: 9922 babd 68b8 3c3e 3c53 333e 5968 e53d
00000020: 52ef 7fbd 032f 303c a1af 22be c6ad 4d3e
00000030: 44d2 983d b2bb 143e a2e9 fc39 4b3f 00be
00000040: 4a10 57be fef8 1b3e b06f 41be bf47 f43d
00000050: eb94 3d3e 9844 6ebd 8d66 3ebe 0570 2e3e
00000060: 9264 be3d 4df4 563e 0564 363e 635f 0cbe
00000070: 29f2 17be d192 143e 31fd 8c3d 235c cdbd
00000080: c19e 3dbd afe8 b2bd 5d9f fa3d b436 1dbe
00000090: bcb3 c33d ec1a 573e bb84 44be 41a6 56be
000000a0: 386c 153e f87b 143e 4b6e 38bd 1cc0 4e3d
000000b0: 0bd4 243e 9e0a b5bd 7f30 51bc 333e 983d
000000c0: 8d09 26be 419a 01be b293 693b 5bf6 7ebd
000000d0: 04a1 1e3e c82c c83d 443c 36be bac3 2abe
000000e0: c840 963d 6bf1 143e dd29 9e3c 43e9 dd3d
000000f0: 8773 0fbc 32ec 18be b240 d6bd 5e52 82bd
00000100: 2391 b03c 8e10 d8bd d809 3f3e a4d1 803e
00000110: 6382 153e 5dcb 57bd 6332 0a3c 7e24 293e
00000120: 9fb5 1ebe 0ef9 c23d efef 09bd acf2 45be
00000130: ca77 203e 81ba bd3d 90a2 febc 92ee c1bd
00000140: 61a4 c9bc 4b24 b53d 7542 fd3d 33cf f4bd
00000150: f250 eb3d b2a6 4f3e 626a 9e3d dad9 2ebd
00000160: a077 03be 70fa 3ebe c9a4 3fbe 1b6c f93d
00000170: cfc6 d6bc 2d46 0e3e 43f4 bf3d dad9 0b3d
00000180: fc52 afbd 6b56 cc3d e5b7 3abe 0236 2f3c
00000190: d215 543e 02b2 843d 7a4d d3bd a045 a03d
000001a0: b25d 793c 0853 66be 3e0d f0bc 13c9 453d
000001b0: 08d0 07be 90c7 0bbe 1ab9 e3bd b460 023d
000001c0: 4028 0e3e 93ef 603e 8670 883b 10e4 54be
000001d0: 7cf9 f3bd f25f 00be e32e 9fbd 79cb eb3c
000001e0: d160 20be 23bf 383e 2b4e 0fbe be1e c93d
000001f0: 2a7b 033d 824c 313e 7c96 2a3d 280e 803d
-0.08315315 0.2624476 0.09008225 -0.059227668 -0.0908863 0.1842972 0.1751222 0.11201543
-0.062484093 0.010753396 -0.1588731 0.2008582 0.0746198 0.14524725 0.00048239256 -0.12524144
-0.21002308 0.15231702 -0.18890262 0.11927747 0.18513839 -0.058170885 -0.18593808 0.1703492
0.09296526 0.20991631 0.17811592 -0.13708262 -0.1483847 0.14509131 0.0688423 -0.10027339
-0.046293978 -0.08735787 0.122374274 -0.15352899 0.09555766 0.21006364 -0.19191258 -0.20961858
0.14592063 0.14500415 -0.04502706 0.05047618 0.16096513 -0.08839916 -0.01276791 0.074337386
-0.16214581 -0.126565 0.0035641012 -0.06224666 0.1549111 0.09774166 -0.17796427 -0.16676226
0.07336575 0.14545219 0.019307071 0.10835507 -0.008755571 -0.14933851 -0.104615584 -0.063633665
0.021553582 -0.105500326 0.18656099 0.25159943 0.1460052 -0.052684177 0.008434865 0.16517827
-0.1549897 0.0952016 -0.033676084 -0.19330853 0.15670696 0.092640884 -0.031083375 -0.09469332
-0.024614515 0.08844813 0.12366191 -0.119535826 0.114900485 0.20278433 0.07735135 -0.04268823
-0.12838602 -0.18650222 -0.18715204 0.121788226 -0.026217846 0.13893957 0.09372761 0.034143306
-0.0856075 0.099774204 -0.18234213 0.010694029 0.20711449 0.06479265 -0.10317512 0.0782578
0.015220093 -0.22492611 -0.02930319 0.048287462 -0.13262951 -0.13650346 -0.1111929 0.031830505
0.13882542 0.2196639 0.0041638045 -0.20790124 -0.1191282 -0.125366 -0.07772615 0.028783547
-0.15661933 0.18041663 -0.13994662 0.09820317 0.03209988 0.17314342 0.04164742 0.062527

weight_ih_l1 f4 [128, 128]
00000000: 6ef1 ea3c 46c4 47be c337 083d 74e1 0bbd
00000010: f8aa 03bd 8357 01be 2e6a a6bb 5c11 9cbe
00000020: 40ba 073e f173 b53d f09a 533e f685 39bc
00000030: 838f 3abe 9465 ec3c cf65 103d 7307 94bd
00000040: be64 13be e261 6dbc 2636 4d3e fbd2 3e3e
00000050: 005c 9cbd 3223 9bbb 69c6 87bc 29e8 8bbd
00000060: 8d70 0ebc d6c2 1cbe 5c4c 06be f5e8 133e
00000070: fefa de3d 921f cf3c 9220 1dbe 39da eb3d
00000080: 384c 31bc 1a24 6c3c b579 e93d 3c09 b43d
00000090: d27c 81bd faa0 b43d 020a cc3d c9df cfbd
000000a0: cda5 24be 7f88 babd 971c 12bd 428a 4fbd
000000b0: d39b 643d 9c4b 513d 31b3 213e 4bb0 103e
000000c0: 84d0 583d f4ee 9a3d d367 833d cf62 d1bd
000000d0: cae5 36bd 7ab2 cbbc 4ef0 043e 2473 e63c
000000e0: d118 053e b26b bdbc ab6d 5b3d 7899 983d
000000f0: 766a 18be 4932 d7bc 445e 983c 8c54 f63d
00000100: 73ee 993d c5ea 153d e484 0d3c 65a8 683d
00000110: f576 2b3e 0b12 abbc 42e6 28be e7fc 7ebc
00000120: cd31 ecbb d4c3 b4bc 18c6 6cbd 7d74 a4bd
00000130: 9b04 143c 1ed3 5f3c 6d07 173d 8972 1ebe
00000140: 266e 923e a4e2 0dbc 9573 3bbd ae53 1d3d
00000150: 5582 4a3d 1376 b63d db0f b43d 116b b6bd
00000160: f256 0d3e 05d7 c53c 393e 85bd 57f0 a53d
00000170: 2a4c e5bd 0ff6 00be 62a9 febd ba17 15ba
00000180: 2634 47bd 02b6 093d df6f 7b3d 1e00 29be
00000190: 4dec 99bd 7afa 923d 5443 00be 82a7 be3c
000001a0: faa8 733c 96ed 71bd d8df 66bc 2637 f33d
000001b0: 244f b3bd 2a44 44be 63e5 e7bc 9b32 25bc
000001c0: f195 4ebe 8ad9 173d f7b6 69bd bca9 713e
000001d0: 5fac 08bd 78f1 7cbd ed20 5e3e eefb 253c
000001e0: 50ee d3bd ab41 543e 2966 33bd afaf 43bd
000001f0: fe8b 743d f9cf d2bd ef71 c3bc 8e50 debd
00000200: 0dde a1bc f52f 7e3d 0fe1 423e 28e1 c8bd
00000210: bf09 aa3c 1dd9 213e 0995 093e ff82 3a3e
00000220: 1647 cabc 89cb 41bd 4023 b0bd cd6f 0e3d
00000230: 743c dc3d 8934 a63d 9869 01be a87e 143d
00000240: d8ca 48be 41f7 e2bd d9f5 67be d847 0b3c
00000250: 50b9 aebd 2e68 b73c 943d 413c 75fc 023d
00000260: cf14 2bbe 351a 8cbd 31dc aa3d 8a5b 2ebe
00000270: 82e4 79bd 8761 823e b6cf 8e3d cf08 43bb
00000280: 64a9 213d cedf edbd a8c0 41be fca3 2bbd
00000290: bc1e 49bd ae21 ad3b 87d8 2e3d f423 37be
000002a0: a71e 06be 6894 0b3e 9bb4 2b3e d1fa 23be
000002b0: 000b 253d 8a4c 063e ae5a 3cbe 6764 2fbe
000002c0: f5bb e63d e069 20be 6383 6cbd 27ba 2c3c
000002d0: 0049 7f3e 43b7 833d 52f1 363d aa5c 633c
000002e0: fcd7 60be 7653 7e3e 7fe0 d3bd 79b7 59bd
000002f0: 72dd db3d 8de9 4fbd 381f c6bd 3484 69bd
00000300: 7299 b53d 9fc6 05be 7b90 3d3e ea76 9ebd
00000310: c9a9 8dbe 6feb 57be ffa0 3c3e a242 773c
00000320: bb29 b1be 1f94 523d 11d7 893e f5a5 513d
00000330: e2fd 9bbe 0c6b 9c3d cddf 003d 1ac9 093d
00000340: 5021 05be 06b5 0bbd 9748 133e 35a3 9b3d
00000350: 1826 853e a917 bb3d 44a8 cc3c c87c eebd
00000360: 3aa4 053e 02cb 38be a026 e93c bae6 d2bd
00000370: 357e 1e3e 240c cdbc 3488 a43d a2f0 1fbd
00000380: c406 803d 7ba7 513e 8c23 a03c fbb4 423e
00000390: cf85 00be 7fa0 9b3b 6d48 f03d 54c8 b53d
000003a0: 0fe2 123e 9cdc a53c 3f67 453e 1a1b 8cbe
000003b0: edf0 223e a0fc 0ebe 5ca0 eabd 8862 f8bd
000003c0: 1666 f83d 278a bb3d 816c c23c 4104 7cbd
000003d0: 4580 633e 3f6b 2b3d 906e 253d 895a 90bd
000003e0: 18e7 35be aa98 8bbd 804d fe3d b8cc 043e
000003f0: 4531 2d3e 7e63 373d 296f 68be caa2 0fbd
0.028679576 -0.19508466 0.033256304 -0.034150556 -0.03214547 -0.1263104 -0.0050785756 -0.30481994
0.13254642 0.08860005 0.20664573 -0.011323443 -0.18218808 0.02885703 0.035253342 -0.07227983
-0.14393899 -0.014488669 0.20040187 0.1863517 -0.07634735 -0.00473442 -0.016574102 -0.068313904
-0.008693826 -0.15308699 -0.13115066 0.14444335 0.10887717 0.025283609 -0.15344456 0.11516232
-0.010821395 0.014412904 0.11400167 0.08790824 -0.06322636 0.08819766 0.09962846 -0.101501055
-0.16078873 -0.09108066 -0.035671797 -0.050668962 0.055812668 0.051097497 0.15791012 0.1412975
0.05293323 0.07565108 0.06416287 -0.10223924 -0.044652738 -0.024865378 0.12982294 0.028131075
0.12997748 -0.023122642 0.053571384 0.07451147 -0.14884362 -0.026269095 0.018599637 0.12027845
0.07516184 0.036600847 0.008637641 0.05680122 0.16744597 -0.020882627 -0.16494086 -0.015563226
-0.007208085 -0.022066034 -0.057806104 -0.08030031 0.009034301 0.013661174 0.036872316 -0.15473379
0.28599662 -0.008659992 -0.045764524 0.03840988 0.0494407 0.089092396 0.08792087 -0.0890714
0.13802698 0.02415038 -0.06506009 0.08102482 -0.11196168 -0.12593864 -0.12434651 -0.00056874345
-0.048633717 0.03362084 0.061385985 -0.16503951 -0.07515774 0.07176681 -0.12525684 0.023273233
0.01487183 -0.05906447 -0.014091454 0.11875753 -0.08755329 -0.19166628 -0.028307622 -0.010082866
-0.20174386 0.037072696 -0.057059254 0.23599905 -0.03336751 -0.06175372 0.21692248 0.0101308655
-0.10348189 0.20728175 -0.0437986 -0.047774967 0.05970382 -0.10293574 -0.023858039 -0.10855208
-0.019759202 0.062057454 0.19031166 -0.0980857 0.0207566 0.15805478 0.13435759 0.18214034
-0.0246921 -0.047313247 -0.086004734 0.03477459 0.10753718 0.08115489 -0.12637937 0.0362536
-0.19608629 -0.11082316 -0.22652377 0.008501016 -0.08531439 0.022388544 0.0117944665 0.031979043
-0.16707157 -0.06840936 0.083427794 -0.17027107 -0.061008938 0.25465032 0.069732115 -0.002975989
0.039468184 -0.11614953 -0.18921149 -0.041904435 -0.049101576 0.005283556 0.042686965 -0.17884809
-0.1309763 0.13630831 0.16768114 -0.16013648 0.040293694 0.13115135 -0.18393967 -0.17128144
0.11266319 -0.15665388 -0.057742488 0.010542429 0.24930191 0.06431439 0.044663735 0.013877073
-0.21957392 0.24836525 -0.103455536 -0.05315349 0.10735597 -0.05075984 -0.09673923 -0.057010844
0.08867158 -0.13064049 0.18512146 -0.07737525 -0.27668598 -0.21085905 0.1842079 0.01509157
-0.3460215 0.05141079 0.26921895 0.05118366 -0.30467135 0.07637605 0.031463433 0.03363905
-0.13000989 -0.034108184 0.1438316 0.07599489 0.26005626 0.09135372 0.024982579 -0.11644894
0.13050929 -0.18046191 0.0284608 -0.10297914 0.15477832 -0.025030203 0.08033791 -0.039047845
0.062512904 0.20474045 0.0195482 0.19014351 -0.12551044 0.0047493572 0.11732564 0.088761
0.14344047 0.020246796 0.19277667 -0.27364427 0.15912218 -0.13963556 -0.114563674 -0.12128168
0.12128846 0.0915721 0.02373338 -0.061527494 0.222169 0.041850325 0.040388644 -0.07048518
-0.17763937 -0.06816228 0.12417126 0.12968719 0.16913326 0.044772618 -0.22698654 -0.035067357

weight_hh_l1 f4 [128, 128]
00000000: 3ee5 9b3d c2cf 37be 280c bcbd 120b f5bc
00000010: cce0 c53d 792d e63c 29f2 243d f46a 41bb
00000020: 24e7 f3bd af50 fd3c d7b2 b0bc 24e1 df3c
00000030: ff85 16be e4bf 0b3c b48f b73c 9633 d4bc
00000040: 253d 6c3b 61dd 733d c0f3 183e e69b 22be
00000050: 7632 4a3c ac92 89bc 1d53 97bc c24f c43d
00000060: b83e f83d 5d40 313d 67c6 25be 702b c5bb
00000070: 0966 243e 44b2 85bd 02ad 583d 62b9 0abe
00000080: f507 6dbb 9210 9a39 5278 2e3d 2a6b ecbc
00000090: 0960 853c 30a5 efbc 5912 853d 8aa8 433e
000000a0: 9e38 483d 5ef0 133d 7b27 dabc 7b37 82bd
000000b0: d18d b1bd d72c d93d 0fe8 48bd fca6 07be
000000c0: 1e0c 2cbd aea5 23be f7e4 1bbe 3bd1 a8bc
000000d0: 8372 58bc e001 1b3d 9e04 973b 83bc d93d
000000e0: e49d 453c 17a5 0abd 12d6 9a3d 226e f43c
000000f0: 3c0b 093e 44a8 eabd 5bca 95bc dc0e b6bd
00000100: 2c17 723d 74dd 79bd 422b 3abe 88bc 8b3d
00000110: 48e0 503b 3855 083d 0339 963c 295d cbbc
00000120: 78d1 c23c 7acd 433e fd12 64bd 628a 2a3d
00000130: c553 4b3d b07c 9bbd 861d ae3b 3eca ccbd
00000140: fa3e 303d b841 db3b 22dd 873d 70ee bbbd
00000150: 8131 9fbd 10d7 9ebd dbf3 2fbc a099 22be
00000160: 3060 0b3e 3f2f 0e3e d0fe 1bbd f001 cb3d
00000170: 5d1d 85bd e23b 023e ff86 13be d4ff 683d
00000180: f7db 4b3d fc37 9abc 9a3d 7c3d 07d5 3fbc
00000190: 1ba3 8ebd 8fff 6fbd 7c0f c2bc e69d 99bd
000001a0: ee5b 59bd 3a30 88bd 7a8b 51bd c8ed a1bc
000001b0: d02b af3d e56f 40bd 252a 2fbd 1342 473d
000001c0: d61a 88bd d2b4 d13d 57b7 123b f332 4dbd
000001d0: 8f1a 6b3c 5b4c 283d 51bf 9abd 8577 09bb
000001e0: b226 8ebd 3886 dd3d fddb 18bd ed90 f1bc
000001f0: 4686 ffbc d433 273e 42f0 703d 2a43 32be
00000200: 931e 59bd e04a c53d 6424 45bd 3d9a f8bd
00000210: 40d1 653d d33d ca3d faae 393e 7ea8 20bd
00000220: 8397 f6bc 7606 02be 78b7 d4bd deb8 a13d
00000230: 8749 2d3d 12e4 8a3d 1032 42bd a2be 203e
00000240: 6233 ddbd 0546 04bd fff9 643e 0a3b d5bd
00000250: c49f 833e 7b88 123e b83b 903d d466 b83c
00000260: 7680 703d 584f 6ebd 898a b0bd fd16 8bbd
00000270: e87f 2dbd 2a03 1b3d 875d 52be ee2d 75be
00000280: c989 213e 75a4 91bd 292c 70bd b7eb 41bd
00000290: 8b2a b5bd e415 f8bd f4b0 e3bd c24b 09bd
000002a0: 0803 0f3e bdb3 dd3a 184c ac3d 3fc7 383e
000002b0: 613c eebd a5ff 32be 2428 fa3d 5204 c2bc
000002c0: 5cc3 fbbd 25f9 d93d b886 b2bd d610 0bbe
000002d0: fca9 8dbd c34d b4bc 33f0 563d 794a 0d3e
000002e0: ec8f c83d 06ef c0bb 73bc 68be 06ad 8dbd
000002f0: 4211 263e 2b97 4bbd 22a3 0fbe ce66 83bd
00000300: a288 0f3e 7120 34bd c03b efbd e51a 91bd
00000310: 844d 593c 30cd 263e b2b5 d6bd 36f3 2fbc
00000320: 172e 8b3c 2f5b 813e fff8 d6bd 99b3 51be
00000330: 1506 70bc dc51 d8bd b3a8 c93e 665e 323e
00000340: f559 093e 4fca debc 9b0d bc3c 8474 82bc
00000350: 7287 113e a452 023e 50c5 61bc 2acd 323d
00000360: cb0b ad3c c957 fa3b c58b 67bd 3a18 15be
00000370: 6393 88bd b8e7 9fbd a258 163e 7532 d7bc
00000380: 00e7 e43d 2b10 db3d 54da 0bbd 08d6 833c
00000390: 7120 55be 0dfe b2bc 8857 4b3d 4db9 14be
000003a0: b83f 603e 02a1 3a3d c97e 373e 1096 fabd
000003b0: 84fe 78bc d8f2 5dbd 882e 69bb d467 e8bd
000003c0: 2f4a 1e3e da7f 66bd 2627 04bd 05f5 ca3d
000003d0: a1f2 ddbd 7f4e 063e cc57 6b3d fb0a ebbd
000003e0: d272 77bd 0d54 3fbe 3212 623e ceb0 cfbb
000003f0: 9275 b03d 2da3 ee3c 0ae3 643e a802 3dbb
0.07612084 -0.17950347 -0.09182006 -0.029912505 0.09662017 0.028097855 0.040270004 -0.0029513212
-0.11909321 0.030922262 -0.021569652 0.027329035 -0.14699553 0.008529637 0.02240739 -0.025903504
0.0036047187 0.059537295 0.14936733 -0.15879783 0.012341132 -0.016793571 -0.018472249 0.09585525
0.12121338 0.043274272 -0.16188966 -0.006017141 0.16054548 -0.06528142 0.052899368 -0.1354728
-0.0036168073 0.00029385515 0.042595215 -0.028859694 0.016281145 -0.029253572 0.0649764 0.19107261
0.04888212 0.036117904 -0.026630154 -0.06358238 -0.086696275 0.10604256 -0.049049433 -0.13247293
-0.042003743 -0.1598117 -0.15224062 -0.020607581 -0.0132108955 0.037843585 0.0046087047 0.10631659
0.01206157 -0.03384885 0.07560362 0.029837672 0.13383192 -0.11457875 -0.018284967 -0.08889553
0.05910413 -0.06100221 -0.18180564 0.06823069 0.0031871963 0.033284396 0.018337732 -0.024824696
0.023781523 0.19121352 -0.05568217 0.04163588 0.049640436 -0.07592142 0.005313578 -0.09999512
0.04302881 0.006691184 0.066339746 -0.09176338 -0.07773114 -0.07755864 -0.010739292 -0.15878916
0.13610911 0.1388521 -0.038084805 0.09912479 -0.06499741 0.12718156 -0.14406966 0.0568846
0.04977032 -0.018825524 0.061582185 -0.0117085045 -0.06964704 -0.05859333 -0.023689024 -0.0750082
-0.053066187 -0.066498235 -0.051158406 -0.019766703 0.085532784 -0.04698171 -0.0427648 0.048646998
-0.066457435 0.10239567 0.002238711 -0.050097417 0.014349594 0.041088443 -0.07556022 -0.002097578
-0.06940974 0.10816616 -0.037319172 -0.029488051 -0.031191956 0.16328365 0.058822878 -0.17408434
-0.053007673 0.09633422 -0.048130408 -0.121387936 0.05610776 0.09875073 0.18133155 -0.039223187
-0.030101543 -0.12697777 -0.103865564 0.07896589 0.04230645 0.06781782 -0.047411025 0.1569772
-0.10800816 -0.03229334 0.22360991 -0.104116514 0.2570783 0.14309876 0.070426404 0.02250997
0.05871626 -0.058181137 -0.086201735 -0.06791494 -0.04235831 0.037844814 -0.2054349 -0.23943302
0.15775217 -0.07111446 -0.058635864 -0.047343936 -0.08846005 -0.1211355 -0.111177355 -0.033519514
0.13966 0.0016914528 0.08412951 0.18044756 -0.1163261 -0.17480333 0.122146875 -0.0236837
-0.12293121 0.10643224 -0.08717102 -0.13580641 -0.069171876 -0.022009736 0.052475166 0.1379794
0.09793076 -0.005887869 -0.22728138 -0.06917767 0.16217521 -0.049704712 -0.14027074 -0.06416093
0.14016965 -0.04397625 -0.11681318 -0.07085208 0.01326311 0.1628921 -0.104838744 -0.010739138
0.01698975 0.2526488 -0.10496711 -0.20478667 -0.014649888 -0.105624884 0.3938652 0.17418823
0.13413222 -0.027196078 0.022955706 -0.0159247 0.14211825 0.12726837 -0.013779953 0.04365269
0.021123787 0.0076398593 -0.05652978 -0.14560023 -0.06668737 -0.07807869 0.14682248 -0.026269177
0.11176872 0.10696443 -0.03414376 0.016093269 -0.20813157 -0.021849656 0.049644023 -0.14523812
0.21899307 0.045563705 0.17919458 -0.122356534 -0.0151974 -0.054186672 -0.0035580713 -0.11347929
0.15457986 -0.056274273 -0.032263897 0.09910015 -0.108372934 0.13115881 0.057456776 -0.11476704
-0.060412236 -0.18684407 0.22077253 -0.0063382154 0.08616175 0.029130543 0.22352234 -0.0028840695

bias_ih_l1 f4 [128]
00000000: 91f8 13be 039c b83d ceb5 25be 152d 16be
00000010: e39f 943c c33b b13b 11de 803d 8f93 58bd
00000020: 0346 04be a0f7 3bbd 211e 04be 0f29 fd3d
00000030: 51cc 703d c4ce 45bd 7b94 15be edc6 f93d
00000040: 1d93 01be 2b32 86bd 8eb0 cebd b22a d2bd
00000050: c8fd 433d 6026 9c3a 22c2 cb3d fdbb 07be
00000060: f9ce 083d d796 1a3e a435 d73d 3d92 023e
00000070: e857 e8bd 28b9 cd3d 8447 06be d917 3b3c
00000080: 5d0c e5bd 3b68 2d3e 958b c5bd 1eb9 943d
00000090: 6364 303d a9b7 52bd 3662 433d cb33 d83d
000000a0: a6a4 34bd e098 03be 3164 4f3c 3f77 153e
000000b0: 4b9c edbc 987b 7a3c 856e fd3d 2353 cdbd
000000c0: ada3 a73b c099 1cbb c59a d1bd a9ee fd3d
000000d0: 7ec4 083b 8ad6 01be 2145 cc3d 340a 82bd
000000e0: b493 153e 0c0d 16bd 8b97 2cbd be6e 073e
000000f0: cb06 233e 1d88 11be a881 983d 6d05 fdbd
00000100: f737 c83d 6fdc 31bb 2e8a 1bbe 0123 0d3e
00000110: 1cc4 b6bd 3efb 133e 7428 293d 5780 e93d
00000120: 8ef1 043e 751d ddbd 9cbf ccbd ef2c 38be
00000130: 1747 f03d 71dc 34be 0599 d53d a884 a0bc
00000140: db37 ebbd 60c9 8ebd aa12 563d fc75 1f3e
00000150: f657 0ebe 96ae ce3d 0323 453d 54e0 7abd
00000160: 03d6 15be 1e3a 6abc d0cc fd3d 3cba ae3d
00000170: fb6d 1c3e 7a3e 12be 8434 143e 1608 ecbd
00000180: aa6b 20be d6a6 ce3d 2e7f b8bd 7ac0 03be
00000190: 7201 153e e5a0 bf3d 7fd9 1e3e e231 0c3e
000001a0: ecdd 5f3c 55af debd b6fa b23d 6ddc cfbd
000001b0: 8748 d83d e033 0c3e 51a0 34b8 2840 213e
000001c0: 68f0 2dbe 468c 8b3d 9e9b 05be 5d12 a73c
000001d0: 4247 073d 46a4 0cbe fd60 e43d 7f71 4b3d
000001e0: 246c cabd 7ee1 413e 32a2 ab3d d2ba d53d
000001f0: a652 1e3e c019 1f3d fff3 d33d 6a33 08be
-0.1445029 0.09014132 -0.16182634 -0.14665635 0.018142646 0.0054087355 0.06292356 -0.052875098
-0.12917332 -0.04589045 -0.12902118 0.12361347 0.0587886 -0.04829289 -0.14607422 0.12196145
-0.12653776 -0.065525375 -0.10092269 -0.1026205 0.047849447 0.0011913292 0.09949137 -0.13255306
0.03340051 0.15096603 0.10508278 0.12751098 -0.11344892 0.100450814 -0.13113219 0.01141926
-0.11183999 0.16934292 -0.09645764 0.07261871 0.043064486 -0.051444683 0.047701083 0.10556754
-0.044102333 -0.12851286 0.012658165 0.1459627 -0.02900519 0.015288256 0.123745956 -0.10025623
0.005115947 -0.0023895353 -0.10234598 0.123990364 0.0020869072 -0.12679496 0.09974123 -0.06349602
0.14607126 -0.036633536 -0.04213671 0.13225839 0.1592056 -0.1421208 0.07446605 -0.123545505
0.097762994 -0.0027139445 -0.1518943 0.13782884 -0.08924124 0.1445131 0.041298345 0.11401432
0.12982771 -0.10796634 -0.09997484 -0.17985891 0.11732309 -0.17662217 0.10429577 -0.019594505
-0.11485263 -0.06972003 0.052263893 0.15572351 -0.13900742 0.100918934 0.048129093 -0.061249092
-0.1463242 -0.014296083 0.123925805 0.08531615 0.15276329 -0.14281645 0.14473158 -0.1152498
-0.1566607 0.10090415 -0.090086326 -0.12866393 0.14551333 0.0935686 0.15512656 0.13690904
0.01366375 -0.10873286 0.087392256 -0.10149465 0.105607085 0.13691664 -4.306465e-05 0.1574713
-0.16986239 0.068138644 -0.13047644 0.020394498 0.03302694 -0.1373454 0.111513115 0.049668785
-0.098839074 0.18933675 0.08380546 0.10436024 0.15461215 0.038842916 0.10349273 -0.13300863

bias_hh_l1 f4 [128]
00000000: 93f8 13be 029c b83d ceb5 25be 152d 16be
00000010: df9f 943c d93b b13b 11de 803d 8f93 58bd
00000020: 0446 04be 9bf7 3bbd 211e 04be 0e29 fd3d
00000030: 50cc 703d c2ce 45bd 7b94 15be efc6 f93d
00000040: 1b93 01be 2d32 86bd 8fb0 cebd b02a d2bd
00000050: ccfd 433d a025 9c3a 20c2 cb3d fdbb 07be
00000060: f8ce 083d d696 1a3e a135 d73d 3e92 023e
00000070: e857 e8bd 27b9 cd3d 8447 06be ce17 3b3c
00000080: 610c e5bd 3a68 2d3e 958b c5bd 1eb9 943d
00000090: 6164 303d abb7 52bd 3262 433d cc33 d83d
000000a0: a7a4 34bd e098 03be 3564 4f3c 3f77 153e
000000b0: 549c edbc 987b 7a3c 876e fd3d 2353 cdbd
000000c0: aca3 a73b a099 1cbb c89a d1bd aeee fd3d
000000d0: 65c4 083b 8ad6 01be 2145 cc3d 350a 82bd
000000e0: b593 153e 100d 16bd 8897 2cbd be6e 073e
000000f0: cc06 233e 1a88 11be ab81 983d 6d05 fdbd
00000100: f637 c83d 48dc 31bb 2d8a 1bbe 0023 0d3e
00000110: 1cc4 b6bd 3efb 133e 7028 293d 5780 e93d
00000120: 8df1 043e 791d ddbd 9cbf ccbd ef2c 38be
00000130: 1447 f03d 71dc 34be 0699 d53d a784 a0bc
00000140: db37 ebbd 60c9 8ebd a912 563d fc75 1f3e
00000150: f857 0ebe 94ae ce3d 0223 453d 56e0 7abd
00000160: 03d6 15be 163a 6abc d1cc fd3d 3cba ae3d
00000170: fc6d 1c3e 7a3e 12be 8434 143e 1508 ecbd
00000180: aa6b 20be d6a6 ce3d 2e7f b8bd 7bc0 03be
00000190: 7301 153e e8a0 bf3d 7fd9 1e3e e131 0c3e
000001a0: e7dd 5f3c 55af debd b5fa b23d 6adc cfbd
000001b0: 8748 d83d e033 0c3e 07b4 34b8 2b40 213e
000001c0: 67f0 2dbe 458c 8b3d 9f9b 05be 5a12 a73c
000001d0: 4247 073d 4aa4 0cbe fd60 e43d 7d71 4b3d
000001e0: 256c cabd 7de1 413e 33a2 ab3d d2ba d53d
000001f0: a652 1e3e c019 1f3d 00f4 d33d 6a33 08be
-0.14450292 0.09014131 -0.16182634 -0.14665635 0.018142639 0.0054087457 0.06292356 -0.052875098
-0.12917334 -0.04589043 -0.12902118 0.12361346 0.058788598 -0.048292883 -0.14607422 0.12196147
-0.12653773 -0.06552539 -0.1009227 -0.10262048 0.04784946 0.0011913069 0.09949136 -0.13255306
0.033400506 0.15096602 0.10508276 0.127511 -0.11344892 0.10045081 -0.13113219 0.01141925
-0.11184002 0.1693429 -0.09645764 0.07261871 0.04306448 -0.05144469 0.04770107 0.105567545
-0.044102337 -0.12851286 0.012658169 0.1459627 -0.029005207 0.015288256 0.12374597 -0.10025623
0.0051159468 -0.0023895279 -0.102346 0.1239904 0.0020869013 -0.12679496 0.09974123 -0.06349603
0.14607127 -0.03663355 -0.0421367 0.13225839 0.15920562 -0.14212075 0.07446607 -0.123545505
0.09776299 -0.0027139354 -0.15189429 0.13782883 -0.08924124 0.1445131 0.04129833 0.11401432
0.1298277 -0.10796637 -0.09997484 -0.17985891 0.11732307 -0.17662217 0.104295775 -0.019594504
-0.11485263 -0.06972003 0.05226389 0.15572351 -0.13900745 0.10091892 0.04812909 -0.0612491
-0.1463242 -0.014296075 0.12392581 0.08531615 0.1527633 -0.14281645 0.14473158 -0.11524979
-0.1566607 0.10090415 -0.090086326 -0.12866394 0.14551334 0.09356862 0.15512656 0.13690902
0.0136637455 -0.10873286 0.08739225 -0.101494625 0.105607085 0.13691664 -4.3083008e-05 0.15747134
-0.16986237 0.06813864 -0.13047646 0.020394493 0.03302694 -0.13734546 0.111513115 0.049668778
-0.09883908 0.18933673 0.083805464 0.10436024 0.15461215 0.038842916 0.10349274 -0.13300863

weight f4 [1, 128]
00000000: 8522 aebc a5e8 2e3d 057b aabd c735 e0bd
00000010: fda7 79bd 69ff 21bd 0caa 3f3c d4b7 983d
00000020: e0e0 d1bd cda1 89bd e615 bebd 874c f93d
00000030: c996 2b3d d940 e9bd 1787 23be 75bd df3d
00000040: 794f bdbd 8c59 f3bd 54e1 c8bd f83f dfbc
00000050: 2cb8 c93d ce3f 3f3c a468 813d c304 efbd
00000060: 89b9 08be 2e79 033e f642 883d 16bd bd3d
00000070: 6883 85bd 4315 443c 0e03 fcbd d0b1 97bd
00000080: cbbd edbd 94db 003e 651d a1bd 7b50 76bc
00000090: c03f e43c 03b4 32bb 3f6b cd3d e4c9 c83d
000000a0: 692e ce3d ddcf dbbd adb9 d7bd 272e 423d
000000b0: 07cf 68bc 2433 94bd 50ca a73d c3e1 9e3d
000000c0: 989f febd 8ebf 773d d6cb 1abd 4391 063e
000000d0: 1d1a 793d 563b 7cbc e34b e93c 658e 84bd
000000e0: a7cb 0d3e a356 cdbd ec41 b93d 602d 023e
000000f0: 4cec e83d 0db8 eebd 26bb bb3d 24cb dcbd
00000100: afe2 193e fdd7 20be c2aa 78bd d646 bd3d
00000110: eb56 09bd caf6 db3d aae9 a13d 210c e33d
00000120: 644c 033e d695 4dbd 955f 8b3d f0b6 20bd
00000130: 7a2f 9a3d 874d ccbd 4be5 063d eab2 81bd
00000140: d5bc 9dbd b0f1 acbd 1ad1 833d 1755 b13d
00000150: 3c9e 88bd 54cf 223d 8300 21bd 3b5a 00bd
00000160: 730b 06bd aa60 89bd 10e0 033e 9eea 5c3d
00000170: b785 d73d c6c8 b3bd 9b4f 523d d4e5 8dbd
00000180: b82a 6ebd cc6f a3bc 3c78 803d ccde cebd
00000190: fd1d 0a3e 9d65 4ebc a315 c73d 1f3e 99bd
000001a0: 94b7 333d c55a 7cbd fc9e a43d 66a5 85bc
000001b0: b4e9 c33d 11cd c23d 94d3 bdbd d74c c13d
000001c0: 3753 dbbd 2fb2 903d 5314 aebd 8029 7c3a
000001d0: ec83 49bd c7ad babd fa73 2f3d 34a4 c23d
000001e0: 8b1e b3bc 5a7e 843d a709 3d3d 64b5 423c
000001f0: 5edc 063e 29bf 0e3e 9c8e 64bc c8f4 79bd
-0.021256695 0.042702336 -0.08324245 -0.10947757 -0.06095122 -0.03955022 0.011698257 0.074569374
-0.102479696 -0.06720314 -0.092815205 0.121727996 0.041891847 -0.11389322 -0.15969501 0.10924808
-0.09243674 -0.11882314 -0.09808603 -0.027252182 0.09849581 0.011672927 0.06318787 -0.1167083
-0.13352026 0.12839195 0.06653397 0.09264581 -0.065192044 0.01196796 -0.1230527 -0.07406962
-0.11608466 0.12583762 -0.07866935 -0.0150338365 0.02786243 -0.002726794 0.10030221 0.098041326
0.10067446 -0.10733006 -0.10533462 0.047407296 -0.014209515 -0.07236317 0.08192885 0.077579044
-0.12432784 0.060485415 -0.03779205 0.1314135 0.06081592 -0.015395006 0.028478568 -0.06472472
0.13847218 -0.1002629 0.09045777 0.12712622 0.11373195 -0.11656199 0.09166555 -0.107809335
0.15027879 -0.15707393 -0.060709722 0.092420265 -0.033530157 0.10740431 0.07905896 0.11086298
0.1282211 -0.050191723 0.0680534 -0.039236963 0.07528587 -0.09975725 0.032933515 -0.06332953
-0.077020325 -0.08444536 0.06436367 0.08658808 -0.06670806 0.039748505 -0.03930713 -0.03133605
-0.032725763 -0.0670789 0.12878442 0.053934686 0.10523551 -0.08778529 0.05134545 -0.06928602
-0.05814621 -0.01995077 0.06272933 -0.10101089 0.13488002 -0.012597469 0.09720924 -0.07482552
0.043876246 -0.061610002 0.08038136 -0.01631422 0.0956606 0.095117696 -0.09268871 0.09438484
-0.10709231 0.07065236 -0.0849997 0.0009619221 -0.049198076 -0.09115177 0.042835213 0.095039755
-0.02186515 0.06469412 0.046151783 0.011884067 0.13170001 0.1394011 -0.013950016 -0.061024457

weight_ih_l0 f4 [128, 7]
00000000: 8f2c 1fbd e80d 153e fb15 e0bd 1e22 a63d
00000010: a9f4 593e e54a 54be 933c 85bd 5f3f a0bd
00000020: e61f 0b3d 5a2d 913c c326 7e3e cc5a c53c
00000030: 4188 bd3c ab19 773d f4a9 003e 9c34 5abe
00000040: da44 7abd dbf9 7fbd 4f08 e93d 6c41 613c
00000050: b292 3dbe 157d 28be 3528 f1bc cee9 143c
00000060: 78e1 57bd 7a12 983d 2c2d 2a3e a0d7 01be
00000070: 730c 3abd 72f6 8b3d 08ce da3d 2d12 a23d
00000080: 10c5 4e3e 5fd1 88bd e351 b8bd 1352 08be
00000090: 5bac 9bbd 6b89 1f3d f7b6 9dbd 0610 723e
000000a0: ccd1 f53d d237 d13d 4900 093d 96f7 74be
000000b0: e55b 993e 9097 673d 18d4 5fbd 6c15 0f3e
000000c0: 0a16 dabc 8fe3 1a3d 2511 0abe 706c febd
000000d0: 46e8 21bd aae2 3bbd 321f 67be 50ce 0f3e
000000e0: bd9e d63d 102b ca3d 3641 883d 1d8a 353d
000000f0: b3b3 093e b27c 473e 40f9 82bd 4e27 093e
00000100: e82b 723d e401 edbd c55c e7bd 509e c13d
00000110: a429 023d f2f5 ecbd cdc7 5fbe a3ca 8ebd
00000120: 3688 80bd 4085 d53c d634 103d 91c8 1bbd
00000130: f578 a2bd fac4 b23c c507 b13c 0a0f babe
00000140: 1b38 41be 04a7 323d c081 52be 4455 803c
00000150: aebc 24be e2d3 03be fb66 2abd 4d40 54bd
00000160: fd92 15be f9ac 1cbe d9fa d2bd f99d aebd
00000170: 28a7 e03b 5681 ac3d 8bbf 5c3e 0d13 eebd
00000180: 3e9e 38be 9885 653d 2fdd 8ebd a10b 843d
00000190: a496 11bd bda6 3abe 164f 6bbe 666e 54bd
000001a0: d53f 08be 3f15 88bd ee1c 783c 9a65 4f3d
000001b0: adb1 5cbd 50aa 95bd 61c6 d2be 4532 5abd
000001c0: b18a 8a3d 05e8 5cbd dd7c 55be 808e 4ebd
000001d0: 4625 903c eb38 ab3d f29e 293e 3ac5 1c3e
000001e0: 534d 123e 076d f53c d6d9 0f3e 9267 f43b
000001f0: 1065 5bbd f08b e73d e5f6 823c 8245 4d3e
00000200: 8a1c 82bd c938 6bbd 868b bd3c 5e6f bbbd
00000210: 8a9f f73c 55de 763e bf22 3dbe 67b1 3ebd
00000220: a056 973d 9e6d 253d ec64 c1bc 526e 70be
00000230: 414d 4b3e 19f8 27be 07af ad3b 607f 8f3e
00000240: 192d 9abc 69f0 d83d 7a19 063c 3a47 043e
00000250: d408 44bc 6c5c 1c3d 1cfd 093e feb2 4ebe
00000260: 1421 a5bc d472 01be ac1b 7a3c 523c 893c
00000270: 242d af3d f831 8c3d a570 c7bc 42f5 2e3d
00000280: d3f5 283e cbe8 d2bd 7209 233e aa77 3f3d
00000290: 5323 e1bc bc6e f0bd a59e 0a3e fd87 dbbc
000002a0: dca5 1cbe e47f 28bd 6b75 883c 5cb5 56bd
000002b0: 69b6 1ebe 3a34 0abd 430f 70bd 69c0 f33d
000002c0: 4820 38bc 6d4c 843d 82ad a63d 8762 b1bd
000002d0: dd95 dfbd 51e5 76bd 98a5 34bc b085 01bd
000002e0: e263 cc3d d229 5b3e 6628 16be cb6f 423e
000002f0: 47fd abbe 67a8 d5bd 4bbd 0f3e f6ca 87be
00000300: c6d6 d7bd 3f8a 34bd 6058 11be 0f8d 30be
00000310: 9a5a 343e 2940 c3bd 5d33 9b3d 5994 83bd
00000320: 4dbf 123d 7bea e43b 466a 1cbc a734 f2bc
00000330: b30e 07bd e1b4 ec3d f7e9 33be 7872 8bbe
00000340: 9906 c33d 5ce7 0c3d bc3b 863e f6f4 3ebd
00000350: cac4 40be a4bb 92be fe42 75bd 434d 2cbe
00000360: 0f0d 183d 87d2 50bd 9238 d63c dca7 b2bd
00000370: 9289 5f3d 7731 00be d974 5d3e 6bc8 293e
00000380: 009c 193e 5d8f 66bd bad7 d63d 1e60 1b3e
00000390: 3591 5f3c 7405 da3d bddc 9bbd 955f 26be
000003a0: 2ad9 163c f8ad 46bc 01b7 3ebe 9d1c d5bd
000003b0: c689 983d 3ddb d03c b43e 94bc 23b0 31bd
000003c0: f85c 61be 64be c33d eb34 953b 4d24 46be
000003d0: 1f90 51be 9ddd a7be 37b1 3a3c 574f fcbd
000003e0: 040a 803e 15af 6dbb a8a4 1ebe 893e 2b3e
000003f0: 003c 2a3d f64b 943d a6a3 5a3c 556a c9bb
-0.038860854 0.14556086 -0.109416924 0.08111976 0.21284737 -0.20731695 -0.06505694 -0.07824587
0.033965968 0.01772182 0.24819474 0.024091147 0.02313626 0.060327213 0.12564832 -0.21309131
-0.06110082 -0.06249414 0.11378538 0.013748508 -0.18512991 -0.16453965 -0.029438118 0.0090889465
-0.052705258 0.07425399 0.16618794 -0.1267991 -0.04542203 0.06834115 0.106838286 0.07913623
0.20192361 -0.06680559 -0.08999994 -0.13312559 -0.076012336 0.03894941 -0.077009134 0.23638925
0.12002906 0.10215725 0.033447538 -0.23922572 0.29952922 0.056541026 -0.054645628 0.13973016
-0.026621837 0.037814673 -0.13483103 -0.124230266 -0.039528154 -0.04587046 -0.22570494 0.14043546
0.10479496 0.09871495 0.06653063 0.04432117 0.13447456 0.19481161 -0.06395197 0.133939
0.059123904 -0.11572626 -0.11296991 0.09454024 0.031777993 -0.11570348 -0.21853562 -0.06972244
-0.0627598 0.026064515 0.03520664 -0.038033072 -0.07933227 0.021822441 0.02161015 -0.363396
-0.18869059 0.04361631 -0.20557308 0.015665658 -0.160876 -0.12873796 -0.041602116 -0.051819135
-0.14606853 -0.15300359 -0.10301752 -0.08526225 0.006855864 0.08423106 0.21557443 -0.116247274
-0.18029115 0.056035608 -0.06975781 0.064475305 -0.035544053 -0.18227668 -0.22979388 -0.051863097
-0.133056 -0.06644677 0.015143616 0.050634004 -0.053880382 -0.07307875 -0.41166976 -0.053270597
0.067647345 -0.05393221 -0.20848413 -0.050428867 0.017595898 0.083604656 0.16564539 0.15309611
0.1428731 0.029959215 0.14047942 0.0074586356 -0.053563178 0.11305988 0.01598687 0.20046046
-0.063531 -0.0574272 0.023137819 -0.09152101 0.030227441 0.2410825 -0.18470286 -0.046555903
0.07389569 0.040387742 -0.023607694 -0.23479584 0.19853689 -0.16403235 0.005300406 0.28026867
-0.018820332 0.105927296 0.008184785 0.12917796 -0.011964995 0.038174078 0.1347546 -0.20185468
-0.020157374 -0.1264146 0.015265387 0.016752396 0.08553532 0.06845468 -0.024345705 0.042714365
0.16500024 -0.10298308 0.15921572 0.04674498 -0.027482664 -0.11739871 0.1353708 -0.026798243
-0.15297645 -0.04113759 0.016657552 -0.05241905 -0.15499271 -0.033741213 -0.058608305 0.11901934
-0.011238165 0.064598896 0.08138563 -0.08661371 -0.10917256 -0.060277287 -0.011025809 -0.031621635
0.09979989 0.21402672 -0.14663848 0.18987958 -0.33591673 -0.10432511 0.14037053 -0.26522034
-0.10539012 -0.044077154 -0.14193869 -0.1724131 0.17612687 -0.09533722 0.07578156 -0.064247794
0.03582697 0.00698596 -0.009546822 -0.029566122 -0.032973003 0.115579374 -0.1756972 -0.2723577
0.09522743 0.03440033 0.2621745 -0.04662033 -0.18825069 -0.28658783 -0.05987834 -0.16826348
0.03712183 -0.050982025 0.026150022 -0.08723423 0.054574557 -0.1251887 0.21626605 0.1658036
0.15000916 -0.056289066 0.10490365 0.15173385 0.01364546 0.10645571 -0.07610462 -0.16247399
0.009207049 -0.012126438 -0.18624498 -0.10405848 0.07448153 0.025495166 -0.018096305 -0.043380868
-0.22008121 0.095577985 0.0045534275 -0.19349785 -0.20465134 -0.32786265 0.01139479 -0.123198204
0.2500764 -0.0036267687 -0.15492499 0.16723074 0.041561127 0.07241051 0.013344681 -0.006146709
