code/lstm_results/net/lstm_24_.pt (torch, 813255 bytes, 9 tensors)

weight_ih_l0 f4 [512, 7]
00000000: fa95 533e dffb 853d 422a b93d 271c 7d3d
00000010: b937 23bd 90f2 bcbd 9d46 873e 4df5 813d
00000020: c518 27bd f778 913c c57c 16bd 4a8c 2c3e
00000030: e96d 84bd 8a22 033d 2785 8abc e2e8 a1be
00000040: 61f3 3a3d 9a5a 92bd 3feb 45be edfa 75bd
00000050: c493 be3d 42d4 97bd 9ca8 2b3d 9080 59bd
00000060: a576 a73b 04a7 e5bd 0618 eeba 37b1 e53c
00000070: 4aec 85ba 0bb5 2fbd a802 eb3d d936 ac3d
00000080: 8704 343d 48ce 8c3d a318 c23d f9f9 253d
00000090: 514e 19bd 1856 09bd 111e 40bd 90dd 7a3d
000000a0: cc4a db3d 6c3f a83c a1c6 103d 1209 113e
000000b0: 6a55 6b3c 0606 48be c5a8 d03d 4c48 f5bc
000000c0: 7d1f ae3d d5a4 d03e 34da 89be 9030 3c3e
000000d0: 5206 d33d 4980 ea3d ce62 ecbd 805e 64bd
000000e0: e606 01be 0c65 27be 9667 553e 7a0a 833b
000000f0: a2e6 29be 66eb 90bd 59e2 8abd 08c1 97bd
00000100: e1d6 43be 67ec 81bd 94e5 cdbd 7dbf 853c
00000110: 7c04 debd 2e23 833e 161c e73d d8c8 9a3e
00000120: ccb6 a0bd 1539 d3bd c82d 803e b61d ac3d
00000130: b035 ef3d bf64 8b3c 5035 04bc 3534 273d
00000140: 5844 833d fdab 3abe 277d 6dbd 260a 5b3d
00000150: d766 103e e0f1 a33d 71d3 eb3c a891 55bc
00000160: fa85 973d cc11 06bd 592c 923d c17a 843b
00000170: 5f98 5a3a 710a d63d 073c 86bd ea17 ee3c
00000180: 5976 c43b 5863 fb3d 519d b0bd 9c55 81bc
00000190: feae 133b 031f c63d 10c1 f43d 507d b0bd
000001a0: 0536 76be 0c5d 503c dfb9 3d3e d2a2 babd
000001b0: 3f33 803d 86da b3bc 08cc ac3d 36cd ba3d
000001c0: 2580 cfbc 9ef4 cb3d 72b3 60bd c798 9abc
000001d0: b5a5 c4bc c277 cebd 2129 d6bc 7c32 763d
000001e0: 48d8 403d 2d44 213c d49b 06bd fae1 ecbd
000001f0: 3b8f 17be 4cc6 773d 8559 2abe d6d2 3e3e
00000200: 3312 85be 113d fcbc 336c 21be 69c3 c83d
00000210: 3416 b33c d75a 34bd 8676 6b3e c930 233e
00000220: 6477 943e 6b29 d7bb 69ef 093e be5f ddbc
00000230: fe5b 483e 9e4d b93d 3c92 a1bd 4ed6 0cb9
00000240: d30a a3bd 0ee8 37be dbac 11ba 38ea a83d
00000250: b853 763d 0608 bb3d d06e 84bd 8614 283e
00000260: 89ed f0bc 4f44 f73d ca35 e53b 7c22 023e
00000270: 3584 50bd f601 363d b8b9 663c 3fb9 0f3d
00000280: 573f 1e3c 14eb c93d f7c5 233e 7850 04be
00000290: 6d43 ddbb 62d9 393d d5e5 36be a157 13be
000002a0: fe34 053e c0be 893d 36f1 a6be 0aa3 223d
000002b0: e8fb 96bc 35f3 82bc e310 a93c c9f1 a83d
000002c0: 8b95 13bd f2dc 54bd f1ac 193d bbb0 ab3d
000002d0: bcf0 f93c 0a69 55be b4b8 2bbd 1aed d63c
000002e0: a54e 1d3d 7003 a83d 67b0 a53d 94a2 fa3c
000002f0: 104f 143d 7268 353d 9e44 b0bc 05bc f53d
00000300: 333c 943d e788 0ebc 13b3 4bbe b573 3a3e
00000310: cb12 32be 23c4 b3bc 1ab9 183e 7c8a 913c
00000320: 9432 e9ba 0424 f73c be9e 24be ce3c 843e
00000330: d127 153e df76 84bd 1d79 0fbe c748 4c3d
00000340: d43e e0bc ff46 653d a427 38bd 5170 223d
00000350: 2915 2d3e 2825 9a3d f9a2 b2bd 096c f3bd
00000360: 02bc 783e d09f ca3d 2a85 9f3d 5131 a3bd
00000370: 2f27 1dbd 238f cc3d 46e0 a6bd 49cf a13d
00000380: 9b16 1a3d c956 ae3d 473f ef3c aef2 dc3d
00000390: 5655 883c 86f3 9fbd c6a7 e0bc fa9b 3d3c
000003a0: 78b9 033b 17d2 27bd ae35 c13d 9718 df3c
000003b0: 1b15 4d3e b3c9 5fbd b790 d9bb 540f 87bd
000003c0: 5f73 383d 1250 213d 4d2c 3a3e b836 1cbd
000003d0: 82f4 b7bb 4f3d 493d 1ec8 d3bd 29f7 8f3a
000003e0: 60bc b8bd 5e15 9d3d 9200 0dbe 8108 80bb
000003f0: 9fca ffbd d3af 773d aa62 c13d 6fab c63c
0.2066268 0.06542181 0.09041263 0.061794426 -0.039848063 -0.092259526 0.2642106 0.063456155
-0.040795106 0.017757876 -0.036740083 0.16850391 -0.06466276 0.03201536 -0.016909195 -0.31622988
0.04564226 -0.07146187 -0.1932802 -0.060053755 0.09305528 -0.07413532 0.041908845 -0.053101122
0.005110579 -0.11213496 -0.0018165119 0.028038604 -0.0010217514 -0.042897265 0.11475116 0.08408899
0.04394963 0.068752825 0.09477355 0.040521596 -0.037428204 -0.03352937 -0.046903674 0.061246455
0.10707626 0.020538054 0.035345677 0.14163616 0.014363626 -0.19533548 0.1018844 -0.0299417
0.085021 0.40750757 -0.26924288 0.183779 0.1030394 0.1145025 -0.11542283 -0.055754185
-0.12600288 -0.1634714 0.20840296 0.0039990516 -0.16591886 -0.07076149 -0.06781454 -0.07409865
-0.19124939 -0.06343918 -0.10053554 0.01632666 -0.10840699 0.25612777 0.11284654 0.30231357
-0.07847366 -0.10313622 0.25034928 0.084041044 0.11680162 0.017015813 -0.008069351 0.040821273
0.0640952 -0.18229671 -0.057980683 0.053476475 0.1410173 0.08005118 0.028787347 -0.013035215
0.07398601 -0.032731816 0.07137365 0.0040429537 0.0008338745 0.1045121 -0.06554418 0.029064137
0.0059955535 0.12274808 -0.08623756 -0.015787892 0.0022534723 0.09673884 0.11950886 -0.086176515
-0.24044044 0.012717497 0.18527935 -0.09113087 0.062597744 -0.021954786 0.084373534 0.09121172
-0.025329659 0.099587664 -0.054858632 -0.018871678 -0.024004797 -0.10081436 -0.026142659 0.06010674
0.047081262 0.0098429145 -0.032863453 -0.11566539 -0.14800732 0.060491845 -0.16635711 0.18635115
-0.25990447 -0.030790837 -0.15763931 0.098028965 0.021861173 -0.044031944 0.22994432 0.15936579
0.28997338 -0.0065662167 0.13470234 -0.027023192 0.19566342 0.090480074 -0.0788922 -0.00013431275
-0.07961049 -0.17959616 -0.00055570685 0.08247799 0.060138434 0.0913239 -0.06466448 0.16414079
-0.02941014 0.12073576 0.0069949375 0.12708467 -0.050907332 0.044435464 0.014082365 0.035088774
0.009658656 0.09859291 0.15993486 -0.12921321 -0.0067524225 0.045373328 -0.17861111 -0.14388897
0.13008496 0.06725836 -0.32605904 0.039706267 -0.018430665 -0.01598511 0.020637935 0.08249242
-0.036031287 -0.051968522 0.037518445 0.08383318 0.030510299 -0.2084085 -0.041924194 0.026236106
0.03840508 0.08203781 0.08090287 0.030595101 0.036208212 0.04428906 -0.021517094 0.119987525
0.072380446 -0.008699632 -0.1989253 0.18208201 -0.17389981 -0.021944111 0.1491436 0.01776623
-0.0017791563 0.03016854 -0.1607618 0.2582764 0.1456597 -0.06467985 -0.14011045 0.049874093
-0.027373709 0.05597591 -0.04495968 0.039657895 0.16902603 0.07526618 -0.08722491 -0.118858404
0.2429047 0.09893763 0.07789071 -0.07968391 -0.038367447 0.09988239 -0.081482455 0.07900865
0.037619215 0.08512647 0.029204978 0.10788475 0.016642254 -0.0781012 -0.02742375 0.011572832
0.0020099562 -0.04097184 0.09434067 0.027233405 0.20027582 -0.054635715 -0.006639566 -0.065947205
0.0450319 0.039383 0.18180962 -0.03813812 -0.0056138644 0.049130734 -0.10340904 0.0010983694
-0.09020305 0.07670091 -0.13769749 -0.0039072637 -0.12489819 0.060470413 0.09442647 0.024251668

weight_hh_l0 f4 [512, 128]
00000000: a91a 0b3d c3a0 ac3d e719 e3bd c6ad 223d
00000010: ec13 18be 8073 81bc d6a5 29bd 4904 08be
00000020: 5ec1 0fbe 137e 0f3e f487 2cbe ebd5 fbbd
00000030: 0041 16be adaa da3c b2d8 483d b444 4b3c
00000040: 32fc 163e 062c 123e 9174 d33d 4055 f3bd
00000050: c961 013e 2914 d0bc 9057 583e 308c e63d
00000060: c7a2 da3d 9259 313d e657 883b 5a8a e93c
00000070: dcc8 a4be d434 dcbc 4879 14be 8ed7 113e
00000080: 6df6 25bd e1ae 423c fc1d 413e 09ff 1f3d
00000090: cc41 b3bd 2cab 49bd 3824 2f3d a25f a03e
000000a0: 742a 963d f40d 97bd 08ca 12be 359c b6bc
000000b0: 2591 1d3e 7c52 43bd db7b 25be c16f d8bb
000000c0: 2da9 ea3d 3345 183e 65a0 89bd 8759 72bd
000000d0: 8c2c 92bd a7f6 9fbc eaf7 043d 91eb b03d
000000e0: 8fbd 8bba c16c 3c3e 9cb7 91be 1559 03be
000000f0: 579b 703e 5fee e63d 1561 fcbd d3f2 5e3d
00000100: e0b9 823d 68f5 abbd 0080 273e f1f0 86bd
00000110: 16ba 673d b08a 18be 4a8c 313e 6ffa a93d
00000120: 9e8a 9dbd 647c 573e 9025 01be d8e9 81bd
00000130: 7096 ce3d de88 18be 3c8c ccbc ca86 243e
00000140: 4f5e ba3e 49f4 d1bd 7d8d 863d ebb3 ebbc
00000150: 4bcf d53d e58e 7a3d a2ac ed3d ee69 02be
00000160: 8da7 dabd 4d96 6abc 2804 393e b838 bc3d
00000170: 8bb3 27be 4f54 aabc 8c30 f03c f963 1abe
00000180: bd03 77be 60e3 003e de69 463e 63cd c7bd
00000190: 0319 9f3c 1dd7 0e3e 2bbe ac3d 42a8 d23d
000001a0: 7a2a 8dbe 2f19 63bd a460 84bd b97e c13c
000001b0: b965 b93d d7a3 edbd c897 343b c4ab c13c
000001c0: a81e cfbd 57bd 403e 2443 733e 2569 343e
000001d0: 1afb b0bc 1450 0a3e 2bdc 66bd 447a c53d
000001e0: c85c 80bd 7ec8 35be 0254 b9bd 1b85 243e
000001f0: d633 6fbb 6b6a c33c db42 0ebe f214 2bbe
00000200: d3f6 55bc 798e 813d 23f4 d43a f0e0 ae3c
00000210: 7c6f 40bc 1f20 68bd fb6a 3b3d 7f7d d23c
00000220: fb78 563d 1931 a1bd 53c7 07be a5eb e83b
00000230: 8a19 4f3c 8659 aabd 7571 9c3d 72d6 27be
00000240: fd24 dc3d 7ae1 333e fca4 99bd eb77 dabc
00000250: 81cd 56bc 4114 20bd d9b8 76bd 2a2e 143c
00000260: 9253 abbd c539 abbc f66e 1abd ab48 53bd
00000270: 64d4 063c b31a e23c 917a bfbd 9a28 7a3d
00000280: f8cb ae3d e8fc 983c 57a8 ecbd 23f0 26bc
00000290: f566 99bd 300a ba3b 389b 7dbd e4b8 2b3d
000002a0: 7bf0 043e df92 e7bd 1323 2b3c b5fe 96bd
000002b0: 1e76 913d 4f02 803d 0847 cc3b 476e 77bd
000002c0: a1ea 16be d6bb 32bd 7837 92bc b092 27be
000002d0: 8498 2cbb 9fc6 b8bc f748 ce3c 73cd f03d
000002e0: 0714 b03d 53b3 08be e4f9 19be c271 143e
000002f0: e954 023e 1889 23be 9bc7 07bd cdec 91bc
00000300: aa47 833c 2e4f 63bd a417 bcbd a3d8 05bb
00000310: cf91 bd3c f40e f3bd 1917 e5bc 6645 39bc
00000320: 3d1e ca3d 0214 c63d 23d8 debc 20d7 1cbd
00000330: 961b 1c3e 7ca7 e7b7 2017 a93d c1a2 19bd
00000340: c39e 8c3d 616c 2cbc 0330 ec3d 37a7 8abd
00000350: e035 85bd f389 8b3c 2956 3f3c 9403 833c
00000360: 3aec 04be 2125 c33c 1d8c 923d e926 bd3d
00000370: bdf3 cb3c 82b3 a63c 7fa0 9dbd d4e4 ecbd
00000380: 8e9b 54bb e4ee ebbb aec4 0cbd 8484 783c
00000390: 486e dabd 5733 e03c 0aff f63d 0b5f 4b3d
000003a0: 7752 00be da76 a8bd 8a38 46be f148 c9bd
000003b0: da2d 8cbe b86f 48bd 1347 ac3c abd6 b6bd
000003c0: e6dd 063e 72d7 4a3d e952 473d 04d4 dd3d
000003d0: 40a3 54bc 3908 7bbd 310d 903d 5399 033d
000003e0: 423f 373e 77e0 62bd 9098 093e 955b 02be
000003f0: c8d5 17be e221 b8bd b589 723e fcb1 c43d
0.033960972 0.084291 -0.11088925 0.039716505 -0.1485135 -0.015802145 -0.04141792 -0.13282885
-0.14038607 0.14012937 -0.16848737 -0.12296661 -0.14673233 0.026692713 0.04903478 0.012406517
0.14744642 0.14274606 0.10324968 -0.118814945 0.12634958 -0.025400238 0.21127152 0.112572074
0.106755786 0.04329831 0.004160869 0.028508354 -0.32184494 -0.02688066 -0.1449939 0.14242384
-0.040518213 0.011882515 0.18859094 0.03906158 -0.08752784 -0.049235508 0.04275915 0.31322962
0.07332316 -0.07375708 -0.14334881 -0.022291282 0.153874 -0.047686085 -0.16160528 -0.006605119
0.11458049 0.14870147 -0.06720046 -0.05916741 -0.07137403 -0.019526793 0.03246299 0.08638681
-0.0010661351 0.18400861 -0.28460395 -0.12826951 0.23496757 0.112759344 -0.123232044 0.054430794
0.06383109 -0.08396417 0.16357422 -0.06588925 0.05657395 -0.14896655 0.17338672 0.082997195
-0.07692455 0.21043545 -0.12611985 -0.0634343 0.100872874 -0.1489596 -0.024969213 0.16067043
0.36400077 -0.10251672 0.065699555 -0.028772315 0.104399286 0.06117143 0.11605193 -0.12735721
-0.10676489 -0.014318061 0.18067992 0.09190506 -0.16377084 -0.020792155 0.029320024 -0.15077199
-0.2412252 0.12586737 0.19376323 -0.09755971 0.019421106 0.13949247 0.08434709 0.10285999
-0.2757147 -0.05544394 -0.06463745 0.023619996 0.09052605 -0.116035156 0.002755629 0.023641475
-0.10113269 0.18822227 0.23756081 0.17618234 -0.02160411 0.1350711 -0.056362312 0.09642461
-0.062676966 -0.17752263 -0.09049226 0.160664 -0.0036499402 0.023854455 -0.13892691 -0.16707209
-0.013059336 0.06326003 0.0016247075 0.021347493 -0.01174533 -0.056671258 0.04575632 0.025694607
0.05236147 -0.07870693 -0.1325963 0.007108169 0.012640366 -0.083178565 0.07638828 -0.16390398
0.107492425 0.17566481 -0.075021714 -0.02666851 -0.013110519 -0.039081816 -0.06023488 0.0090442095
-0.08365549 -0.02090157 -0.037703477 -0.051582973 0.008229349 0.027600622 -0.093495496 0.061073877
0.08534998 0.018675283 -0.11555546 -0.010189089 -0.074903406 0.005677484 -0.061915606 0.041924372
0.12982361 -0.1130731 0.010445374 -0.073728 0.07102607 0.0625044 0.0062340535 -0.060407903
-0.14737941 -0.043636166 -0.017848715 -0.1636455 -0.0026336024 -0.022555647 0.025181277 0.11757936
0.0859757 -0.13349657 -0.15036732 0.1449652 0.12727703 -0.15970266 -0.033149343 -0.01781311
0.016025383 -0.055495434 -0.091841966 -0.0020423315 0.023140816 -0.118680865 -0.027965115 -0.01130805
0.09869049 0.09671785 -0.027202671 -0.038291097 0.15244898 -2.7615337e-05 0.08256364 -0.03750873
0.06866219 -0.010523886 0.11532595 -0.06770175 -0.065044165 0.017033553 0.011678257 0.015992917
-0.12980738 0.023821415 0.07155631 0.09235937 0.024896497 0.020349268 -0.07696628 -0.11567083
-0.003244135 -0.007200109 -0.034367256 0.015168313 -0.10665566 0.02736823 0.120603636 0.049651187
-0.12531458 -0.08225794 -0.19357505 -0.098283656 -0.27378732 -0.04893467 0.021029985 -0.089276634
0.13170585 0.04952187 0.048663054 0.108314544 -0.012978375 -0.06128714 0.07033766 0.032128643
0.17895225 -0.055389848 0.13437104 -0.12730248 -0.14827645 -0.08990838 0.23685344 0.0960426

bias_ih_l0 f4 [512]
00000000: c35b ffbd f5d3 1cbd e030 9bbd f953 0dbd
00000010: 836a 8cbd ef2b b8bd 53ee 0ebe 191b c1bd
00000020: 4e4d d3bd d109 59be d432 103c 234a 32bd
00000030: 3e8e 9abd ed3f 25bd 34c4 d1bd 52cf 35bd
00000040: 44a5 48be 8f70 f5bd 029f 26bd 111e 87be
00000050: 4f5d 23bc b124 f2bd 8578 0cbe 8083 c43b
00000060: 880d 0dbd 63d0 5cbc 333f 00bd a12c 37be
00000070: 0d0a 39be 666a f9bd a8b9 0fbe 83ef 89bd
00000080: cac8 b5bd 6527 fbbc b29a 35be 4823 033d
00000090: ad9f 3dbe e7ae 10be 4e39 dc3a 6435 f8bd
000000a0: 3d8e 59be 9605 6b3d 0e22 65bd 6a9c efbc
000000b0: 72d9 dfbd 9921 00bd c942 56be 56d9 37bd
000000c0: 6cfc abbd 331b 4abd 3b8e 7cbe 0337 9a3c
000000d0: b536 5abe 8d91 833c df60 a43c 7aed b3bd
000000e0: a0d7 91bd 74fa adbd ab5b 34be 1434 c7bd
000000f0: 7d49 afbd 5398 e8bd 4139 79bd 89b9 cfbd
00000100: ffe9 afbd a3d4 babc 7c13 46bd 007c 04bd
00000110: a8cd 8a3d a7ff 4ebd 147a cebd c610 16be
00000120: ddff a0bc 0bc4 84bd cb52 7f3a 4067 f9bd
00000130: 4cbe 28be c127 0abd 791c b13c 5ff0 afbd
00000140: 02fd bfbd 5bf5 a1bd 72f6 9cbd 3044 f9bd
00000150: 1bbf e9bd ba18 093e 2cce a3bc 3f33 9fbd
00000160: 5815 a2bc 618f 1abe eac7 063e 459f 1ebd
00000170: e123 25bd 11c1 89bd 84bc 5cbd 18e0 f6bd
00000180: 02df 3ebd e20f 6abd fe1a 8dbd 26b0 a4bc
00000190: 9584 22be 0c97 87bc 2d0a dcbd ca44 5cbd
000001a0: 47de 13be 5499 d3bd b228 f0bd d574 38be
000001b0: 08a5 82be 5f67 56bc f153 22bd d0ea 3c3d
000001c0: 2408 03bd ba5d 18be 1c5d 0ebe e082 bbbd
000001d0: 20e7 7cbd 9b55 d8bd d387 c5bd c2c9 cabd
000001e0: d85c 07be d9b8 98bd 802f 95bd 1501 97bd
000001f0: 72db 3fbe 0624 9d3b c651 36bd b0ef 56be
00000200: 6618 23ba 4c8a 03bd 6788 a9bd 0591 74bc
00000210: af8d b0bd 734a 0ebd b5a8 813b 4a31 303e
00000220: 4f9c d9bc 02ac 40be a1bf 323d d0a5 ebbc
00000230: d48a e0bc b859 34bd 713c 64bd c715 edbc
00000240: 0f22 e8bd fe6e 94bd 3d65 b4bc 31cc 15be
00000250: f53d 3c3d fab8 613d 3b1f 64bd cbfb 0d3d
00000260: 938c 00bd aa53 b73b f647 adbc aa8f b4bd
00000270: 3919 35be bb35 73bd 17e2 98bd 79a2 9ebc
00000280: edcf 31bd 7f3b 7ebc 83d9 3fbd a027 cfbb
00000290: 5f3a a0bd e1a4 58be 467b 7e3d 5844 c4bd
000002a0: 4594 3cbe 9428 8d3d e7e2 0ebd 29a4 acbc
000002b0: ec2c a4be 81f1 5fbc 4a79 6ebd 6f54 1bbd
000002c0: 16a6 ddbc 1c95 dbbc 33dd aebd 36df cdbd
000002d0: 9fe9 26be b1fa 6abc 8662 463e e2e3 88bd
000002e0: c602 b2bc 4a84 47bd 3ce2 dcbd 6d60 7fbd
000002f0: 37f9 babd 92d7 99bd 0d3e 78bd 0a5f 53bd
00000300: 97dd 15be 5c8a 7dbc b159 8ebd 6439 24bd
00000310: 2b03 f73d f24c 80bd 6977 ddbc 8664 57be
00000320: 981f 65bd 627e 50bd 90a1 6d3e a54c bfbd
00000330: 1624 1cbe 2630 8fbd a757 5cbe 29af e3bc
00000340: 032b 8abd aa04 1ebe 6fd3 bbbd 5f3d 63bd
00000350: 2548 75bd 6ae0 023e 2d78 fb3c 8789 8dbd
00000360: b251 543e aa53 26be ea90 c2be 5029 bbbc
00000370: 707b 02bd 8bc2 13bd 50e8 52bd 6cfa abbd
00000380: 6286 d4bc 77b1 1ebd f7cb 0abd 56a0 a6bd
00000390: 83df bdbd d606 8eb8 f019 3a3e 1c2a 3abd
000003a0: 8be1 01be 5bdf 12be db95 66bd 1ad3 afbc
000003b0: a4f3 39be 401e 81bc 2c9d 40bd 7999 8ebd
000003c0: 44ed 293e 8c41 71bc c6de febd fcf2 13bd
000003d0: 7aa7 baba 082d bf3c 87f7 93bd fceb f83d
000003e0: 8158 19be 930c a9bd b8c9 c0bc 0416 a3bc
000003f0: 085a 1cbd 8f1c 4b3d 495a 36bd a45d 1ebe
-0.12468674 -0.038288075 -0.075776815 -0.03450391 -0.06856253 -0.08992755 -0.13958101 -0.094289966
-0.10317479 -0.21195151 0.008801181 -0.043527734 -0.07546662 -0.040344168 -0.10242501 -0.04438717
-0.19594294 -0.119843595 -0.040678985 -0.26390126 -0.009970977 -0.118234046 -0.1371785 0.0059971213
-0.034436733 -0.013477418 -0.03131027 -0.17888118 -0.1807024 -0.12178497 -0.14035666 -0.06735136
-0.08876188 -0.030658433 -0.17734793 0.03201607 -0.18517943 -0.1412922 0.0016801746 -0.121195585
-0.21245666 0.057378374 -0.05594068 -0.029249389 -0.10930146 -0.03128204 -0.20923914 -0.044885002
-0.08397755 -0.049342345 -0.24663632 0.01882506 -0.21309932 0.016060615 0.020065723 -0.087855294
-0.07121205 -0.08495036 -0.17613094 -0.0972673 -0.08558939 -0.113571785 -0.060845617 -0.1014281
-0.08589553 -0.022806471 -0.048358425 -0.032344818 0.06777507 -0.050536778 -0.10081878 -0.14654836
-0.019653255 -0.06482705 0.0009739815 -0.121778965 -0.16478842 -0.03372932 0.021620022 -0.08590769
-0.09374429 -0.07908126 -0.07664193 -0.12171209 -0.114134036 0.13388339 -0.019995771 -0.07773446
-0.019785568 -0.15093757 0.13162199 -0.03872611 -0.04031742 -0.067262776 -0.05389072 -0.12054461
-0.046599396 -0.057144053 -0.06889914 -0.020103525 -0.15870889 -0.016551517 -0.107441284 -0.05377654
-0.14440261 -0.103319794 -0.11726512 -0.18013318 -0.25516534 -0.013086169 -0.039630834 0.046122372
-0.031990185 -0.14879504 -0.13902706 -0.09155822 -0.061743855 -0.10563203 -0.09645047 -0.099017635
-0.13219011 -0.07457132 -0.072844505 -0.07373253 -0.18736055 0.004795554 -0.04451158 -0.20989871
-0.0006221592 -0.032114312 -0.0827797 -0.0149271535 -0.08620774 -0.03473897 0.003956879 0.17206302
-0.026563792 -0.18815616 0.043639783 -0.028765589 -0.027409948 -0.044030875 -0.055721704 -0.028941048
-0.11334621 -0.072477326 -0.02202093 -0.14628674 0.045957524 0.055108048 -0.055693846 0.034663957
-0.031384062 0.0055946903 -0.021152478 -0.08816464 -0.17685403 -0.059377413 -0.07464998 -0.019364582
-0.043411184 -0.015517115 -0.046838295 -0.0063218623 -0.078236334 -0.21156646 0.06212928 -0.09583348
-0.18415935 0.06892505 -0.03488436 -0.021074371 -0.32065523 -0.013668419 -0.05822114 -0.03792232
-0.027056735 -0.0268045 -0.08538284 -0.1005234 -0.16300057 -0.014341996 0.19373521 -0.0668409
-0.021729838 -0.048710145 -0.10785338 -0.06234782 -0.09129565 -0.0751182 -0.06060605 -0.05160431
-0.14635311 -0.015474882 -0.06950701 -0.040093794 0.12061151 -0.06264676 -0.027034478 -0.2103444
-0.055938333 -0.050901778 0.23206162 -0.09340791 -0.1524814 -0.069916055 -0.21517812 -0.027793484
-0.06746485 -0.15431467 -0.09171187 -0.05547845 -0.059883256 0.1278092 0.030696953 -0.06910997
0.2073429 -0.16242853 -0.38001186 -0.022846848 -0.031856 -0.036074203 -0.05149108 -0.083973736
-0.025942985 -0.038743462 -0.033885922 -0.081360504 -0.09271147 -6.772361e-05 0.18173957 -0.045450315
-0.12683694 -0.14343016 -0.056295257 -0.021462966 -0.18159348 -0.015761495 -0.04702489 -0.06962866
0.16594416 -0.0147251 -0.124448344 -0.0361204 -0.0014240586 0.023336902 -0.072249465 0.121543854
-0.14975168 -0.082543515 -0.023533687 -0.019907959 -0.038171798 0.049587782 -0.044519696 -0.15465409

bias_hh_l0 f4 [512]
00000000: bd5b ffbd f4d3 1cbd df30 9bbd fc53 0dbd
00000010: 826a 8cbd ef2b b8bd 53ee 0ebe 181b c1bd
00000020: 4d4d d3bd d409 59be db32 103c 204a 32bd
00000030: 408e 9abd ed3f 25bd 35c4 d1bd 52cf 35bd
00000040: 43a5 48be 8f70 f5bd 039f 26bd 101e 87be
00000050: 4d5d 23bc ac24 f2bd 8578 0cbe 7483 c43b
00000060: 880d 0dbd 67d0 5cbc 333f 00bd a12c 37be
00000070: 130a 39be 676a f9bd aab9 0fbe 85ef 89bd
00000080: ccc8 b5bd 6a27 fbbc b29a 35be 4923 033d
00000090: ad9f 3dbe e6ae 10be 4f39 dc3a 6635 f8bd
000000a0: 3e8e 59be 9405 6b3d 1722 65bd 689c efbc
000000b0: 74d9 dfbd 9821 00bd ca42 56be 54d9 37bd
000000c0: 68fc abbd 351b 4abd 3d8e 7cbe 0037 9a3c
000000d0: b736 5abe 8591 833c e360 a43c 7aed b3bd
000000e0: 9ed7 91bd 73fa adbd aa5b 34be 1434 c7bd
000000f0: 7a49 afbd 4f98 e8bd 4339 79bd 8bb9 cfbd
00000100: 02ea afbd a6d4 babc 7b13 46bd ff7b 04bd
00000110: accd 8a3d a9ff 4ebd 137a cebd c710 16be
00000120: d6ff a0bc 10c4 84bd 6450 7f3a 4067 f9bd
00000130: 4bbe 28be c927 0abd 841c b13c 5ff0 afbd
00000140: 02fd bfbd 5cf5 a1bd 6df6 9cbd 2c44 f9bd
00000150: 1abf e9bd ba18 093e 1ece a3bc 4033 9fbd
00000160: 5215 a2bc 618f 1abe e5c7 063e 459f 1ebd
00000170: e223 25bd 11c1 89bd 8abc 5cbd 15e0 f6bd
00000180: 01df 3ebd e40f 6abd 001b 8dbd 34b0 a4bc
00000190: 9484 22be 0797 87bc 2b0a dcbd c844 5cbd
000001a0: 45de 13be 5299 d3bd b828 f0bd d674 38be
000001b0: 08a5 82be 5667 56bc ef53 22bd d8ea 3c3d
000001c0: 2808 03bd b75d 18be 1b5d 0ebe e782 bbbd
000001d0: 20e7 7cbd 9955 d8bd d587 c5bd bfc9 cabd
000001e0: da5c 07be dbb8 98bd 7e2f 95bd 1701 97bd
000001f0: 72db 3fbe 0f24 9d3b c651 36bd b1ef 56be
00000200: f418 23ba 488a 03bd 6688 a9bd fe90 74bc
00000210: b28d b0bd 754a 0ebd a9a8 813b 4931 303e
00000220: 4f9c d9bc 05ac 40be a7bf 323d d3a5 ebbc
00000230: d68a e0bc b659 34bd 733c 64bd ca15 edbc
00000240: 1122 e8bd fe6e 94bd 4965 b4bc 34cc 15be
00000250: f83d 3c3d f4b8 613d 361f 64bd cbfb 0d3d
00000260: 958c 00bd 9953 b73b f147 adbc ae8f b4bd
00000270: 3a19 35be bd35 73bd 14e2 98bd 7da2 9ebc
00000280: efcf 31bd 7b3b 7ebc 84d9 3fbd ac27 cfbb
00000290: 5e3a a0bd dfa4 58be 4c7b 7e3d 5944 c4bd
000002a0: 4894 3cbe 9228 8d3d e7e2 0ebd 29a4 acbc
000002b0: ec2c a4be 7ef1 5fbc 5179 6ebd 7054 1bbd
000002c0: 2ba6 ddbc 2395 dbbc 2ddd aebd 33df cdbd
000002d0: 9fe9 26be b0fa 6abc 8862 463e e4e3 88bd
000002e0: c202 b2bc 4984 47bd 3ae2 dcbd 6d60 7fbd
000002f0: 38f9 babd 90d7 99bd 113e 78bd 085f 53bd
00000300: 96dd 15be 5c8a 7dbc b159 8ebd 6439 24bd
00000310: 2a03 f73d f14c 80bd 6877 ddbc 8764 57be
00000320: 981f 65bd 667e 50bd 8fa1 6d3e a54c bfbd
00000330: 1724 1cbe 2930 8fbd ab57 5cbe 2caf e3bc
00000340: 062b 8abd ac04 1ebe 6dd3 bbbd 643d 63bd
00000350: 2548 75bd 6ae0 023e 4178 fb3c 8489 8dbd
00000360: b451 543e aa53 26be ec90 c2be 5229 bbbc
00000370: 6f7b 02bd 89c2 13bd 49e8 52bd 6dfa abbd
00000380: 6086 d4bc 78b1 1ebd f6cb 0abd 56a0 a6bd
00000390: 83df bdbd 780c 8eb8 f219 3a3e 192a 3abd
000003a0: 8ae1 01be 58df 12be db95 66bd 1cd3 afbc
000003b0: a3f3 39be 3e1e 81bc 2e9d 40bd 7a99 8ebd
000003c0: 43ed 293e 7541 71bc c6de febd fdf2 13bd
000003d0: 43a7 baba 0b2d bf3c 86f7 93bd f8eb f83d
000003e0: 8058 19be 920c a9bd bcc9 c0bc 0816 a3bc
000003f0: 065a 1cbd 8f1c 4b3d 4d5a 36bd a25d 1ebe
-0.124686696 -0.03828807 -0.07577681 -0.034503922 -0.06856252 -0.08992755 -0.13958101 -0.09428996
-0.10317478 -0.21195155 0.008801187 -0.043527722 -0.07546663 -0.040344168 -0.10242502 -0.04438717
-0.19594292 -0.119843595 -0.04067899 -0.26390123 -0.009970975 -0.11823401 -0.1371785 0.0059971157
-0.034436733 -0.013477421 -0.03131027 -0.17888118 -0.1807025 -0.12178498 -0.14035669 -0.06735138
-0.088761896 -0.030658443 -0.17734793 0.032016072 -0.18517943 -0.14129218 0.0016801747 -0.1211956
-0.21245667 0.057378367 -0.055940714 -0.029249385 -0.10930148 -0.031282037 -0.20923916 -0.044884995
-0.08397752 -0.049342353 -0.24663635 0.018825054 -0.21309935 0.0160606 0.02006573 -0.087855294
-0.07121204 -0.08495035 -0.17613092 -0.0972673 -0.085589364 -0.113571756 -0.060845625 -0.101428114
-0.08589555 -0.022806477 -0.04835842 -0.032344814 0.0677751 -0.050536785 -0.100818776 -0.14654838
-0.019653242 -0.064827085 0.0009739457 -0.121778965 -0.16478841 -0.03372935 0.021620043 -0.08590769
-0.09374429 -0.07908127 -0.076641895 -0.12171206 -0.11413403 0.13388339 -0.019995745 -0.07773447
-0.019785557 -0.15093757 0.13162191 -0.03872611 -0.040317424 -0.067262776 -0.053890742 -0.12054459
-0.04659939 -0.05714406 -0.068899155 -0.020103551 -0.15870887 -0.016551508 -0.10744127 -0.053776532
-0.14440258 -0.10331978 -0.117265165 -0.1801332 -0.25516534 -0.013086161 -0.039630827 0.046122402
-0.0319902 -0.148795 -0.13902704 -0.09155827 -0.061743855 -0.105632015 -0.096450485 -0.09901761
-0.13219014 -0.074571334 -0.07284449 -0.07373255 -0.18736055 0.0047955583 -0.04451158 -0.20989873
-0.0006221675 -0.032114297 -0.08277969 -0.014927147 -0.08620776 -0.034738977 0.0039568734 0.17206301
-0.026563792 -0.1881562 0.043639805 -0.028765595 -0.027409952 -0.044030868 -0.05572171 -0.028941054
-0.11334623 -0.072477326 -0.022020953 -0.14628679 0.045957536 0.055108026 -0.055693828 0.034663957
-0.03138407 0.0055946824 -0.021152468 -0.08816467 -0.17685404 -0.05937742 -0.07464996 -0.01936459
-0.04341119 -0.015517111 -0.0468383 -0.006321868 -0.07823633 -0.21156643 0.062129304 -0.09583349
-0.1841594 0.06892504 -0.03488436 -0.021074371 -0.32065523 -0.013668416 -0.058221165 -0.037922323
-0.027056774 -0.026804512 -0.0853828 -0.100523375 -0.16300057 -0.014341995 0.19373524 -0.06684092
-0.02172983 -0.04871014 -0.10785337 -0.06234782 -0.09129566 -0.075118184 -0.060606066 -0.0516043
-0.1463531 -0.015474882 -0.06950701 -0.040093794 0.1206115 -0.062646754 -0.027034476 -0.21034442
-0.055938333 -0.050901793 0.23206161 -0.09340791 -0.15248142 -0.06991608 -0.21517818 -0.02779349
-0.06746487 -0.1543147 -0.09171186 -0.05547847 -0.059883256 0.1278092 0.03069699 -0.06910995
0.20734292 -0.16242853 -0.38001192 -0.022846851 -0.031855997 -0.036074195 -0.051491056 -0.08397374
-0.025942981 -0.038743466 -0.03388592 -0.081360504 -0.09271147 -6.77341e-05 0.1817396 -0.045450304
-0.12683693 -0.14343011 -0.056295257 -0.02146297 -0.18159346 -0.01576149 -0.0470249 -0.06962867
0.16594414 -0.014725079 -0.124448344 -0.036120404 -0.0014240522 0.023336908 -0.07224946 0.121543825
-0.14975166 -0.08254351 -0.023533694 -0.019907966 -0.03817179 0.049587782 -0.04451971 -0.15465406

weight_ih_l1 f4 [512, 128]
00000000: a623 c6bd 9d8f 853d 62ba 10bd 7c4f 683d
00000010: 3e05 c1bd 66a1 97bd 8235 dbbd 605e 64bd
00000020: 79cd 183e f801 7cbd 3a19 473c d76e b63d
00000030: 8228 a3bd 67a6 513d 1931 c93c b22a bc3c
00000040: d69b e23d 5f00 03bd d5ab 23bd 73fa 633e
00000050: 400c 493d cc63 8b3c 9963 21be c2e2 053d
00000060: bce4 1abe a50d a13c e845 9d3d 3c32 033e
00000070: ff14 803c d535 d93c 3c81 593d 5709 a2bc
00000080: c3ac 813c 1b73 ffbc 462d 31bd 1523 43bd
00000090: da14 123c cd6d bf3c 59e5 dc3b f454 e1bc
000000a0: 8aa0 aebd 56f6 243e dff1 fb3d cffc 823d
000000b0: 7ad3 e33d 3266 46bd 387b a43c 8970 b9bd
000000c0: c47e 763c 5db7 84bc 2e51 cc3d 3573 7ebc
000000d0: d623 0b3d 7168 113c b49d 4ebd d901 833d
000000e0: 886c 97bd 9462 8bbd 80f2 27bd 42b8 183d
000000f0: 78e0 58bc ff1c 15bd 0c71 08be 7ed6 c4bd
00000100: e991 eb3c 84f1 c93d 849e aabc 2867 8b3c
00000110: f9e1 4bbd 6258 813b 323e cebd 1193 f43c
00000120: f68d 043e 1f36 1fbe 2037 93bd af61 2cbe
00000130: 8b0e 133e 52e9 963c 4fe3 e33d 743c c43c
00000140: e0f0 8d3c a624 d13c e98d 8c3d 1102 16bd
00000150: 23d1 4dbd fa66 d73d 01b2 08bc c2ce fc3d
00000160: e708 293c fd6a a6bd 085c 523e 2a21 6dbd
00000170: 0013 8d3d 517f 073d 2f26 6bbd 95dc 4f3d
00000180: 03fc 283e 9374 c5bc c724 82bd 939c 2f3d
00000190: 9ec8 5ebd 332f a03c 9502 233e ef27 033d
000001a0: 4779 c7bd 6e96 c0bd 082a 143d 90a7 43bd
000001b0: c4d3 c43d e5d2 c2bd de61 813d 711e d1bc
000001c0: 3f00 0f3d dc8c 07bd 59eb c5bb aa6a 733d
000001d0: c29c b5bc 4363 b43c b0ed 163c b564 3b3d
000001e0: 9485 af3d 25ec 62bd 7b5c cd3d 6c55 80bd
000001f0: 9187 123e 1e10 3f3d 4d8f 993d 465b 4f3b
00000200: c9c6 25bc 1c4c 483b ecc4 0fbc 7943 0bbd
00000210: 2652 a4bc 8722 12bd cbd2 9ebd 2b73 ecbd
00000220: 1fe9 e13c 2020 acbb 80eb 89bd 705b ef3d
00000230: 9e80 abbd 925d b8bc ad74 ddbd 326c a03c
00000240: c0c8 7e3d 1fcf 1f3d 6370 b43d 7d01 753d
00000250: 9e52 c43c fe82 873c b77d d0bd 263f bebc
00000260: 5e72 4cbd c0d8 fbbd 9998 31bd 8afc 07be
00000270: 463e 883d 33d9 fe3d 2ec8 28bd 600d 3cbd
00000280: 326a 8a3d 6360 903d 9ee8 a8bd 8fb3 85bd
00000290: b133 b13b 965f 363d b3f5 01bc b268 7f3d
000002a0: 0b7e 963d ba22 d73d ffb0 00bc 961a b2bd
000002b0: a466 903d aa06 cdbd 1652 a93d 6521 23bd
000002c0: cb27 c9bb 0924 63bd e5e0 d33b b865 fdbd
000002d0: 80d5 d9bb 1ef8 643d 3969 66bc 9810 9e3d
000002e0: 5159 d93c e8e0 24be e4da f03b 45b1 ce3d
000002f0: 6da1 c33d 35d9 b0bd 9541 c93d 560c 5f3d
00000300: 57c4 cf3d 064d ed3c af4f c0bc c80a f83c
00000310: 3a46 22bd b2af 893d ebbf 2cbd 4fa3 8c3d
00000320: b6ac ad3c 8c4e 1cbc d0e3 90bc cf6c 663c
00000330: b35e 3e3e 0e29 043e 3470 8a3d 3b95 0cbd
00000340: d225 d3bc 3894 333d d761 8e3d e58c 0ebd
00000350: 67ec 93bc 31eb bc3d 36d2 1bbd 1e27 e43c
00000360: 8770 a9bd 0018 0bbe f73d 3abd da40 babc
00000370: 9b48 6a3c e211 273d e13d 02bd 9f6f c9bd
00000380: 6f59 903d 8a40 ed3c 3d34 ebb9 355b 1abc
00000390: 7acd 6abd ddea 243d 716e d53d 8480 aa3d
000003a0: 0218 1d3d 444d cdbd 4a89 a23d 9fdb 28ba
000003b0: 9ed5 29be 3bd4 f9ba 5441 9d3d 56e5 89bc
000003c0: d1df 89bd 85ab 2dbd 8887 e1bc d1c2 4a3d
000003d0: e54a 6f3a 2a17 f1bd ebe9 fb3c 9db3 643d
000003e0: 137b bf3d f992 2cbe aee6 dd3c 53d5 aebc
000003f0: 5177 c43b 0c2b 96bd 5a25 0b3e f5cf 373e
-0.09674768 0.06521533 -0.035334 0.056716427 -0.09424828 -0.07403831 -0.10703565 -0.055754066
0.14922132 -0.061525315 0.012152011 0.0890786 -0.079667106 0.051184084 0.024559544 0.022969577
0.110648796 -0.031982776 -0.039958794 0.22263508 0.049083948 0.01701536 -0.1576065 0.032686956
-0.15126318 0.019659827 0.07679349 0.12812132 0.015635012 0.026514927 0.053101763 -0.019779844
0.01582945 -0.031182816 -0.043256067 -0.04764088 0.008916104 0.023367787 0.0067412076 -0.02750633
-0.08526714 0.16109595 0.123019926 0.06395876 0.1112432 -0.048437305 0.020078287 -0.090546675
0.015044872 -0.016200716 0.09976421 -0.015530397 0.033969723 0.008874998 -0.050443366 0.06396837
-0.073937476 -0.06805912 -0.04100275 0.037285097 -0.013237111 -0.036404606 -0.13324374 -0.09611224
0.028756099 0.098605186 -0.02082754 0.017016962 -0.04977605 0.0039473036 -0.100704566 0.029855283
0.12944779 -0.1554799 -0.07188249 -0.16834138 0.14361016 0.018421803 0.1112734 0.023954608
0.017326772 0.02553017 0.06863005 -0.036623064 -0.050248276 0.10517688 -0.008343221 0.123441234
0.010317064 -0.08125875 0.2054292 -0.057892956 0.068883896 0.033080403 -0.05740946 0.050747473
0.16502385 -0.024103438 -0.06354671 0.04287393 -0.054390542 0.019553756 0.15918954 0.032020506
-0.09739929 -0.09403692 0.036172897 -0.047767222 0.096107036 -0.09512881 0.06317495 -0.02552721
0.034912344 -0.03309332 -0.0060400185 0.059427895 -0.022169475 0.022019988 0.009211943 0.04575034
0.085704 -0.055400986 0.10027405 -0.06266293 0.14309527 0.04664623 0.074980356 0.0031640097
-0.010118195 0.0030562943 -0.008774977 -0.033999894 -0.020058703 -0.03567746 -0.07755049 -0.11545404
0.027576981 -0.005252853 -0.06734371 0.11687362 -0.08374141 -0.022505555 -0.1081327 0.019582842
0.06220317 0.039015885 0.088104986 0.059815872 0.023965176 0.016541954 -0.10180228 -0.02322347
-0.049913757 -0.12297201 -0.04335842 -0.1327993 0.06652503 0.12443771 -0.04120653 -0.045911193
0.067585364 0.07049634 -0.08247493 -0.06528389 0.0054077734 0.04452475 -0.007932114 0.062355705
0.073482595 0.105046704 -0.007854699 -0.08696477 0.07050827 -0.10011037 0.0826761 -0.03982677
-0.006138777 -0.055454288 0.0064660185 -0.12372917 -0.0066477656 0.055900685 -0.014063173 0.07718009
0.026531847 -0.1610142 0.0073503125 0.10092405 0.09552274 -0.08635179 0.09826962 0.054455124
0.10144871 0.028967392 -0.023475496 0.030278578 -0.039617755 0.06722964 -0.042175215 0.06867086
0.021200519 -0.009540211 -0.017686754 0.014064028 0.18590812 0.12906286 0.06759682 -0.034322005
-0.02577487 0.043842524 0.06952255 -0.034802336 -0.018057061 0.09224547 -0.03804227 0.027850684
-0.08273416 -0.13583374 -0.04546925 -0.022736002 0.014299537 0.04078854 -0.031797294 -0.09835743
0.07048308 0.028961439 -0.00044861613 -0.0094211595 -0.057324864 0.040263046 0.10421456 0.08325294
0.038352974 -0.10024503 0.07936342 -0.00064414175 -0.16585395 -0.0019060442 0.07678476 -0.016832989
-0.06732143 -0.042399902 -0.027530447 0.049502198 0.00091282866 -0.11771996 0.03075119 0.055835355
0.093496464 -0.1685294 0.027087536 -0.021341955 0.005995669 -0.07332429 0.13588467 0.17950423

weight_hh_l1 f4 [512, 128]
00000000: ec54 7dbd 8ae2 643c 88ab c33d 0817 133c
00000010: f32e b73c 22a4 823d 70c5 93bd 3454 4f3d
00000020: 0f11 7ebd 68ca 803d 0945 393e 810c 1fbd
00000030: 323b 08bd 188d 0f3d 4ec4 0cbd 2906 a73d
00000040: 4f1c 4d3d 9f3f bebc eb79 28bc b5dd 0d3d
00000050: 89dd 70bd d887 1fbe a9f6 c2bc f2ae 933d
00000060: 4eed 06be eebb ba3c 47ab 82bd 1c99 1a3d
00000070: 8cf9 04be b858 9f3b 360e 373d 260c cf3d
00000080: 9c9c af3b 504e 033e 3e52 2b3d 8dc7 a4bd
00000090: 121a 443d b1d9 d93c a3b4 e03d 9a89 7bbd
000000a0: f9f0 373d b5e6 e93c 61c9 2cbb 9161 81bb
000000b0: d9c0 3f3e 1391 b6bd 645f d5bc 2132 8abd
000000c0: abdb d8bc 2d58 b3bd 3bd6 263d 7176 dfbd
000000d0: 4005 2a3d 7de6 13bd 0d22 98bd abfb ef3d
000000e0: 45ee b4bd afd5 173e c87e 54bd 0a72 acbd
000000f0: 5317 abbd ded0 cfbc 4d67 933d 44d4 bdbd
00000100: 7f1e 773d 30f3 d5bc e6ad 623d cbbe 7b3c
00000110: 112f 22be 9da7 783c a6be 483c 8daf 67bd
00000120: 90be 08be dc84 80bc 1b43 33bd d887 053e
00000130: f91a 94bb a839 ccbd 21ac 403d 805b 9cbc
00000140: 0d1f 42be a1f6 0d3d aa28 4abd 7509 c93d
00000150: 5079 dcbd 0aaa 8b3d 7724 98bd c33c 35bd
00000160: fc62 b8bd e0ad 2ebd 0bb5 073e f77b 623c
00000170: c761 033d eb84 493c b6cd bbb9 928a 60bd
00000180: 7d94 05be f726 7bbd 63fc 3bbd 8e0b 9cbd
00000190: dcfc 81bd 461a e2bd 64f2 3d3c 6826 2b3c
000001a0: 1264 3f3f 3170 07bc b701 febc 8e8b a53d
000001b0: 5910 903d a183 313d e4cd c0bc e3b2 d93b
000001c0: 478e 0dbe d371 b4bd 17e3 cf3d 0cef 4f3d
000001d0: 87d8 c6bd 5fe4 a2bd c053 8fba 2829 93bc
000001e0: 9629 833d 3393 0e3e 88c4 3cbc b167 043e
000001f0: 3ecd 0d3e c191 9d3d 8f80 62bd 0c9f 93bd
00000200: 8311 bbbd 28a2 553c 5f31 1c3d 8960 6fbd
00000210: 4f6d 3abd 0382 e83d 4642 73bd cd82 3dbe
00000220: 31da 02be 32e3 263c bbd5 063d 1b91 edbd
00000230: 2612 f8bd dbfe 7dbd 00b0 3c3c 62c3 263d
00000240: c10a d13d 9743 e33b 67f0 df3d efa6 0bbd
00000250: 478e d6bc ad28 b4bd 166c a93d 9046 713c
00000260: d059 6dbc 389c d5b8 bb84 f53c 8f2d 0cbd
00000270: 07bc d63d 407f 023c fac7 b33c 4ae5 273d
00000280: d4c4 c63d 9218 e93d dba0 593d f8be 93bd
00000290: 77da 92bc 34e0 333e aac3 033e 1fbf f1bd
000002a0: 7ccb 9e3d f581 b7bc e59d 033d dc1f 8e3d
000002b0: b5a8 363d 0fe5 e53d 11de a03d 3d89 773d
000002c0: 2ddc 773d 0f5d 02be a12d a8bc 0be7 8bbc
000002d0: eee6 613d 7980 52bd 3286 e4bd 9449 2c3d
000002e0: e0bc 9c3d e3bc 3c3d 17cc b43d 3ebc 85bc
000002f0: 6235 a13b 41e3 bbbd 7223 09be ba16 1abd
00000300: 4517 513d 0b25 92bd 737d b3bc 25ce b93c
00000310: 68c0 8fbd 6c33 19be fa3b 02bd aaea be3b
00000320: 01c8 36bd 0c80 73bd 87ed 8dbc 342f 47bd
00000330: abd0 4d3d b9e8 a63d e4f0 afbd 58e3 07be
00000340: c7d3 403d c6d6 93bc a7eb 863d e328 f83c
00000350: e428 febc 046c 753b 8a1d d4bc 9beb 79bc
00000360: 7632 dbbc a74d c0bd c3e3 523d 27fb d83d
00000370: bba5 69bd e06c a3bc 5feb d73b f7c0 0bbd
00000380: e934 66bd bc76 abbd e716 8fbd cb50 2dbd
00000390: af8f 753d b16d 02bd 2a90 b4bd 760c 9b3d
000003a0: dc3f 2f3e 54e9 d23d 6d42 213c 3858 0a3d
000003b0: f1f1 1c3e 26a3 03be 3a10 93bd b523 9c3d
000003c0: cc3f 9cbc cdf4 70bd cfb1 e03d 81d8 51bb
000003d0: afcc 903c 975b 8f3d 398a 4bbd 181a 28bb
000003e0: 9fdc f0bc 2b84 063e 0de6 5f3d f241 9e39
000003f0: 1008 053e 9b34 4fbc 1b90 aabd 2aae 013e
-0.061848566 0.013970027 0.09554201 0.008977659 0.022361254 0.06378962 -0.072153926 0.05061741
-0.062027987 0.06288606 0.18092741 -0.038830284 -0.033259578 0.035046667 -0.0343669 0.08155472
0.050075825 -0.023223696 -0.010282974 0.034635264 -0.058805022 -0.15579164 -0.023799257 0.072111025
-0.13176462 0.02279469 -0.06380325 0.037743673 -0.1298582 0.004862871 0.044691287 0.10109739
0.0053592455 0.12822843 0.04182648 -0.08045874 0.047876425 0.026593061 0.10971954 -0.061410524
0.044907544 0.028552392 -0.0026365148 -0.0039483984 0.1872591 -0.089143895 -0.026046462 -0.067478426
-0.026471933 -0.087570526 0.04073165 -0.10911263 0.041508913 -0.036108483 -0.0742837 0.11717924
-0.08834509 0.14827608 -0.05187872 -0.08420189 -0.08354058 -0.02536815 0.071974374 -0.09269002
0.060331818 -0.026116937 0.055341624 0.015365313 -0.15838267 0.015176681 0.012252485 -0.056563903
-0.13353944 -0.015688352 -0.04376517 0.13040102 -0.004519817 -0.099719346 0.047039155 -0.0190866
-0.18957157 0.03465903 -0.049355187 0.09816257 -0.10765326 0.06819542 -0.0742883 -0.0442474
-0.09003255 -0.04264629 0.13252656 0.013823501 0.03207567 0.0122997565 -0.00035820686 -0.05481965
-0.13044925 -0.061316457 -0.04589499 -0.076193914 -0.06347057 -0.110401675 0.011593435 0.0104461685
0.7476207 -0.008266495 -0.031006677 0.080832586 0.07034368 0.04333842 -0.023535676 0.0066436394
-0.13823806 -0.08810773 0.10150736 0.050765082 -0.09709268 -0.079537146 -0.0010934994 -0.01796396
0.06404416 0.1392334 -0.011521466 0.1293018 0.13847825 0.07693816 -0.055298384 -0.0720807
-0.091341995 0.013039149 0.03813302 -0.058441672 -0.0455144 0.11352923 -0.059389375 -0.18506928
-0.12778546 0.0101860035 0.032918673 -0.11599942 -0.121128365 -0.062010627 0.011516571 0.040713675
0.10207129 0.0069355476 0.10934525 -0.034094747 -0.02619089 -0.08796821 0.08272569 0.014726296
-0.014486745 -0.000101857295 0.029970517 -0.034223136 0.10485082 0.007964909 0.021945942 0.04099015
0.09705511 0.113816395 0.05313192 -0.07214159 -0.017926438 0.17565995 0.12867609 -0.118040316
0.07753655 -0.022400836 0.032133 0.069396704 0.044594485 0.1122533 0.07854856 0.060433615
0.06051271 -0.12730812 -0.02052957 -0.017077943 0.055151872 -0.051392052 -0.11158408 0.042062357
0.076532125 0.046078574 0.088279895 -0.016325112 0.004919694 -0.091742046 -0.13392428 -0.03761933
0.051047582 -0.07135972 -0.021910405 0.022681305 -0.070191205 -0.14961022 -0.03179548 0.005826314
-0.044624332 -0.059448287 -0.017325176 -0.048629 0.05024783 0.08149857 -0.08590868 -0.13270319
0.047076967 -0.018046748 0.06587916 0.030292934 -0.031025358 0.0037448416 -0.025892992 -0.015253927
-0.02675746 -0.09389811 0.05148674 0.105947785 -0.05704282 -0.019949377 0.0065893377 -0.034119572
-0.056202803 -0.08372256 -0.0698679 -0.04231338 0.05995148 -0.03184289 -0.088165596 0.07570736
0.17114204 0.1029841 0.009842497 0.03377554 0.15326668 -0.12855205 -0.07180829 0.07623998
-0.01907339 -0.05882721 0.10971414 -0.0032019916 0.017675726 0.06999891 -0.049692366 -0.0025650319
-0.029402075 0.13136356 0.054662753 0.00030185241 0.12991357 -0.012646819 -0.08328267 0.12664095

bias_ih_l1 f4 [512]
00000000: 269e 1bbd 2c44 c6bc 1706 8dbd e170 6bbc
00000010: 3e4f 19bd d747 f1bc 8b0a abbc 5e94 303c
00000020: e4a6 eabd 7b83 11bd 42f2 9abd e3cb d3bc
00000030: 84a3 f8bb d32a 79bd a5ec d4bb 6e2c 69bd
00000040: 657e 34bc 1a8a 68ba 9ade acbc 90b3 65b9
00000050: 2287 a5bc d044 9dbd 3aca 153c 8e32 2ebd
00000060: 9864 4fbd c577 eb3c aea2 8bbd 96b5 35bd
00000070: d32b a3bc ebb1 8bbd 7723 b5bb 6891 8fbd
00000080: 5bbe b4bc f261 23bd e3a8 853b 568c 28bd
00000090: c6f6 24bd 6c66 c23c 16e7 32bd b137 b9bd
000000a0: be3b 6ebd 0ded 8dbd 8041 4f3c 90e9 413c
000000b0: 0dea 94bd 7d9b 41bd badd ecbc 0105 f73a
000000c0: 1da9 4bbb 7e61 40bd 6adb fbbc 02be ffbc
000000d0: 77a1 2abc 3f4f f43b e5e9 8fbc ed15 34be
000000e0: 0555 7bbc 5636 11bd 1e3a 91bd abae 1f3d
000000f0: 5769 02bd 4acd b5bc 6bf7 a0bc b95d 8abb
00000100: c002 0abd f69d 28bd 16f5 9c3d 2e43 9cbc
00000110: 591d e6bc 3772 d0bc e8c0 25bc e5c1 26bc
00000120: 1625 f5bc 7798 ffbc e51b 1dbc b21d a6bc
00000130: 23af f03c 977f 50bc f473 26bd c361 22bc
00000140: 1f78 7ebc b1db c7bd 0770 6cbd 19f6 60bc
00000150: 9455 80bb d943 f1bc 7466 40bd a624 8abc
00000160: 34d2 91bd 25e3 8d3a 3d74 6dbb 54e0 74bc
00000170: 9133 babc 5ced 3a3c eb3f efbd d018 0d3c
00000180: 9cb5 bcbc a665 d13b a816 a8bd fa3b f23c
00000190: 0b6b 483c f3a8 76bc 9684 1fbe 1507 123c
000001a0: 90f4 0ebe d462 14bd 1cba cfb9 d168 8fbc
000001b0: 57d4 fabc d7ec 0ebc c2f7 66bc b7f8 4ebd
000001c0: 79f8 dcbc 5c07 0abc 6d20 51bc c84c febc
000001d0: c944 43bd 37b9 7f3e 60f3 4fbd f528 6abb
000001e0: 8cd0 19be 92f9 91bc 2040 e9bd 3db7 02bd
000001f0: 22cd 943c 7aa0 99bb f8b1 84bd 555e c73a
00000200: 7adf 68bd 6407 d3bc 3ccb 8cbd dc34 db3c
00000210: 8996 5fbd c018 8cbd c915 c5bc 83b2 973c
00000220: 1e09 05be 4ccc 2ebd c8c5 58bd f6d4 0dbd
00000230: 8d3f d1bd 7018 24be a2b4 c8bb 1b20 51bd
00000240: 44ea 5b3c 86aa 153c 19a0 bebd b592 a0bd
00000250: 5008 35bd fe80 c8bd fe13 8f3c bda5 4bbd
00000260: b5c2 f5bc ef57 273c 2ca3 91bd 8689 5cbd
00000270: 8359 d7bc 178f 01be 901e 2dbc c48b 6dbd
00000280: b718 00bd 6330 91bc beac c2bb 37c6 31bd
00000290: 1a35 5ebd 52bb 3aba eff7 21bd 70dd babd
000002a0: 847b 82bd 4830 64bd c427 6dbb 8a94 60bc
000002b0: d90e b8bd ad42 89bd f54b c0bd 02b6 ae3b
000002c0: 5e5b 0abd 28b3 5bbc 3a69 833c bf8f f7bc
000002d0: 268d 583c 9233 00bd fcb0 ba3c 0a17 e6bd
000002e0: de22 92bc ddd2 c7bc c211 efbd bc2c 16bd
000002f0: ff85 dbbc e9ea cabc bf6c 21bd fb84 99bc
00000300: 808c a8bd 8db7 a5bd 2e3f d6bd c86c 36bd
00000310: 0d58 73bc cf7a 1dbd 36c0 fabc 821d d43b
00000320: 0002 18bd 3dcf 5dbd da0d 1cbc 59c5 54bd
00000330: c63c 1c3e 6799 55bd a9e2 1cbd d582 98bb
00000340: 13c4 f0bc 8ac1 09be d8dc 5cbd 19d5 9ebc
00000350: d468 5ebd 5885 0cbc 70ea 61bd 6960 5abd
00000360: ffb8 69bd 8743 863c 34b1 a23c 2385 02bd
00000370: 199a b03b 3d1f cbbc 23d6 46be bf08 7e3a
00000380: 6b80 ebbb d44b 303c 5bbe 42bd 9f1a 9abd
00000390: c009 60bc 42cf 11bd 0cf4 22be c96a c63c
000003a0: 4b67 893e 5ee5 4ebd aef1 45bc ba73 47bd
000003b0: f6c1 47bd 5c45 c7bc c17f 9ebc 19eb 95bd
000003c0: 02b2 9bbc 5459 debc 9623 b1bd ed69 1fbd
000003d0: 1f09 43bd 4eff 24be 1c66 1cbd 509b 80ba
000003e0: 7e9f f7bd 864d 2fbd 0cf1 3abe df17 6dbc
000003f0: b8ca 84bb 3242 053c 9797 6fbd a85c 85bd
-0.03799262 -0.024202429 -0.06885927 -0.014370174 -0.037429087 -0.029453201 -0.02087905 0.010777561
-0.11457613 -0.03552578 -0.07565738 -0.025854057 -0.007587852 -0.060831856 -0.006497937 -0.056927137
-0.011016463 -0.00088706764 -0.021102238 -0.00021906034 -0.020206038 -0.076791406 0.009142453 -0.04252868
-0.050633043 0.028743634 -0.06818138 -0.044362627 -0.019918358 -0.068210445 -0.0055279094 -0.07010156
-0.022063425 -0.03988833 0.0040789708 -0.04114946 -0.040274404 0.02373048 -0.043677412 -0.090438254
-0.058162443 -0.069299795 0.012649894 0.011835471 -0.07271204 -0.047267426 -0.028914321 0.0018846096
-0.0031076141 -0.046967976 -0.030744273 -0.031218532 -0.010414473 0.007455736 -0.017567584 -0.17586489
-0.015340094 -0.03545221 -0.07091163 0.038984936 -0.03183874 -0.022192616 -0.019649228 -0.0042225984
-0.03369403 -0.04116627 0.07663934 -0.019075003 -0.028090166 -0.025445087 -0.010116793 -0.010178064
-0.02992491 -0.03120063 -0.00958917 -0.020277832 0.029380387 -0.012725732 -0.040637925 -0.0099110035
-0.015531569 -0.097587 -0.057724025 -0.013730549 -0.0039164517 -0.029451298 -0.046972707 -0.016863178
-0.07120171 0.0010825141 -0.0036232613 -0.014946062 -0.022729667 0.01140913 -0.11682113 0.008611873
-0.023035817 0.0063902913 -0.08207446 0.029569615 0.012232552 -0.015054929 -0.15577921 0.008912821
-0.1396048 -0.036227062 -0.0003962078 -0.017506035 -0.03061883 -0.008723459 -0.014097156 -0.05053016
-0.02697395 -0.008424606 -0.012764079 -0.031042472 -0.04767302 0.24972998 -0.05076921 -0.0035729979
-0.1502096 -0.0178192 -0.11389184 -0.03191303 0.018164221 -0.0046883198 -0.06479257 0.0015210608
-0.05685375 -0.02576036 -0.068747014 0.026758604 -0.05458692 -0.06840658 -0.02405824 0.018517738
-0.12991759 -0.0426753 -0.052922994 -0.034626924 -0.102171995 -0.16024947 -0.0061250487 -0.05105601
0.0134225525 0.009134894 -0.0930788 -0.07840482 -0.04419738 -0.09790228 0.017465588 -0.049718607
-0.03000007 0.010213836 -0.07111201 -0.05384209 -0.0262878 -0.1265224 -0.010566369 -0.05799462
-0.03127357 -0.017723268 -0.0059410026 -0.043401923 -0.05424986 -0.000712325 -0.03954309 -0.09124267
-0.06371215 -0.055710107 -0.0036187032 -0.0137072895 -0.08987207 -0.067021705 -0.09389488 0.0053317556
-0.03377854 -0.013409413 0.016041387 -0.03021991 0.013217246 -0.03129918 0.02278947 -0.11234863
-0.017838892 -0.02439254 -0.11673309 -0.036663756 -0.026797293 -0.024770217 -0.03941035 -0.018740168
-0.08229923 -0.0809165 -0.10461269 -0.044537336 -0.014852536 -0.038447198 -0.030609231 0.006473244
-0.037111282 -0.054152716 -0.009524787 -0.051946018 0.15257558 -0.05214825 -0.038302097 -0.0046542683
-0.02939037 -0.13452736 -0.05392155 -0.019388722 -0.05429919 -0.0085767135 -0.055155218 -0.0533146
-0.05706119 0.016389621 0.019859888 -0.03186525 0.0053894636 -0.024795169 -0.19417624 0.00096906343
-0.0071869395 0.010760266 -0.04754482 -0.07524609 -0.0136742 -0.035598047 -0.15913409 0.024220841
0.2683662 -0.05051171 -0.012081547 -0.04869435 -0.04876896 -0.024325065 -0.019348027 -0.07320232
-0.01900578 -0.027142204 -0.086493656 -0.038919378 -0.04761612 -0.16113016 -0.038183317 -0.0009811912
-0.120909676 -0.04279854 -0.18256015 -0.014471023 -0.0040524863 0.008133458 -0.058494177 -0.065118134
